mnist_sample_cnn_server.pt (torch_old, 141069 bytes, 10 tensors)

weight f4 [3, 1, 5, 5]
000000 09 7b 61 bd b3 9a 82 bd 7c a2 05 3e f0 66 65 bc
       -0.055048976 -0.06377163 0.13050264 -0.014001593
000010 20 5b 21 be 46 fa 05 be 58 a5 40 3d 0a 36 8a bd
       -0.15757418 -0.13083753 0.047032684 -0.067485884
000020 6d 43 af 3d af 2e 09 be 1c 39 4a be dd a2 7a 3e
       0.08557782 -0.13396715 -0.19748348 0.2447619
000030 f8 af 06 3f 4d 21 04 3f fe ed 77 be 36 fa aa 3d
       0.52612257 0.5161331 -0.2421188 0.08348505
000040 69 cb 33 3f ad c8 30 3f 95 68 43 3f 7f f8 c9 3d
       0.70232254 0.69056207 0.76331455 0.0986185
000050 75 7f 21 be 72 90 9f 3e 55 86 30 3e 20 14 be 3d
       -0.15771277 0.3116489 0.17238744 0.09281182
000060 04 0e b0 be b4 68 a8 3c 05 8c 98 3d dc af 45 3e
       -0.34385693 0.020557739 0.074485816 0.19305366
000070 ff 53 85 3e c2 e3 78 3d b9 a9 e8 3c b8 41 b0 bd
       0.26040646 0.06076408 0.028401243 -0.08606285
000080 c3 e5 f8 3d ae b1 9c 3e 6c 21 ac 3e 8b 28 5e be
       0.121531986 0.3060431 0.3361925 -0.21695153
000090 04 78 15 be 9e 30 86 be 85 30 25 be 5b 2f 87 3e
       -0.14596564 -0.26208967 -0.1613179 0.26403317
0000a0 62 14 8a be 5d e2 2e be 5a 41 9c be 22 60 59 3c
       -0.26968676 -0.17078538 -0.3051861 0.013267549
0000b0 69 07 2f 3e 8a 9a 3c be 36 c3 c4 bd ce a8 0b be
       0.1709267 -0.18418327 -0.09607546 -0.13638613
0000c0 4a c2 91 bd e3 32 51 3e 1c 40 96 bd 74 a0 16 bb
       -0.07117136 0.20429568 -0.07336447 -0.002298382
0000d0 25 67 59 be 60 c8 9d bd 67 bf 8d be e8 71 32 3d
       -0.21230753 -0.07704234 -0.2768509 0.04356566
0000e0 24 5b be bc bc e2 cd bb 21 25 a9 be c1 3f ec be
       -0.023236819 -0.0062831324 -0.3303614 -0.4614239
0000f0 47 47 84 bd 30 6c e9 3d 2f 1a 43 be 58 85 93 be
       -0.064589076 0.11397588 -0.19052957 -0.2881267
000100 f4 07 a0 3d f9 61 e4 bc cb aa 0a 3e 55 0f cc 3e
       0.07814017 -0.027878748 0.13541715 0.39855447
000110 98 54 aa 3d 74 0b 77 3e 00 78 0a bb d3 62 70 3e
       0.08316916 0.24125463 -0.0021128654 0.23475198
000120 54 47 16 3f 48 f7 e5 3e 75 92 db 3e
       0.5870259 0.44915223 0.42885175

bias f4 [3]
000000 a8 13 ca be 3d e2 28 be 9a 51 43 bd
       -0.39468122 -0.16492553 -0.047685243

weight f4 [10, 3, 5, 5]
000000 07 a9 4b bd 83 2a 08 3e 3e c3 a0 3e d8 58 c5 3e
       -0.049721744 0.13297467 0.31398958 0.38544345
000010 41 db 07 3e c4 2a 7c 3b e4 fd 1b bd b0 89 4b 3e
       0.13267232 0.0038477639 -0.038083926 0.19876742
000020 c4 07 01 3d 75 6c 5d be c6 3f 90 be ee c1 1f bf
       0.031501547 -0.21623404 -0.28173655 -0.6240529
000030 28 8a 12 bf c6 fa 3a bf 92 63 c3 be e2 a8 02 be
       -0.5724206 -0.730389 -0.38161904 -0.12759736
000040 67 e8 d2 bd e7 4f 91 be ea 16 ae bd 56 82 ae bd
       -0.102982335 -0.28381273 -0.08500464 -0.08520953
000050 f4 0a 54 3e 60 a9 17 3e 14 20 90 bc 34 d7 6e bd
       0.20707303 0.14810705 -0.017593421 -0.058310702
000060 1a 2b d0 3d 3b 57 a2 bd 52 f9 07 bd 68 71 07 be
       0.10164471 -0.07926794 -0.033196755 -0.13226855
000070 e4 81 72 bc 53 27 fd bd 79 12 1d bd 05 a2 b6 bd
       -0.014801476 -0.12361016 -0.038347695 -0.089176215
000080 32 08 0c be d5 8c ae bd d7 9e 67 3d 8e 64 8d 3c
       -0.13675001 -0.08522955 0.056547966 0.017259862
000090 f3 a4 29 3d 46 df 56 bd 91 71 04 3d 7c 3e b3 3d
       0.041417073 -0.052459024 0.032334868 0.08752152
0000a0 c6 85 9e bd 04 45 be bd 68 ae 8d bd 39 92 ff bd
       -0.07740359 -0.092905074 -0.06918031 -0.12479062
0000b0 f9 fc f7 bd e7 00 82 bd 8a 61 d3 bd 80 89 1f b9
       -0.121087976 -0.06347828 -0.103213385 -0.00015214644
0000c0 fc 1c a4 bd 34 db da bc 50 76 14 3e 3b 9e 88 3e
       -0.08013341 -0.026715852 0.14498258 0.2668322
0000d0 8c a0 08 3e 21 fc 8a 3d 40 74 06 3e c3 5c c6 bc
       0.13342494 0.06786371 0.13130283 -0.024214154
0000e0 14 e0 c9 bd a3 79 34 be 1a 91 63 be 50 e1 da bd
       -0.09857193 -0.17624526 -0.2222332 -0.10687506
0000f0 5c 84 3c be 6e 5a ee bd e4 2d 51 be 2f 8f 0a be
       -0.18409866 -0.11638342 -0.20427662 -0.13531183
000100 f8 2e a9 3c 86 01 1d 3e ae c6 67 3d 42 84 cc 3d
       0.02065228 0.15332612 0.05658596 0.09986164
000110 2a 44 22 3e 37 a7 3b 3e c6 1c 17 3e 76 95 81 3d
       0.15846315 0.18325506 0.1475707 0.063273355
000120 55 b9 a0 bd ee 2b 5f 3d 9a 21 84 bd 46 37 91 bd
       -0.07847849 0.054485254 -0.064517215 -0.07090621
000130 cd 30 c9 bd d5 09 18 be a8 8b ea bc ee d6 b9 3d
       -0.09823761 -0.148475 -0.028631046 0.09074198
000140 cc ef 2e bd d8 1c d3 bd da 20 51 bd 16 94 ae bd
       -0.042709157 -0.10308236 -0.05105672 -0.08524339
000150 b6 64 2d 3e 9b ef e5 3d 7e 46 93 bd b5 2e b0 bd
       0.1693295 0.11227342 -0.0719118 -0.08602659
000160 52 37 5e bd ec 94 32 3e 17 3f 9c bd f5 c6 81 3d
       -0.054251976 0.17439622 -0.07629221 0.06336776
000170 e6 98 3c be cc 6c 1e be c8 68 0b 3e 2a fa f0 bb
       -0.18417701 -0.1547119 0.1361419 -0.0073540406
000180 44 2c fd bd 36 b7 a3 bd 84 55 9e bd e3 1a 00 3e
       -0.123619586 -0.07993929 -0.077311546 0.12510256
000190 7a 2a 1c bd 95 7c d4 bd 7b e8 98 bd 27 5f a5 3d
       -0.038126446 -0.10375325 -0.07466217 0.080747895
0001a0 00 56 e8 bd 2e 07 01 3d b1 2e 92 bb d8 26 bc bd
       -0.11344528 0.031500988 -0.0044611325 -0.09187096
0001b0 0d 9c 62 bd 10 58 87 bd 7f 69 47 bd 83 ff db bd
       -0.055324603 -0.066085935 -0.048684593 -0.10742094
0001c0 f2 2b 22 bc e2 c9 e6 3d 7f 2c d9 3d 8a d5 12 3d
       -0.009898173 0.11268975 0.1060419 0.035848178
0001d0 8a f1 b0 3d c1 57 95 3d e5 a4 2f 3d 6b bd 6c 3d
       0.0863982 0.07292128 0.042881865 0.05779783
0001e0 c2 37 84 3d 59 f9 b5 bd 52 89 86 bc 20 2b 4c 3d
       0.064559475 -0.0888545 -0.016422901 0.049845815
0001f0 fc b7 02 3e 5e 24 36 3d d1 27 00 bd 16 c4 b7 bd
       0.12765497 0.044468276 -0.031287972 -0.08972947
000200 de 2f 6f bd ec 42 72 bd f4 07 4a 3d fe 91 f5 bd
       -0.05839526 -0.059145853 0.04932399 -0.119907364
000210 de 67 4c bd aa fc 37 bd a6 8f 9c bd 08 d1 96 bd
       -0.049903743 -0.044918694 -0.07644586 -0.07364088
000220 76 e8 9d bc 9f d7 29 3d 52 b6 dc bd d7 90 69 bd
       -0.019275885 0.041465398 -0.10776962 -0.057022896
000230 69 ea 90 bd 94 d5 e9 bd 19 b6 12 be 3f 71 07 3d
       -0.0707596 -0.1141769 -0.14327277 0.033066984
000240 00 d4 21 3a ac ff cc bd 8e 2c d4 bd 63 b7 e1 bd
       0.0006173253 -0.10009703 -0.10360061 -0.11021306
000250 0e 8a 76 bd a8 73 cc bd 5e 62 c7 bd 17 d7 bc bd
       -0.060190253 -0.09982997 -0.09735559 -0.09220713
000260 54 a7 73 3e 93 c9 c4 3e 9a d5 75 3e 46 18 c7 3b
       0.237943 0.3843504 0.24007264 0.0060758917
000270 a4 f7 81 3e 51 12 95 3d ba d0 66 be b4 70 76 be
       0.25384247 0.07278884 -0.2254056 -0.2406643
000280 4c 21 33 3e 34 2a 2b 3e 46 d9 83 be 00 27 e0 be
       0.1749317 0.16715318 -0.25751704 -0.43779755
000290 f0 70 c7 be c0 29 6e bb 7c 3b 28 be 04 76 9b be
       -0.38953352 -0.0036340803 -0.16428941 -0.30363476
0002a0 0d 88 d1 be 75 61 76 be d1 7e 0d 3e 82 1c 94 3c
       -0.4092411 -0.24060614 0.13817908 0.01808
0002b0 b1 81 29 be 70 83 e3 bd e7 29 29 be 07 89 b1 3d
       -0.1655338 -0.11109054 -0.1651989 0.08668714
0002c0 a2 f4 88 bd 50 e4 f0 3d d2 84 59 3d d7 9a 93 3d
       -0.06687285 0.11762297 0.053105183 0.07207268
0002d0 aa df 20 bc fc 05 0a bd 97 14 14 be a9 12 1f 3c
       -0.009818951 -0.033697113 -0.1446098 0.009709039
0002e0 b3 57 75 3d 71 0e ce 3d 69 b9 38 3c bc 9c d3 3c
       0.05989809 0.10061348 0.011274674 0.025831573
0002f0 30 d8 09 3c 8a ff 9b bc 70 1b 23 3d a8 60 ac 3d
       0.0084133595 -0.019042749 0.03982109 0.08416873
000300 82 63 5e bd 14 c5 52 3d 9e 33 50 3d a2 94 95 3d
       -0.054294117 0.05145748 0.050830476 0.0730374
000310 a7 03 07 be b3 2d ed 3c ff 8e bc bd d0 a6 9e 3d
       -0.13184987 0.028952455 -0.09206962 0.07746661
000320 d7 9d e9 bd fe af f1 3d 97 60 52 3e dc 8d e8 3d
       -0.11407059 0.11801146 0.20544659 0.113551825
000330 a5 c8 24 3e 80 18 41 bb 7c a4 44 3c be f8 3f be
       0.16092165 -0.0029464066 0.012002107 -0.18747231
000340 1c 91 f3 bd da be 06 be 78 0a ad bd 7b d6 f8 bc
       -0.11892912 -0.13158742 -0.084492624 -0.03037571
000350 b2 55 56 be c6 81 6e be 92 6f 19 be 74 34 b0 bd
       -0.20931128 -0.23291692 -0.14983967 -0.08603755
000360 d5 af 30 bd 00 91 15 be 1c 35 f7 bd 38 40 6d 3b
       -0.043136436 -0.14606094 -0.12070677 0.0036201607
000370 80 19 23 bd ce 65 fc 3d 44 3f 31 bd 24 da eb bd
       -0.03981924 0.12324105 -0.043273225 -0.115162164
000380 6d 40 1f be ea 7c 9f bc 2e d7 a1 bc 56 69 63 be
       -0.1555192 -0.019468743 -0.019755926 -0.22208151
000390 cc a1 36 be 55 9d 20 be 33 4b 00 3e 4a 4b fa 3d
       -0.17835158 -0.15685017 0.12528686 0.122213915
0003a0 9a 8d b3 3d 92 b7 7b be 74 3a 66 be 1c 09 8b be
       0.08767243 -0.24581745 -0.22483236 -0.27155387
0003b0 06 41 f6 3d e1 d5 90 3e 9a c3 76 3c ce 50 0e be
       0.12024121 0.28288177 0.0150612835 -0.13898012
0003c0 62 e0 95 be ab 7f 5f bd 3e ad 04 3e 02 f1 ed 3d
       -0.29272753 -0.054565113 0.12956712 0.11618234
0003d0 33 4a e5 3c 6e 1e 27 be 37 75 52 3d 55 da 2e 3e
       0.027989483 -0.16320202 0.051381316 0.17075475
0003e0 12 f2 aa bd 82 24 df bd 46 9b 95 bc 81 91 3d be
       -0.083469525 -0.10895635 -0.018262517 -0.18512537
0003f0 64 91 b4 bd 36 f6 a8 bd fc 6a 96 bd 62 af da 3c
       -0.088167936 -0.08250086 -0.073446244 0.026694957

bias f4 [10]
000000 40 1b 1f 3c b0 3d b1 bc cc 8e d7 3d 00 2c 28 be
       0.009711087 -0.02163586 0.10525283 -0.16423035
000010 d7 d5 68 bd 5d 44 2a be 85 a1 2e be cc ed f3 bd
       -0.05684456 -0.16627641 -0.17053802 -0.119105905
000020 cd 37 c3 bd 9e 75 0c bd
       -0.095321275 -0.034291856

weight f4 [120, 160]
000000 99 2e 09 3d 0b e7 1e bc 3a 80 38 3d b1 f7 03 3d
       0.033491705 -0.00969864 0.04504416 0.03221864
000010 b6 bc 10 bd e4 17 02 3c 3e 31 a6 3c bc 2c 6c bc
       -0.03533622 0.007940266 0.020287152 -0.014414962
000020 f6 15 45 3d d1 b1 ef 3c 04 39 58 3d 23 5c 7a 3d
       0.048116647 0.029259594 0.05278875 0.061123025
000030 07 c3 02 bd 18 06 69 bd eb 4c c0 bc 20 cc 8a bd
       -0.031924274 -0.056890577 -0.023474177 -0.06777215
000040 96 08 5c 3d e8 05 46 3c 80 d7 6f bc 60 c0 99 3d
       0.053719126 0.012086369 -0.014638782 0.07507396
000050 57 ed 86 bd 9e 79 60 3d 9e fb 9f bd 39 51 89 3c
       -0.06588238 0.054803483 -0.07811664 0.016762363
000060 82 aa 2d bd 22 f7 85 3d 8a 0b b1 3c 24 db 10 bc
       -0.042398937 0.065412775 0.021611948 -0.00884131
000070 ec a8 73 bd 77 98 e8 3c 06 97 32 bd b4 62 a0 bd
       -0.05948727 0.028393013 -0.04360106 -0.07831326
000080 b8 3a 02 3d e8 b1 1d bd 56 4a 9f 3d b0 30 a0 bd
       0.03179428 -0.038499743 0.0777785 -0.078217864
000090 c2 62 ab bc 02 ac db bc 2d 3f 8f bc c2 d5 9d bd
       -0.020921115 -0.026815418 -0.01748618 -0.07706787
0000a0 e4 ef 5b bd 4b cf 6e 3d b2 c8 8c 3d 7b 2f 48 bd
       -0.053695574 0.05830316 0.06874217 -0.048873406
0000b0 38 90 e8 bb f6 c6 d8 3b 79 91 52 3d 10 7c f7 bc
       -0.0070972703 0.006615515 0.051408265 -0.030210525
0000c0 80 5f 8d bd b9 59 61 bd 24 28 87 3c 60 b4 c8 bb
       -0.06902981 -0.055017207 0.016498633 -0.006125018
0000d0 aa b2 2c 3d d8 7b 2e bd ca d9 19 3d f6 be 62 bd
       0.042162575 -0.042598575 0.037561215 -0.055357896
0000e0 87 65 46 bd 35 bc e9 3c c2 ac 1f bd 36 ed 9f bc
       -0.048436668 0.028532127 -0.038983114 -0.01952229
0000f0 16 89 c7 3c 17 ea 62 3d ec a2 00 3c 86 db 9c bd
       0.02435736 0.055399027 0.007851344 -0.07659058
000100 32 01 e4 3c dd 0e 83 bd b5 04 53 3d d2 87 61 bd
       0.027832601 -0.06399319 0.05151816 -0.05506117
000110 41 bf 59 bd e7 c1 0b 3d 0c cd 94 bd fa af 6d bd
       -0.05316091 0.034120467 -0.07265672 -0.058029152
000120 c2 4e cc 3c f4 6e cf 3b 21 5b 0e 3d 8e 71 30 3c
       0.024939898 0.0063303653 0.034754876 0.010769261
000130 79 3a 66 bb bb 55 82 3d ee c0 49 bd fe ad 7d bc
       -0.0035130067 0.06364008 -0.049256258 -0.0154833775
000140 89 49 55 3d 00 74 14 ba b2 c6 17 bd 9a 45 1c bd
       0.05207208 -0.00056630373 -0.037054725 -0.038152315
000150 b8 af b2 3b ee 80 a0 bd d9 16 10 3d 02 89 d0 ba
       0.005453076 -0.078370914 0.03517804 -0.0015909972
000160 6c 8a cc 3b c1 15 3b bc b6 b0 97 bc 4c aa 13 3d
       0.006242087 -0.011418761 -0.01851688 0.03605108
000170 9a 17 ff 3a 32 db 60 3d b5 e8 17 3d 1c aa 99 bc
       0.001946199 0.05489654 0.03708716 -0.018757872
000180 9a ca 1d 3b e7 8a ff bc 4e 7f a8 3c 04 29 9e 3c
       0.0024077059 -0.031194163 0.020568516 0.019306667
000190 c2 1a 80 bd 64 bd 5b bd d3 9a 1e bd 95 f6 91 3d
       -0.06255104 -0.053647414 -0.03872187 0.0712711
0001a0 20 67 0e bd f6 ec 88 3d ce 8d 4a bd 80 4b 0c 3d
       -0.034766316 0.06685822 -0.04945164 0.03425169
0001b0 ff 6b 5f bd 04 96 fa bb b1 0d 39 bd 7e 7f 44 bd
       -0.054546352 -0.007647278 -0.045179073 -0.04797315
0001c0 45 3c 1d bd 46 60 ab 3a ec f4 b5 bd a7 06 c2 bc
       -0.038387556 0.0013074956 -0.08884606 -0.023684813
0001d0 9c 7f 5e bd 84 ce 28 3d 0d 7e 6f bd 93 3e ad 3d
       -0.054320917 0.041212574 -0.05846982 0.08459201
0001e0 92 dc fa 3c 7d eb 29 3d c3 b7 9a bd e6 c3 c0 bc
       0.030622754 0.041484345 -0.07554581 -0.023530912
0001f0 7c 68 9c bd 65 bc 78 bc 27 98 40 3d b3 38 67 3d
       -0.07637116 -0.0151816355 0.047020104 0.056450557
000200 80 a8 53 bc 77 56 97 bd a1 dc 9e bd 9f e2 53 bd
       -0.0129185915 -0.07389539 -0.077569254 -0.051729795
000210 58 80 d7 bc 38 8f 34 bd a8 c0 93 3d 8a cb 7a 3c
       -0.026306316 -0.044081897 0.07214481 0.015307317
000220 8c c0 9a bd 27 05 89 bd 62 f9 44 bd 41 00 8d bd
       -0.07556257 -0.06690436 -0.048089392 -0.06884814
000230 a2 0c 85 3d 42 ee 00 3c c5 28 5f 3d cb eb b1 bb
       0.0649655 0.007869305 0.05448224 -0.00542972
000240 73 1c 3a 3c 14 3d 0a 3c 7b 4e 05 3d 9b 87 69 3c
       0.011359322 0.008437414 0.032545548 0.014253522
000250 46 e4 e1 3c af ac 9f 3d 4a 71 47 3b 78 5e a3 3d
       0.02757467 0.07796609 0.0030432516 0.07977003
000260 08 1a 8b bd 74 fb d7 3c da 2f a9 3c 01 7d 6f 3d
       -0.067920744 0.02636502 0.0206527 0.058468822
000270 c2 e2 80 bd 24 15 8a bd b9 4d 99 3d 9e 4b 59 bd
       -0.062932506 -0.067423135 0.074855275 -0.05305063
000280 92 bb 08 3d 5c ec a9 bd 3c 88 ab bd ae ed 0f be
       0.033382006 -0.08297035 -0.08375594 -0.14055511
000290 05 91 1f bd c2 1c 46 bd fb f9 29 bd 0e 47 11 bd
       -0.03895666 -0.04836727 -0.041498166 -0.035468154
0002a0 62 d3 56 bc 9c 19 94 3d f2 81 b9 bc c2 30 ef 3c
       -0.013111921 0.07231447 -0.02264497 0.029198054
0002b0 7a 6a 1a 3e 2d 30 09 3e f1 0f 5c 3d 40 75 ed bc
       0.1507968 0.13397284 0.05372614 -0.028986573
0002c0 98 9e 58 bd 78 a0 36 3d 1c 35 a7 3d 3f f0 8d bd
       -0.05288562 0.04458663 0.08164427 -0.06930589
0002d0 d8 60 3d bd 39 57 94 bd ae e1 4e 3c b5 a1 e7 3c
       -0.046234936 -0.07243199 0.012627048 0.02827535
0002e0 28 78 6e bd 00 ca eb 3c bd 8b 54 bd 72 7f 1c bd
       -0.05822006 0.028782845 -0.051891077 -0.03820748
0002f0 57 c0 2b bd 3b 58 98 bc 60 f8 2d 3d 05 e9 86 3c
       -0.041931476 -0.018596759 0.042473197 0.016468534
000300 58 ad cc 3c fa d8 00 3c 80 1f b3 3a 5e b3 6d 3d
       0.024985 0.007864231 0.0013666004 0.058032386
000310 c6 90 c6 bc 2f f7 05 bd bd 35 d8 bc 72 b1 07 3e
       -0.024238955 -0.032706436 -0.026392812 0.13251284
000320 40 48 96 39 71 11 ce bc fe da 16 bd 22 cf 8b bd
       0.0002866406 -0.025154801 -0.03682994 -0.06826617
000330 fa 34 4b 3c 94 5a 2f 3d 8e 60 90 bd 6c c7 c6 bc
       0.012402767 0.04281099 -0.07049666 -0.024265014
000340 e9 7a 47 3d 7f d2 c3 3d 2a 7d 4e bb 39 b4 9e bd
       0.0487012 0.09561633 -0.003150771 -0.077492185
000350 75 b0 d8 3c 96 2d 8a bc 9d 8a 25 bb e9 06 7c bc
       0.026451329 -0.01686744 -0.0025259622 -0.015382507
000360 99 5c bc bb 3e 13 51 3d 68 5c 6f 3d 9b e9 01 3e
       -0.005748343 0.05104374 0.058437735 0.1268677
000370 44 0a 66 bd 4f fd 81 bc 22 d2 a9 3d 0d d9 a2 3d
       -0.056162134 -0.015867857 0.08292033 0.079515554
000380 65 0a db 3d f8 99 54 3c 72 8c 67 bd d8 fb 85 bd
       0.10695342 0.012976162 -0.056530423 -0.06542176
000390 5e e6 54 3c e2 39 06 3b 84 d2 23 3d bc 8f 3f bc
       0.012994377 0.0020481278 0.039995685 -0.011691984
0003a0 42 dd 22 3d b8 dc dc 3d 6a bf bd bd d0 8a ad bd
       0.03976179 0.10784286 -0.09265025 -0.08473742
0003b0 9e fe f1 bc fa 28 85 3c 03 4d 20 bd 35 14 db bb
       -0.029540356 0.01625489 -0.039135944 -0.0066857585
0003c0 33 4e b2 bd 00 9e ff bd a8 a9 15 bd 5a eb 94 3d
       -0.087063216 -0.12481308 -0.03653875 0.07271452
0003d0 be 23 a0 3d c1 45 07 bc 2b 42 42 bb 06 cc 4d bd
       0.07819317 -0.008256377 -0.002964149 -0.0502434
0003e0 e9 82 8e bc 55 ee 01 be 9a 7e 70 bd c0 2f ca 3d
       -0.017396407 -0.12688573 -0.058714487 0.09872389
0003f0 41 8f de 3b 78 b1 8e 3d db c3 03 3c 95 45 34 bd
       0.0067919795 0.06967443 0.008042301 -0.04401167

bias f4 [120]
000000 a6 26 9b 3d c5 d4 69 3d af 1a d8 3c 00 3d 4f 3d
       0.07575731 0.05708768 0.026379911 0.050595284
000010 ec a7 8a 3c 8d 2f ac bb 91 bd bc 3b c1 35 40 3b
       0.016925775 -0.005254692 0.0057599028 0.0029328915
000020 cc f7 2c 3d dd 9f 9c bd 82 d5 70 bd 90 1f 12 3d
       0.042228505 -0.07647679 -0.058797367 0.03567463
000030 07 77 36 bd e2 9d a3 3d 33 26 56 3d 05 f2 24 3d
       -0.044547107 0.07989098 0.052282523 0.04026987
000040 06 ee da bc ef 31 58 ba 82 57 55 3d 50 83 d4 3c
       -0.026724827 -0.0008247187 0.052085407 0.02594152
000050 1a ab f0 bd 51 e5 c1 bd ef 8a 74 bd 38 c7 95 3a
       -0.11751385 -0.09467567 -0.05970281 0.001142717
000060 f9 75 58 bd 3b e2 fb bc 36 02 53 3d 11 d8 62 3d
       -0.052846882 -0.030747524 0.05151578 0.05538184
000070 c4 05 63 bd 98 26 38 bd 3f b5 09 3d 00 c0 d2 3a
       -0.05542542 -0.04495868 0.033620115 0.0016078949
000080 be 39 14 3d f8 33 87 3d 6f 54 12 bd b5 00 2f bc
       0.03618788 0.06601709 -0.035725053 -0.010681321
000090 3a 42 fe 3d a5 42 31 3d 5a 55 12 bd fc e0 48 3c
       0.124149755 0.043276448 -0.03572593 0.012260672
0000a0 41 30 c7 3d ac b8 6b 3d a8 14 e8 bc 73 16 bd 3c
       0.097260006 0.057549164 -0.028330162 0.023081994
0000b0 8b 31 2d 3c e5 0d e1 3d eb b3 d7 3a 6e af 82 3c
       0.010570894 0.10988978 0.0016456818 0.015952792
0000c0 1d 2d 45 3d cb dc 87 bd d5 8d bf 3c 01 98 fc 3d
       0.048138727 -0.0663391 0.02338306 0.1233368
0000d0 d0 1e fc 3c 00 28 1c bd 6f 1e 85 3d 50 ce c9 bc
       0.030776411 -0.038124084 0.06499945 -0.02463451
0000e0 55 dc 38 3d f4 a7 9d bb c8 53 3a 3c c0 6c 50 bd
       0.045132 -0.0048112813 0.011372514 -0.050884962
0000f0 ae 10 24 bb af 4e 6e bc 24 90 14 bd 7e 55 f5 3b
       -0.0025034356 -0.014545127 -0.036270276 0.007486998
000100 0c 08 9a bd a0 f8 93 bd ec f5 05 3d 08 65 89 3d
       -0.07521066 -0.07225156 0.032705233 0.06708723
000110 1c ad ca 3c 6b 87 62 3d ea 78 51 bd 74 cf 1a bd
       0.024740748 0.055304926 -0.051140703 -0.0377955
000120 ad 2c a6 3d d3 9c a6 3d ef e5 d2 3c 54 00 2b bc
       0.0811399 0.081353806 0.025744407 -0.01043709
000130 49 21 ee bc 4e 8d 9e 3d 29 b5 07 3d be ea 5c 3d
       -0.029068606 0.077417955 0.033131752 0.053934805
000140 f4 ba 06 bd 1a 32 82 bd 4c 18 bc bd 4f 00 0d 3d
       -0.032893136 -0.06357212 -0.09184322 0.034424122
000150 bb d2 8d bd 4f b6 9d bd c8 da 61 bd a7 f3 13 3d
       -0.06924959 -0.07700788 -0.055140287 0.036121037
000160 97 b7 90 bd 49 fc be 3c ad df f5 bb 05 64 31 bd
       -0.07066267 0.023313658 -0.007503471 -0.043308277
000170 6a db a2 bd 4c 95 e6 3c 26 c3 cc 3c 24 c3 a4 bd
       -0.07952006 0.028147362 0.024995398 -0.080450326
000180 68 61 88 bd 52 57 82 3d 86 58 18 3c 26 32 04 3d
       -0.06659204 0.06364311 0.009298449 0.032274388
000190 dd cc 22 3d 74 50 43 3d 61 2c 92 3d 1a 22 95 bc
       0.039746154 0.047684148 0.07137371 -0.018204737
0001a0 33 00 56 3d 89 e1 2c bd 48 85 14 3d 63 be 89 3d
       0.052246284 -0.042207275 0.03625992 0.067257665
0001b0 5a e9 68 3d 13 f3 3c 3c 36 42 bd 3c 30 2f b2 3b
       0.056863166 0.011532563 0.02310286 0.005437754
0001c0 cc 0d 91 bd 52 95 1e 3c 3a 9a b3 bc db 17 10 bc
       -0.0708271 0.009679155 -0.021924127 -0.00879475
0001d0 e2 dd 2f bc 3d c8 84 bc 72 61 71 bd c4 a9 10 bd
       -0.010734053 -0.016208762 -0.05893082 -0.03531815

weight f4 [84, 120]
000000 e6 6c 50 bd 0c 4c 79 3d 11 b8 98 3d c4 1f b0 bc
       -0.050885104 0.06086354 0.07456983 -0.021499522
000010 57 db 2c bd 42 a7 71 bd 0c a5 1a bd 3d 65 87 bd
       -0.042201366 -0.0589974 -0.037755057 -0.066111065
000020 80 31 04 bd 93 72 da 3c 0a 33 34 3c 01 91 36 3d
       -0.03227377 0.026665961 0.010998497 0.04457188
000030 f3 bd 36 3d 59 02 80 bc 2a 47 69 bd e7 27 9f bd
       0.044614743 -0.01562612 -0.056952633 -0.07771283
000040 2c ed c6 bc 95 c2 97 bd 98 ad 31 bd 01 85 a1 bd
       -0.024283014 -0.074101605 -0.043378443 -0.078866966
000050 4e 0f 22 3e a6 b3 ae 3c 1d ca b4 3d c2 95 39 bc
       0.15826151 0.021325897 0.088276125 -0.011327209
000060 b9 a4 ee bd 1c 8a 79 bd ca c0 9f bc df 43 75 bd
       -0.11652512 -0.060922727 -0.019501109 -0.05987918
000070 85 fd dd bc 3e 78 c1 bc c0 e5 b4 ba 43 74 ec 3d
       -0.027098427 -0.023616906 -0.0013801381 0.11545613
000080 20 4d 91 3d d3 ff e2 3c e2 72 40 bd dc 71 8a bd
       0.070947886 0.027709877 -0.04698456 -0.06759998
000090 25 7e 16 bd da 91 5c 3d ae ed ab 3d 0e d0 bc 3d
       -0.036741395 0.053850032 0.08394943 0.09219371
0000a0 90 2f f7 3c 7f 6e c0 bd d4 2b d5 3b 43 47 0d bd
       0.030174047 -0.093960755 0.006505469 -0.03449179
0000b0 fb 87 d1 3c 10 9c 41 bd 22 dc 98 bd f2 38 aa bb
       0.025577536 -0.047267973 -0.07463862 -0.0051947767
0000c0 64 e8 57 bd 32 16 e2 3c 39 bd 15 be 04 eb 9d 3d
       -0.05271186 0.027598474 -0.14622964 0.07710841
0000d0 1d 79 c6 3c 88 72 cc 3a 65 25 cd 3d 27 f0 92 3c
       0.024227673 0.0015598098 0.10016898 0.01793678
0000e0 ea 7a 1c bc 94 e9 8f bd a4 de 2d 3d 6a ed 41 bd
       -0.009550789 -0.07026973 0.042448655 -0.047345556
0000f0 bd ff 17 bd 6b 4d 7f 3d c6 8b d3 3a 74 43 b3 bd
       -0.037109125 0.06232969 0.0016139678 -0.087531
000100 9a 70 0c 3d bb 12 37 3d 80 e3 09 3a 6c 4a f5 ba
       0.034287073 0.044695597 0.00052600354 -0.0018714196
000110 36 a4 82 bd 88 b5 81 bd c4 d2 6e bd 19 97 bf 3c
       -0.06378977 -0.063334525 -0.05830647 0.023387479
000120 1c 7d 39 3d 0a a6 ce bc ae c8 5f bd 86 8a 6b bd
       0.04528533 -0.025225658 -0.054634742 -0.057505153
000130 2c da 16 bd 12 ff 31 3d b0 99 3f 3d 66 bf fc 3c
       -0.03682916 0.043456145 0.046777427 0.030852985
000140 8a a0 ba bc 16 cf ee 3a 3e 92 05 bd 71 86 10 3e
       -0.02278163 0.0018219675 -0.03261017 0.14113785
000150 8b fb c3 3c 20 8b 6d bd 77 b2 92 bd be 8c d4 bd
       0.023923656 -0.057994008 -0.07162946 -0.10378407
000160 06 29 3b 3d c3 fa 29 3d 1e 7a ae bc a4 ac 66 bd
       0.04569342 0.04149891 -0.021298464 -0.056316987
000170 d3 26 11 3d 5e a6 5b bc 15 42 34 3d 29 1c a2 bd
       0.035437416 -0.013406364 0.044008333 -0.079155274
000180 34 2b 96 3d cd 85 a2 3d 8c ff 9b 3d d4 b0 a3 3d
       0.07332459 0.07935677 0.07617101 0.07992712
000190 94 85 4e bd 38 c8 b7 bc 73 d2 ae bc 04 fd 19 bd
       -0.05042036 -0.022434339 -0.021340584 -0.03759481
0001a0 41 84 87 3d 8b 30 26 bd 2f e0 71 bd aa 07 8d bd
       0.06617022 -0.040573638 -0.05905169 -0.068862274
0001b0 87 07 a0 3d 71 77 ac bd 7d 73 84 3d c5 4a 96 bd
       0.07813936 -0.08421219 0.0646734 -0.0733848
0001c0 79 4d b9 bc cc fa 8e bd d1 bf 99 3d c9 ae 3f 3d
       -0.02261995 -0.069814295 0.07507289 0.046797547
0001d0 36 10 80 bd 50 7e 4e bd 0e 7f bf 3b 2e 06 01 bc
       -0.06253092 -0.05041343 0.0058440035 -0.0078750085
0001e0 20 2a 75 bd 75 e4 14 3d e5 9e 99 bd 30 d7 81 bd
       -0.059854627 0.036350686 -0.0750101 -0.06339872
0001f0 38 21 a0 bd 74 69 68 bd b2 99 3e 3d 13 4a 88 3d
       -0.07818836 -0.056741193 0.046533294 0.066547535
000200 f2 5e 75 bc 7e 52 3a bd 30 a2 eb 3c ad 77 db bc
       -0.01497625 -0.045488827 0.02876386 -0.026790464
000210 71 e2 36 bd fd 03 9b bd 0e 84 00 3d 07 64 8c bc
       -0.044649545 -0.0756912 0.031375937 -0.01713754
000220 93 d1 bb bd ce 4f 4d bd 24 ff 5d 3c 6b e7 ff 3b
       -0.091708325 -0.050124936 0.0135496 0.0078095696
000230 ec 82 78 bd b8 91 04 bd 17 18 90 3c ec 86 85 bc
       -0.06067173 -0.03236553 0.017589612 -0.016299687
000240 09 1f 81 3d 67 18 bf bc 57 30 c6 bd 47 2e 7a bd
       0.063047476 -0.023327066 -0.09677189 -0.06107929
000250 00 3b 40 b7 6b ee 49 bc 7e 16 24 bd 9d b6 1b 3d
       -1.1457829e-05 -0.01232491 -0.040060513 0.03801595
000260 08 33 b6 bd 3b 08 d2 3b 77 1b fb 3c 87 65 01 bd
       -0.08896452 0.0064096726 0.030652745 -0.031590965
000270 fe 0f ba bd 57 68 db 3c 39 d5 b0 bd 4e 12 5f 3c
       -0.090850815 0.026783152 -0.08634419 0.013615204
000280 51 58 9b bd f4 68 90 bb 6b 37 32 3d 34 ce 0a bd
       -0.075852044 -0.0044070426 0.043509882 -0.033888057
000290 70 4a 6b bd 15 3d 47 bd d8 16 6d 3c 04 d0 30 3c
       -0.057444036 -0.048642237 0.014470778 0.010791782
0002a0 89 ac 67 3b ad 59 97 bd 92 5b a4 3c 2e 9e ca 3c
       0.0035350642 -0.07390151 0.020063195 0.02473363
0002b0 35 1d 20 bd 2c cc be 3d 54 73 fe 3c d1 f7 ae bd
       -0.039090354 0.093162864 0.031060852 -0.08543361
0002c0 93 5a 8e 3d 4e d8 a2 bd 4b 30 f9 bc d7 0e b1 bc
       0.069508694 -0.07951413 -0.030418536 -0.021613522
0002d0 1b 7b 02 3d 75 4a bd 3c 1d 0c 14 bd 46 f3 9b 3d
       0.031855684 0.023106793 -0.036144365 0.0761476
0002e0 16 63 df 3a 24 d0 51 3d 26 c7 74 bc 8e fd 58 3d
       0.001704308 0.05122389 -0.014940059 0.052976184
0002f0 dc 6c 0a 3d fb 1d 2c bd d2 24 5a 3d 44 32 cb bc
       0.033795223 -0.04202078 0.05325777 -0.024804242
000300 ea b8 a2 bd 7e 04 b3 bc 0c eb 3e 3c e8 4a 52 bd
       -0.07945426 -0.021852728 0.011652719 -0.051340967
000310 38 92 a0 bd fe 19 21 bc 43 7b 85 bd 3b cd b1 bd
       -0.07840389 -0.009832857 -0.06517651 -0.08681723
000320 96 bd b6 3d 9c 14 b5 bd e9 d1 58 3d b4 a8 e9 bc
       0.089228794 -0.088418216 0.05293456 -0.028522827
000330 36 b4 09 bd 70 e5 fe bc f8 d3 8a 3d ac c0 01 bd
       -0.03361913 -0.031115264 0.06778711 -0.031677887
000340 69 b7 3f bd 7f 11 c6 bc b0 20 70 3d 6d 32 b2 3d
       -0.046805773 -0.024178265 0.058624923 0.08701024
000350 2b 42 00 bd 30 fb 16 3d 04 36 6e bd 89 31 02 bc
       -0.031313103 0.036860645 -0.058156982 -0.00794638
000360 f5 2b 0b 3d 3b 64 93 bb f0 48 82 bd 17 6a 8a bd
       0.033977468 -0.0044980324 -0.06361568 -0.06758516
000370 ba ae 52 3d ce a4 94 3c e2 8c a4 3c 02 6a 82 3c
       0.051436163 0.018144991 0.02008671 0.01591969
000380 92 a9 a9 bd ca a3 7e 3d d7 d9 bf bd d3 73 91 3d
       -0.08284296 0.06216792 -0.093677215 0.0710217
000390 7e b7 b6 bc 0a a4 d2 bd a0 cd 13 3d a4 3f a2 bc
       -0.022304293 -0.10285194 0.03608477 -0.019805737
0003a0 d9 ec 94 bc 05 26 5d 3d 02 09 3f 3d 73 ef a1 3c
       -0.018179344 0.053991336 0.04663945 0.019767499
0003b0 50 c5 2f 3d d1 fc 3b bd c6 fa 16 3c f8 a0 94 3c
       0.04291278 -0.0458954 0.0092150625 0.018143162
0003c0 59 d4 c9 bc 78 30 21 bc 4e 37 c3 bc ce b6 d3 3b
       -0.024637388 -0.009838216 -0.023830082 0.006461001
0003d0 58 6a 8d 3d aa e4 95 3d 8a 08 83 bd ad 84 8f bc
       0.06905049 0.07319005 -0.06398113 -0.01751932
0003e0 54 96 9f 3d 30 80 7e 3d 00 ad 12 bd ec 95 1c bd
       0.07792345 0.062133968 -0.035809517 -0.038228914
0003f0 aa b3 a2 3d 94 95 ba bd ca 01 36 3d ba b3 ac bd
       0.079444245 -0.09110561 0.0444353 -0.084327176

bias f4 [84]
000000 34 07 e7 3c a5 99 cc 3c eb 1b 8d 3d 63 c3 1c 3e
       0.028201677 0.024975607 0.068900906 0.15308909
000010 38 ec d1 bc 1e c2 c8 3c 79 03 10 bd a6 33 2d 3c
       -0.025625333 0.024506625 -0.03515956 0.010571396
000020 64 ef 6c bd f8 89 fa 3d c7 a5 c5 3d 0e 8e cf 3b
       -0.05784549 0.12233347 0.0965076 0.006334073
000030 1c 72 0e bb 0a b3 ec 3d 67 3b 48 bd 2c 54 8e 3d
       -0.0021735495 0.115575865 -0.048884775 0.06949648
000040 6a a4 bd bc e0 8a 70 bb c8 59 c4 3d 62 50 80 bd
       -0.023149688 -0.003670387 0.09587437 -0.06265332
000050 86 f7 9b bd aa fd b6 bc cd ae cd bc 02 82 72 bb
       -0.07615571 -0.022337753 -0.025107766 -0.003700376
000060 c4 f9 77 3d 1e e5 4a bd 1a 1e 2b bd a4 07 24 3d
       0.06054093 -0.04953491 -0.041776754 0.04004635
000070 19 f3 42 bd 68 6a e8 bc b1 07 04 3d ab 8b 27 3d
       -0.047595117 -0.028371051 0.032233898 0.040904682
000080 e1 cd d7 3d dd 7b 78 bd 2a 8b 17 3e 7c 2f 57 bd
       0.10537315 -0.060665 0.1479918 -0.05253552
000090 a3 19 8c bd 26 b7 b6 3d 00 ff 8b 3c 46 48 97 bc
       -0.06840827 0.089216515 0.017089367 -0.01846708
0000a0 e8 36 a0 3c 45 3d 1c 3d 02 2e 8f 3d a4 16 b1 bc
       0.019557431 0.03814437 0.06991197 -0.021617241
0000b0 06 f3 8b bc e0 b5 8c 3d db 9a 3a 3d 2e 9d ff 3d
       -0.017083656 0.068706274 0.045557838 0.124811515
0000c0 c0 fe e0 b8 74 0f ae bd f9 cf 58 3c 27 f6 4f bd
       -0.00010728603 -0.08499041 0.013233178 -0.05077186
0000d0 db 7c 95 3c 26 9d af 3d 24 36 45 3d 16 17 0a bc
       0.018248012 0.085748956 0.048147336 -0.008428356
0000e0 b7 94 a9 bc 40 d6 d2 bd f5 1b 89 3d b2 c5 39 bd
       -0.020700796 -0.10294771 0.066947855 -0.045354553
0000f0 ce 16 9e bc 56 69 24 3e 5e e7 d3 3d e7 27 90 3c
       -0.019297983 0.16055807 0.10346864 0.017597152
000100 a7 57 cc 3d 7e c5 a4 bd 95 6a 65 3b a0 27 bb ba
       0.09977656 -0.08045481 0.0035006155 -0.0014278777
000110 e2 1e e5 3d f2 5f a4 bd 0c 55 24 3d a5 af 49 3d
       0.11187531 -0.080261126 0.04012017 0.049239773
000120 f7 ba ad bd fd 37 d1 bd 0a 7d 51 bd d8 79 11 bb
       -0.08482926 -0.10215757 -0.051144637 -0.0022197869
000130 8f 03 f4 3c 77 b1 ed 3d 62 aa a5 3d 92 2c 00 bd
       0.029786853 0.11606114 0.080891386 -0.031292506
000140 d1 1e d5 bd 36 70 34 bd c1 57 a3 3c 90 8e 34 3e
       -0.104062684 -0.044052325 0.019939305 0.17632508

weight f4 [10, 84]
000000 5b da 2c be ff 11 ea 3d 78 67 6b 3d e7 81 01 be
       -0.16880171 0.11429214 0.057471722 -0.1264721
000010 f2 25 86 3e 55 f9 62 3e a0 1e 66 3b 12 a4 db bd
       0.26200825 0.22165425 0.0035113469 -0.10724653
000020 50 e1 3a 3d 66 0b 81 be c1 a3 df 3c 32 a1 e3 bc
       0.04562503 -0.2520401 0.027299764 -0.027786825
000030 72 db c4 3d e5 a2 2f be 22 f4 e8 bd 62 f5 92 3d
       0.09612168 -0.17151983 -0.1137469 0.07175709
000040 e8 d7 bb 3d 06 6e 2a 3d da c7 91 be 90 57 a8 bd
       0.0917204 0.041608833 -0.28472787 -0.08219826
000050 06 97 f4 3c b2 40 a8 3e c6 5b 32 bc e2 70 2c be
       0.02985717 0.3286186 -0.010886138 -0.16839936
000060 b8 10 04 be 85 f3 32 bd ae b2 11 bb 40 5d bf bd
       -0.12897003 -0.04368927 -0.0022231746 -0.09343958
000070 7a 14 6b bd 6d 43 10 3e 38 c2 37 be 93 2f 98 be
       -0.057392575 0.14088221 -0.17945182 -0.29723796
000080 c2 d5 d6 bd 88 b4 17 3d ad 24 ff 3d 14 a3 c2 bd
       -0.1048999 0.037037402 0.12458167 -0.09503761
000090 9c da d2 3d ba 58 8b 3e 2c a0 07 be 47 55 de 3c
       0.10295603 0.2721613 -0.13244694 0.027140273
0000a0 29 10 7a be 48 0c 72 3e 6f c3 55 be e4 53 b2 3e
       -0.24420227 0.23637497 -0.20875333 0.34829628
0000b0 c0 aa e2 bd 70 bf e9 3d da 63 3f be d4 04 46 be
       -0.11067724 0.11413467 -0.18690434 -0.1933778
0000c0 61 10 c5 bd 92 cc ad 3e 00 f9 52 3d d3 1c 29 bc
       -0.09622265 0.33945137 0.051506996 -0.010321814
0000d0 9a 19 72 bd 7e 87 cb 3d 55 7b e3 bd 7c 0a 00 3d
       -0.059106447 0.099379525 -0.11107508 0.03126
0000e0 4c cd b6 3c 98 34 70 3e e8 99 80 3e d1 e6 db bd
       0.02231469 0.23457563 0.2511742 -0.10737384
0000f0 17 ed 3b 3d 02 8d 6e be 1c fb 2b be 98 22 67 be
       0.045880403 -0.23295978 -0.1679501 -0.2257179
000100 9a f7 34 3e c0 7a 8e bd 30 5e 58 bc f6 fd 39 bd
       0.17672578 -0.069570065 -0.01320605 -0.04540821
000110 ca a6 25 be 77 26 de 3c 55 04 22 bc d8 1e ef bd
       -0.16176906 0.02711795 -0.009888728 -0.11675805
000120 0e 92 82 bd e7 ac a3 3e b4 4d 86 3d 06 e6 19 be
       -0.06375514 0.31967852 0.065577894 -0.15029153
000130 fc 46 ca bd bb 84 31 be 20 3d 09 bd 4f 84 c2 3b
       -0.098768204 -0.17335789 -0.03350556 0.0059361826
000140 60 76 45 bd 86 0e 55 be c1 4c 7e 3e 9c 8a 1e bd
       -0.048208594 -0.20806322 0.24833967 -0.038706407
000150 54 38 65 bc da ee 5f bd 4e c5 93 bd 08 63 94 3e
       -0.01399048 -0.054671146 -0.07215367 0.28981805
000160 8a 23 f1 bd 2a 5b 80 be 12 c6 83 3e 21 03 59 be
       -0.11774357 -0.25069553 0.25737053 -0.211926
000170 ae e1 c4 bd 27 e6 b5 3e cf 55 29 3e 77 50 cd bd
       -0.096133575 0.35527155 0.1653664 -0.10025113
000180 0f 2d fe bd 66 f9 cf 3e e6 3b af 3d c3 5d 1c be
       -0.12410938 0.40619963 0.085563466 -0.15270142
000190 7a de 35 3c dd b2 32 3e 46 15 7e bd c0 75 63 bd
       0.011100406 0.17451043 -0.062032007 -0.055532217
0001a0 77 d2 d2 3c 25 8f fe bd af 30 1a bd 49 96 c1 be
       0.025735123 -0.124296464 -0.037644085 -0.3780997
0001b0 b2 8a 41 3e 68 5c 83 bb 6e 57 7a 3d f6 a6 0c be
       0.18900564 -0.0040088184 0.061118536 -0.13735566
0001c0 c8 b3 22 bd fc 67 4f be 69 41 24 be 11 8b 67 bc
       -0.039722234 -0.2025451 -0.16040577 -0.014132277
0001d0 1c 45 a7 3e f2 a9 54 bd bb 7e 05 be a1 f8 0b 3e
       0.32669914 -0.051919885 -0.13036625 0.13669063
0001e0 aa bd de bc c0 82 78 be 42 29 a0 3e 04 43 1d 3e
       -0.027190048 -0.24268627 0.31281477 0.15357596
0001f0 48 14 0e be b6 7f 40 bd ed c8 a4 3e 58 8a 6c bd
       -0.13874924 -0.046996795 0.32184544 -0.057749122
000200 65 bd 60 be 55 c5 8c bc 52 8b a6 3c f5 f9 b8 bd
       -0.21947248 -0.017183939 0.020330105 -0.090320505
000210 6f 1f 99 bd 5a 3a 92 be 4d fa 32 be 22 74 14 be
       -0.074766986 -0.28560144 -0.17478295 -0.14497426
000220 78 37 67 bd ad 44 d9 3d 8a 10 49 3e 41 12 ae bd
       -0.056449383 0.10608802 0.19635215 -0.084995754
000230 b8 cd cb bd b8 e1 b5 bd 66 ed 27 be a0 40 15 be
       -0.09951347 -0.08880943 -0.16399154 -0.14575434
000240 3a 8e 37 bd e3 44 e4 3d 4e 12 80 3d 86 3d 02 be
       -0.044813372 0.111459516 0.06253491 -0.12718782
000250 3c af d4 bd f4 60 ab bd 2b 93 19 3c 4c 01 3a be
       -0.10384986 -0.08368102 0.0093734665 -0.18164557
000260 61 62 28 3e e6 ae 46 be c8 26 30 3e b3 c6 32 3e
       0.16443779 -0.19402656 0.17202294 0.1745861
000270 33 95 fe bd 72 cf 45 be 4a 7e a6 bd e6 85 97 3d
       -0.12430801 -0.19317415 -0.081295565 0.07398586
000280 04 a6 7f be f8 d3 0c be 91 03 98 be 82 6c a9 3c
       -0.24965674 -0.13752735 -0.2969022 0.020681623
000290 2d f9 c2 bd 54 b0 f5 3d 4e f8 a7 bd 4c f4 3d 3e
       -0.09520183 0.119965225 -0.08201657 0.18550223
0002a0 0a 6e 74 bd 60 a7 8e bd 79 1b c3 bc 87 5a 9d be
       -0.059675254 -0.06965518 -0.02381681 -0.3073313
0002b0 de eb 05 3d 88 e4 44 3e 24 b6 c5 bd 7b 7c 2a be
       0.032695644 0.19227803 -0.09653881 -0.16649048
0002c0 18 2f 10 bd 2e d3 b3 be 36 96 cb bd de 88 ab 3d
       -0.035201162 -0.35122055 -0.0994076 0.08375715
0002d0 9e d3 76 bd 70 46 6c 3e 3a 07 b8 3c 3b 9b c5 bd
       -0.060260408 0.23073745 0.022464383 -0.096487485
0002e0 b0 e0 98 bd 5b ff 49 3e f4 44 07 3e b4 96 9a bd
       -0.07464731 0.19726317 0.13209897 -0.075482756
0002f0 3a 9d 8c bc 71 5a 17 3e 38 89 db 3c ef 1f f9 bc
       -0.017164815 0.14780594 0.02679883 -0.030410735
000300 e4 d9 80 3e 35 03 85 3e 67 d0 99 3d 44 9b bd bc
       0.25166237 0.2597901 0.07510453 -0.023145325
000310 d5 ba 4c 3e 9a 29 79 3d c2 4b 66 bd 94 d6 60 3e
       0.19993146 0.06083069 -0.056224592 0.21956855
000320 d4 c6 21 be b5 7e 90 3d cc a8 1e be 12 c2 47 be
       -0.15798503 0.070554174 -0.15494078 -0.19507626
000330 a0 2e 0f 3e f2 55 ee bd e4 f9 83 3d 0a 7b 75 3e
       0.1398263 -0.116374865 0.06444147 0.23972717
000340 3d 2c 2e 3e d2 1c e8 3d 65 b0 15 3e 12 d8 80 be
       0.17009063 0.11333622 0.1461807 -0.2516485
000350 2b a5 61 bd bf d0 a1 3d 64 da 03 3d 80 65 35 bd
       -0.055089157 0.07901143 0.032190695 -0.04428625
000360 a9 dc 12 bd c7 43 20 3e 00 f9 10 bd 32 b5 3a bd
       -0.03585497 0.15650855 -0.035393715 -0.045582958
000370 9b ea 93 3d 54 1b f3 bd ec 97 5d 3d e0 af 08 3d
       0.07222482 -0.11870447 0.054099962 0.033370852
000380 3c b5 3f 3e b2 db bd 3d ad 32 e3 bc f5 40 d8 bc
       0.18721479 0.09270419 -0.027734125 -0.026398161
000390 66 a6 e9 bd ee 1d 81 bd 49 73 6c be 9d 32 8a 3d
       -0.11408691 -0.06304537 -0.23090853 0.06747935
0003a0 a7 55 18 be d6 37 f7 3d 00 0f 41 b9 fe 5c fc 3d
       -0.14876424 0.12071197 -0.00018411502 0.12322424
0003b0 19 e1 c0 3d b0 50 f1 3d f4 b7 2e 3e c3 a5 00 3e
       0.09417934 0.11782968 0.1706236 0.12563233
0003c0 f4 ce b3 3d d8 90 73 3e 50 3f fe 3c 17 e3 0c be
       0.087797076 0.23785722 0.03103605 -0.13758503
0003d0 f0 05 7b ba 62 b4 53 be c4 94 0f be 84 ea 78 3b
       -0.0009575775 -0.2067428 -0.14021593 0.003798158
0003e0 be 04 a5 3d 43 02 38 be 2a 7d 36 be 35 13 d4 3d
       0.08057545 -0.17969613 -0.17821184 0.10355226
0003f0 ef 7f 53 3d 2b 54 77 3c 25 19 ad 3d 7e e9 75 be
       0.05163568 0.015095751 0.084520616 -0.24014851

bias f4 [10]
000000 44 73 fe bd 73 4f 68 3e 06 3e 00 be 88 34 9a bd
       -0.12424329 0.22686557 -0.1252366 -0.07529551
000010 8e 86 d6 bd ae e2 ae bd fa 7a 36 be 6f f3 aa bd
       -0.10474883 -0.085393295 -0.1782035 -0.083472125
000020 96 ef 92 3e 7e 47 a9 3d
       0.28698415 0.08265589
