mnist_sample_cnn_server.pt (torch_old, 141121 bytes, 10 tensors)

weight f4 [3, 1, 5, 5]
00000000: 8451 81bd d064 60bc 6004 293c 7edd 1bbe
00000010: f00a 8bbc 1dfe 9abd d8e7 13bd 89bf 393e
00000020: 5dc6 a4bd 5673 ad3d 6a86 0fbe f41f 0ebd
00000030: c0b0 bb3b d04f ed3c 6082 b2bb 57fb 9dbd
00000040: f0e8 23be f0c1 b73c a88c f4bc 0b42 45be
00000050: 301c c2bd 60dd 013c 50e4 76bc dae8 28be
00000060: 1095 d53c 241b 683d d84f 5abd b987 053e
00000070: 6371 b3bd c837 173d ab47 4b3e 13b1 15be
00000080: 9e7b 26be c6d6 b63d b702 9dbd 9852 1abd
00000090: 685f 3fbe f077 c8bd 3048 7dbc b8c0 32be
000000a0: 943e 253d 42f9 cb3d 9e49 963d 9838 c03c
000000b0: b9c3 483e d1e7 2e3e 6cce 77bd b0f0 9f3c
000000c0: 2f86 41be ef28 36be a0cb 983b 90e9 9dbd
000000d0: 02dd ef3d 1336 f3bd 0d01 34be 229f bd3d
000000e0: f2ab 803d 20eb 3abd df80 443e 7309 32be
000000f0: 6aa6 ea3d 010e 113e 2a94 9cbd a24d f83d
00000100: ebf7 17be 736d 443e 9094 87bc cca6 12bd
00000110: 39c7 203e 4286 d93d 002b 743c a816 49be
00000120: 6c82 4fbd d72a c2bd 171c 1c3e
-0.06314376 -0.013695911 0.0103159845 -0.15221211 -0.016972989 -0.075679995 -0.036109775 0.18139471
-0.08045647 0.08469264 -0.14016119 -0.03469844 0.0057278574 0.028968722 -0.005447671 -0.07713955
-0.16006827 0.022431344 -0.029852226 -0.19263475 -0.094780326 0.007926315 -0.015069082 -0.16495076
0.026072055 0.05666651 -0.0532988 0.13040055 -0.08761861 0.03691843 0.19851558 -0.1461833
-0.16258094 0.089276835 -0.076665334 -0.037676424 -0.18688738 -0.09788501 -0.015459105 -0.17456329
0.040342882 0.099596515 0.0733826 0.023464486 0.19605912 0.17080618 -0.060499594 0.019523948
-0.18898843 -0.17789052 0.004662946 -0.07710564 0.11712076 -0.11875548 -0.17578526 0.09258868
0.06282796 -0.04563439 0.19189785 -0.17386417 0.11457522 0.14165498 -0.076454476 0.12124182
-0.14840667 0.19182377 -0.016550332 -0.0358036 0.15700997 0.10621311 0.01490283 -0.19637549
-0.05066149 -0.09480827 0.1524509

bias f4 [3]
00000000: 49ca 4b3e 3a75 a6bd 2ff1 073e
0.19901384 -0.08127828 0.13275598

weight f4 [10, 3, 5, 5]
00000000: 3893 813d c03e cb3c 8046 d53b ccd8 8cbc
00000010: 3d33 7abd 600d 95bc 007a debb e0a8 913c
00000020: b68f d73d d29a 45bd e03b 4a3c 2a0d 4dbd
00000030: 4176 96bd 4600 eb3d 7af5 7ebd dd12 e3bd
00000040: 365e de3d f012 87bd 648e 843d dc8b 393d
00000050: 6712 74bd 8011 9a3c f3a6 9fbd cc55 5a3d
00000060: f010 bdbd 19d8 92bd 40af 5dbd f8bb f83c
00000070: ec0f b5bd f03b aabd dc16 583d 0419 d6bd
00000080: 64d5 253d 5c3e d2bc 8cc8 e3bc 3e56 d33d
00000090: 88fe 3e3d 58b0 ac3d c685 43bd 9cb5 3bbd
000000a0: 4025 583d a873 d23c a261 d83d 4052 82bc
000000b0: 3eb8 b7bd 5446 513d d04b b7bb 3673 6fbd
000000c0: 58c2 30bc 2a3b 9cbd 007f 03ba 884e 933c
000000d0: 5f44 d0bd 1413 8f3d ac8a 0f3d f85a e23c
000000e0: f813 d6bd 809f fd3a 903b d93d 16be 7cbd
000000f0: 74ef d1bc 0e1d eb3d 095e a7bd ae08 4cbd
00000100: aefb 963d f8aa 9b3c e2c9 843d e06a 863c
00000110: 307d f03b c233 a03d a850 cc3c 80d2 873c
00000120: bc9a abbd 0cd8 c93d 0cd7 5a3d fa69 87bd
00000130: 144d 0abd 0096 9cb9 e494 77bd 17d2 b9bd
00000140: 2478 96bc 28c6 0cbc 7491 123d 0e80 dd3d
00000150: 2be2 91bd 4c13 eabc f00e 5c3d 6c7b 47bd
00000160: eacf b5bd 407e d9bc 9e1f e13d 3c77 b03d
00000170: 5870 a03c a650 36bd c8b3 613d 4a7e a33d
00000180: 00ae f73c 70b3 35bd e6bf 8c3d 007f 303a
00000190: 5060 883c 9082 a53d ca0e cf3d 00a9 85bb
000001a0: ac9a c93d 5863 23bc f284 803d 005b 393b
000001b0: ac37 a53d 74eb 723d d4f6 83bd d025 773d
000001c0: c0be 9cbd b003 f6bb 6ab7 8bbd 13aa a4bd
000001d0: 98bd b8bd c06c 743b 0ac4 3dbd 228a 88bd
000001e0: bc9b d13d 0935 d5bd 0438 bf3d a8fb 243d
000001f0: 58e7 8ebc 1436 a33d b061 a23c ec49 81bd
00000200: c8e4 00bc 01d4 89bd 0814 e93d 984a 8c3d
00000210: 8684 d93d 7869 51bd 40b0 2f3c 2251 37bd
00000220: 1e7f 44bd 38f0 f5bc 30f9 e93c 1005 ae3c
00000230: a0a9 9fbd 4004 833c 2836 07bd cb06 d6bd
00000240: 7db7 e1bd 3c7b dbbd 6d0f a1bd 5001 4ebc
00000250: 4464 663d 2055 3f3c c0bb 433d f437 ccbd
00000260: 5018 143d d4d5 c8bd 0076 243d 144b 063d
00000270: e689 bc3d 46ba 4fbd f08a 94bc 0024 cb3a
00000280: 809b 4e3c de1d 31bd 4079 c43d 0470 71bd
00000290: ae74 893d c461 793d 3c91 19bd 00b7 2dba
000002a0: c45a bb3d 787c a13d 6453 89bd 7dd8 e9bd
000002b0: ce10 9f3d dcfb 8fbd beef c4bd 422c 953d
000002c0: 45c8 b8bd 00f8 9d3d 5452 853d 4bdb e7bd
000002d0: cc79 80bc 9412 c1bd 3c4d c5bd 66cb 3abd
000002e0: 1879 5c3d bcf6 b63d d45b 9dbd 3a62 a43d
000002f0: 0a55 e33d 1493 af3d ae90 933d d063 3e3c
00000300: 6c39 0d3d 30d6 813d d017 40bc 1426 efbc
00000310: 6837 c5bc 9eea d5bd b7bc 62bd 5273 b03d
00000320: 90f2 a0bd 981f 9e3d 38b7 833d 1ad0 21bd
00000330: a02b 363b 16cc c5bd d087 473c a03f ea3c
00000340: ace0 8bbd ac60 ec3d 7968 8ebd 0276 933d
00000350: 5808 8a3d 40fc b6bd a869 22bc 36c4 e9bd
00000360: 18ab 9f3c cc38 093d 00e1 6b3d 00d3 503a
00000370: be4c e23d 8067 c33c 0c9a 963d 14d2 df3d
00000380: aa8b d13d 901a 023d 8869 ea3c 083b a73c
00000390: 40c2 133d 2b75 aebd ec5d 833d f27f d63d
000003a0: 7172 8dbd 5c97 893d a856 62bc f447 bc3d
000003b0: b86d 27bd 9285 c83d b1a6 92bd 9078 d43d
000003c0: 8b73 c7bd 983c 2e3d 8e23 cdbd d4fa 5c3d
000003d0: 0430 713d c0d9 0c3d 2032 3abd 5cc1 2c3d
000003e0: e44f b8bc 4866 5e3d a49d a4bd b2c3 e9bd
000003f0: 3823 c93d 401e fcba 855d d3bd 3e59 3ebd
0.06326908 0.024810195 0.0065086484 -0.01719322 -0.06108402 -0.018194854 -0.006789446 0.017780721
0.105254576 -0.04824335 0.012343377 -0.050061382 -0.07346774 0.114746615 -0.062245823 -0.11087582
0.10857813 -0.06595409 0.06472471 0.045299396 -0.059587862 0.018807173 -0.07795515 0.05330448
-0.09231746 -0.071701236 -0.05412221 0.030363068 -0.088409275 -0.083122134 0.052756175 -0.1045399
0.04048671 -0.0256645 -0.02780559 0.10319184 0.04662946 0.084320724 -0.047735 -0.045827493
0.0527699 0.025689915 0.10565497 -0.01590836 -0.08970688 0.05109246 -0.0055937544 -0.058459483
-0.010788523 -0.07628472 -0.0005016178 0.017981783 -0.10169291 0.06986061 0.035044357 0.027631268
-0.104530275 0.0019349903 0.10607064 -0.061704718 -0.025626875 0.11480151 -0.08172233 -0.049812965
0.07372223 0.019002423 0.064838186 0.016408384 0.0073391423 0.07822372 0.024940804 0.016579866
-0.083791226 0.09855661 0.05342774 -0.0661201 -0.033764914 -0.00029866397 -0.060444728 -0.090732746
-0.018367834 -0.008592166 0.035783246 0.1081544 -0.07123216 -0.028573655 0.053725183 -0.04870169
-0.08877547 -0.026549459 0.109923586 0.08616492 0.01958482 -0.044510506 0.055103093 0.07983072
0.030234337 -0.044360578 0.06872539 0.00067327917 0.016647488 0.080815434 0.10110243 -0.0040789843
0.098439544 -0.009972416 0.06275357 0.0028283 0.08067259 0.059306577 -0.06443563 0.060338795
-0.0765357 -0.007507764 -0.06822093 -0.080402516 -0.09020537 0.0037296265 -0.046329536 -0.06666972
0.10234782 -0.10410506 0.09336856 0.04027906 -0.017444298 0.07969299 0.019821972 -0.063129276
-0.007867046 -0.0672989 0.11380774 0.06850165 0.1062098 -0.051125973 0.010723174 -0.04475511
-0.04797279 -0.030021772 0.028561205 0.021242648 -0.07796025 0.015993237 -0.03301063 -0.104505144
-0.11021326 -0.107168645 -0.0786427 -0.012573555 0.056247965 0.01167801 0.047786474 -0.0997161
0.036156 -0.098064095 0.040151596 0.032786444 0.092059895 -0.050714754 -0.018132657 0.00154984
0.012610316 -0.043241374 0.09593439 -0.058944717 0.06711708 0.060884252 -0.037492022 -0.00066266954
0.091481715 0.07885069 -0.067053586 -0.11418245 0.07766877 -0.0703046 -0.0961604 0.07283832
-0.090225734 0.07713318 0.065098435 -0.11321124 -0.015683077 -0.094273716 -0.09633872 -0.045604132
0.05382642 0.089337796 -0.076835304 0.08026548 0.11100204 0.08572975 0.0720533 0.011620477
0.03447859 0.06339681 -0.011724427 -0.029192962 -0.024074271 -0.1044514 -0.055355754 0.086157456
-0.07858765 0.0772087 0.064314306 -0.0395051 0.0027796999 -0.09658067 0.012178376 0.028594792
-0.06829962 0.11541876 -0.0695352 0.072002426 0.06739873 -0.089348316 -0.009912886 -0.114143774
0.019490764 0.03350143 0.057587624 0.0007966012 0.11049794 0.023853064 0.07353601 0.10928741
0.10231717 0.031763613 0.028614774 0.02041389 0.036073923 -0.08518442 0.064143986 0.104736224
-0.069065936 0.06718323 -0.013814606 0.091934115 -0.04087612 0.097911015 -0.071607 0.10374558
-0.09738835 0.042538255 -0.10016547 0.053950146 0.058883682 0.03438735 -0.04545796 0.04217659
-0.022499032 0.05429676 -0.0803788 -0.11414279 0.098211706 -0.001923509 -0.10320572 -0.046471827

bias f4 [10]
00000000: 780b 353d 6856 9c3c 77c9 6bbd ccd2 053d
00000010: 992e dabd 786f f73c e8a0 743d a800 cb3d
00000020: 8a15 abbd 4cf0 a63d
0.04420039 0.01908417 -0.05756518 0.032671735 -0.10653419 0.03020452 0.059723765 0.099122345
-0.083537176 0.08151302

weight f4 [120, 160]
00000000: d8d3 2e3c 618e 993d ca6c 303d f0e3 95bb
00000010: 566a 88bd bcb9 84bd 36c0 743d b126 87bd
00000020: 144d 053d 3b69 a03d f40b d13c c4a0 25bd
00000030: b348 3abd 6503 77bd e8db 313d b087 fc3b
00000040: 7e09 523d b83f d73c b06e 583c 6423 b93c
00000050: 1d6c 9c3d f592 a0bd 1a6a 0c3d 8fe5 8e3d
00000060: de07 5a3d 447a 3b3d 659d 93bd 17bb 30bd
00000070: f4ef 0d3d 97f9 95bd 16d7 60bd 1c54 38bd
00000080: 41bd 933d 4a96 263d d82d 973c 367e 57bd
00000090: 9c1d 2ebd fc96 87bd 7c91 c8bc 61f7 4ebd
000000a0: 9056 3abd 00d6 44bb 881d 9f3c 1b3f 93bd
000000b0: 5008 cfbb 726b 8ebd 15b4 26bd 1a00 613d
000000c0: ba35 7c3d 1c6d 243d e171 953d fe5f 683d
000000d0: 53c2 85bd f896 afbc a2d2 4c3d 1052 e33b
000000e0: 54ad 35bd b74e 38bd ac27 92bd a8bc 84bd
000000f0: 8865 0bbd 1cc8 933c 1960 9f3d 8016 6cbb
00000100: 8a56 8bbd ef48 993d 0f04 a1bd 40be 2a3b
00000110: 78f7 9f3c 62ba 3d3d 15d7 913d 8042 c1ba
00000120: 9403 dd3c 5a90 093d 177c 43bd 00a9 c839
00000130: be4c e7bc c80a cfbc 03aa 39bd 00dd ffb9
00000140: 8cd0 22bd b5c0 9b3d 9c93 24bd 5cd0 ce3c
00000150: 6223 7c3d 458f 923d a592 843d 9602 273d
00000160: 865c 493d 90c8 9bbb dfd1 853d 931a 16bd
00000170: 0064 47b9 db95 2bbd 32fd 593d fde9 9fbd
00000180: dad7 c2bc 0981 933d 80ce cabb e73d 8f3d
00000190: 8f2b 973d a327 823d e9ea 60bd 907c 27bc
000001a0: 38d2 a2bc b015 52bd eda8 70bd 00ca 073c
000001b0: 4e8d 29bd 8f59 22bd 8488 223d 15ab 30bd
000001c0: 77b9 8f3d fbb5 813d 0795 843d c0ae b03c
000001d0: c335 86bd 6a10 3f3d fcdd 0e3d 3ad5 1b3d
000001e0: 666a 4c3d 76da 62bd a4fd 8fbc 890d 8c3d
000001f0: 106a 93bd 82fb 3b3d d81a fcbc f063 b7bb
00000200: a8ce eebc 03af a03d a245 7e3d 35a5 953d
00000210: 49b4 973d 10cd 55bc d092 b53c 448d 89bc
00000220: d281 64bd 6a73 4c3d 287c cdbc 8837 d43c
00000230: f588 8dbd 9261 183d 06f3 363d f657 6b3d
00000240: 54dc 323d 00ef f9bb a06a adbc 9741 923d
00000250: eba5 87bd 6ef9 15bd f099 86bc 367f 163d
00000260: 6f92 833d 3e01 2a3d df99 9abd 179d 893d
00000270: 5507 9d3d 5872 203d 15a0 9d3d 3a92 8ebd
00000280: e6a2 4f3d a8c7 863c 0ed2 6b3d 26c4 683d
00000290: b821 db3c 663c 653d 6884 78bc 5370 983d
000002a0: beac 0b3d 972d 953d 8653 91bd d010 de3b
000002b0: 1713 903d bcb8 b1bc 6594 28bd 2741 953d
000002c0: 664a 453d b004 133c 9fbe 853d 29c8 7ebd
000002d0: d9da 0abd c0ef 883b adbd 8abd e673 7a3d
000002e0: acbb bc3c f86a 303d 1606 1d3d 3e74 723d
000002f0: da5d 0c3d 4c81 a23c 6c18 23bd cd60 973d
00000300: b0d5 093c e488 aebc 4a28 19bd cbe7 3fbd
00000310: 606b 8e3c eafa 2c3d 607c 97bc 9810 01bc
00000320: ca3c 8ebd edd2 99bd 925b 45bd 1a40 3e3d
00000330: 9823 163d 7420 a0bd a40c 29bd 888f e8bc
00000340: b036 fb3b 4a84 373d 058c 56bd 9557 81bd
00000350: 1ac7 553d 7186 3abd 6e1a 7f3d 800e d23a
00000360: 86f4 f8bc 96dd 613d a0fc 503b 40e7 febb
00000370: 8016 81bc 6c64 d4bc 4062 a2bb e472 b13c
00000380: 00e0 aeb9 bb2b 40bd 909f 363c a653 95bc
00000390: 5adb 31bd 3eb1 203d 7063 bf3b c974 51bd
000003a0: 98aa f3bc b2d9 6c3d eafd 28bd c0fb dc3c
000003b0: 94e8 143d 9fef 933d 861c 03bd 281b 23bc
000003c0: 5c2e 81bd 9e35 babc 90fd 4f3c b053 af3b
000003d0: 47ca 1cbd d44a e23c 4147 8c3d 355a 803d
000003e0: 3a5d 753d 10a5 0c3d 7576 853d 14ee f03c
000003f0: 4878 583c 909b 36bc 5d53 a03d c364 823d
0.010670625 0.0749786 0.0430725 -0.0045742914 -0.06660907 -0.064807385 0.05975362 -0.06599177
0.03254421 0.07832571 0.025518395 -0.04043652 -0.045479488 -0.06030597 0.04342261 0.007706605
0.051278584 0.0262755 0.013209984 0.022599883 0.076378085 -0.0784053 0.034280874 0.069773786
0.05323016 0.0457709 -0.07207755 -0.043147173 0.034652665 -0.07322996 -0.054892622 -0.045002088
0.07213832 0.04067067 0.018454477 -0.0526106 -0.042508706 -0.06620595 -0.024483435 -0.050528888
-0.04549271 -0.003003478 0.019423261 -0.07189771 -0.0063181296 -0.06954087 -0.040699083 0.054931737
0.061574675 0.040143117 0.07297111 0.05673217 -0.06531205 -0.021434292 0.050005563 0.006937273
-0.04435475 -0.044996943 -0.07136473 -0.06481296 -0.034032375 0.018039756 0.07782001 -0.0036024153
-0.068036154 0.07484614 -0.07862102 0.002605334 0.019527182 0.046320327 0.07121102 -0.001474455
0.026979245 0.03358493 -0.047725763 0.00038272887 -0.028234836 -0.025273696 -0.04532815 -0.00048802048
-0.039749667 0.07605115 -0.040179834 0.025245838 0.06155718 0.07156233 0.06473283 0.04077395
0.049160503 -0.0047541335 0.0653417 -0.036646437 -0.00019015372 -0.04189096 0.05321998 -0.078083016
-0.023784567 0.07202346 -0.0061891675 0.06994229 0.07381355 0.06355216 -0.054911528 -0.010222569
-0.01987563 -0.051290214 -0.05875485 0.008287907 -0.041394524 -0.03963619 0.039680973 -0.043131907
0.070177965 0.06333538 0.06473737 0.021567702 -0.06553223 0.046646513 0.03487967 0.038045146
0.049906157 -0.05538412 -0.017577 0.06838519 -0.07197964 0.045894153 -0.030774519 -0.0055966303
-0.029151276 0.07845881 0.062078126 0.07306901 0.074074335 -0.013049379 0.022164732 -0.016790994
-0.05578787 0.049914755 -0.025083616 0.025905386 -0.06910888 0.037202425 0.04466536 0.057456933
0.043667153 -0.007627368 -0.021169007 0.071414165 -0.06623443 -0.036614828 -0.016430825 0.03674241
0.06424414 0.04150509 -0.0754888 0.06719416 0.07667414 0.039171547 0.07696549 -0.06961484
0.05069246 0.016452625 0.05757337 0.056827687 0.026749477 0.055965804 -0.015168287 0.07443299
0.034100287 0.07284086 -0.07096009 0.0067769065 0.07034891 -0.021694534 -0.041157145 0.072878174
0.048166655 0.008973286 0.06530499 -0.062202606 -0.033900116 0.004178971 -0.06774459 0.061145686
0.023038708 0.043070763 0.038335882 0.05919289 0.03426919 0.019837044 -0.039818212 0.0739151
0.0084127635 -0.021305509 -0.03739194 -0.046851914 0.017385185 0.042231478 -0.018491924 -0.007877491
-0.06945188 -0.07510934 -0.04818303 0.04644785 0.03665504 -0.0781869 -0.04127182 -0.028388754
0.0076664314 0.044803895 -0.052379627 -0.06315533 0.05219183 -0.04553837 0.062281065 0.001602605
-0.030390035 0.05514296 0.0031888857 -0.007779032 -0.0157578 -0.025926791 -0.00495556 0.02166123
-0.0003335476 -0.046916705 0.011146441 -0.018228363 -0.04342208 0.03923153 0.0058407113 -0.051136766
-0.029744431 0.057824798 -0.041257776 0.026975513 0.036354616 0.072234385 -0.032009624 -0.009955205
-0.063076705 -0.022730645 0.012694731 0.0053505525 -0.038278844 0.027623571 0.06849528 0.062672056
0.05990336 0.034337103 0.065167345 0.0294104 0.013212271 -0.011145487 0.078284 0.06366875

bias f4 [120]
00000000: 0055 5d3b 3110 973d 009a a8ba 467c 583d
00000010: f0b8 ea3b 829d 5b3d fbc1 9fbd ad34 4abd
00000020: f834 bebc 103d f5bb d732 9dbd e23b 123d
00000030: 617c 93bd 7ab5 58bd 826d eabc 1cf4 c1bc
00000040: c042 d03a b7cd 883d b864 c8bc 88db 383d
00000050: 6688 153d 2a03 8cbd a85b 27bc d883 a7bc
00000060: 68ea 08bc 0078 45bc 8e84 483d 1a03 073d
00000070: 1a78 773d 8634 6bbd d07d 45bc 948f 1cbd
00000080: 50ce 533c 8cf3 c63c 2640 443d 99a2 15bd
00000090: d8be fbbc 2e1f 1c3d 56cc 93bc 8fff 853d
000000a0: 2656 483d 007e 4ab9 c04f 88ba 562a 6e3d
000000b0: d246 7c3d 4907 7dbd d176 28bd a087 11bc
000000c0: 38fd 023d f868 61bc 72cc 8cbd fe8d 6f3d
000000d0: 2a92 47bd 4815 a43c b822 013c 70d5 47bd
000000e0: 55ce 933d 5b85 963d 918c 953d e093 1cbd
000000f0: ee75 663d 305e fcbb a48f 1f3d e874 72bd
00000100: 800c 57bc dcae 3a3d 2072 383d 12ce 7d3d
00000110: 87dc 07bd 5a68 583d 15ae 9a3d 616d 913d
00000120: ba03 a3bc f9ec 31bd 0f09 8abd a3be 09bd
00000130: de38 433d a80a 3a3c ea45 47bd b6ba 83bd
00000140: 9e26 27bd 23a9 873d 000c ab3c 5200 693d
00000150: bf98 9d3d c052 72bc 0015 f73b c605 2bbd
00000160: 44e6 9a3c b7e1 34bd d0d3 e03c 38c9 203c
00000170: edb5 893d 52cd 7ebd 00f2 02bc 7c77 39bd
00000180: 6a97 21bd 00fa 493a dc5b c63c 2e1b 8bbc
00000190: 4059 2e3c 6539 0fbd a44e e73c 80d9 78bb
000001a0: 28c0 5ebd d0b3 75bc 56ec edbc 82e0 433d
000001b0: e08c 87bd 428a 15bd 4684 393d 2d1a 07bd
000001c0: 70e3 80bc 4e2f 723d 200a 673b e67d 1cbd
000001d0: c7bb 0abd 60e0 75bd ecfe 1e3d a1be 8fbd
0.0033772588 0.07376135 -0.0012863278 0.05285289 0.0071631595 0.053617008 -0.07800671 -0.04936664
-0.023218617 -0.007484086 -0.076757126 0.03570164 -0.07201458 -0.052907445 -0.02861667 -0.02367597
0.0015889034 0.06679862 -0.024462089 0.045131236 0.036507033 -0.06836541 -0.010214724 -0.02044861
-0.008356668 -0.012052536 0.04895454 0.032961942 0.060417272 -0.057423137 -0.012053922 -0.038222864
0.012927607 0.024286054 0.04791274 -0.03653202 -0.03073065 0.038115673 -0.01804177 0.065428846
0.048910283 -0.0001931116 -0.0010399744 0.058145843 0.061590977 -0.061774526 -0.041128937 -0.008882433
0.03197977 -0.013757937 -0.06874932 0.058485024 -0.048723377 0.020029679 0.007881813 -0.048787534
0.07217089 0.07349654 0.073022015 -0.038226962 0.05626481 -0.0077016577 0.038955346 -0.05919352
-0.013125539 0.045576915 0.045030713 0.061964102 -0.033169296 0.052833892 0.07552735 0.071009405
-0.019899238 -0.043438885 -0.06740009 -0.03362907 0.047661655 0.01135508 -0.04865066 -0.06432097
-0.040808313 0.06624057 0.020879745 0.05688507 0.0769515 -0.014790237 0.007540345 -0.041753553
0.018908627 -0.04416057 0.02744475 0.009813599 0.06724153 -0.062207527 -0.007992268 -0.045279965
-0.03945104 0.00077047944 0.024213724 -0.016980734 0.010641396 -0.034966845 0.028235741 -0.0037971437
-0.054382473 -0.014996484 -0.029043358 0.04782153 -0.06618667 -0.036508806 0.04529216 -0.032983948
-0.01573345 0.059127145 0.0035253838 -0.038206004 -0.033870485 -0.060028434 0.03881733 -0.070187815

weight f4 [84, 120]
00000000: 464d 3bbd a8fe 603d d676 38bd 406c cebb
00000010: 0c37 31bd 4b1b 50bd a4ba 85bc d00b 9b3b
00000020: d417 1a3d db14 babd 880f a0bc eedf 71bd
00000030: 799b 1bbd 278b 64bd 101d cd3b 145f 2a3d
00000040: b234 80bd e975 babd 8071 a93d c478 b33c
00000050: f206 8b3d cc24 e43c 181e 483c 2b54 70bd
00000060: 4cf8 e03c 8a1e 8f3d 407d 443c 9ada 9ebd
00000070: 4f5f a2bd 1a2c 813d c4c4 a3bc c08b d3bc
00000080: 1075 823c 48a6 8ebd 38a1 543c 3f0e 36bd
00000090: 584d 133d 6597 afbd 94a3 6b3d 82d0 fabc
000000a0: 69ed 4fbd d299 a53d 6488 cabc 957b 70bd
000000b0: 2be4 96bd e565 21bd 72f2 853d 6402 aebd
000000c0: a08e 7c3b 9c49 533d e167 88bd d01c 98bd
000000d0: 609b 523b 80fe 873c b2fa 77bd c046 823b
000000e0: 58c1 f0bc 9886 113c 4c03 673d 5084 eb3b
000000f0: c545 31bd 62ce 72bd c078 423d 0c5e 323d
00000100: e05b 9e3b b06c b93c 80d2 31bc 249c e23c
00000110: 8838 a23d 3400 083d f4bc a33c 9cab ba3d
00000120: 00d9 ff3c f072 3c3d 52aa b73d 5633 ecbc
00000130: fe75 b3bd 97c6 1dbd 0487 3b3d 4758 a7bd
00000140: 0c9c 6f3d 1205 63bd 5c9f 253d 8028 f6bb
00000150: 382d b1bd 9a0f eebc 285e 4c3d 5c1d d63c
00000160: 5c8c 153d 4cf4 e4bc 6c95 923d f061 a7bd
00000170: 74ed 953c cc2b a5bd 7083 193d c6da 7fbd
00000180: 638e 93bd 00c8 ad39 dc77 3d3d 7c30 34bd
00000190: 60af 873b 802e f6bb 1e54 9fbd 300d d6bb
000001a0: fc0c 97bc 1803 393d 0021 d5bc 05cf 90bd
000001b0: 0272 2abd c86b 1c3d 8216 893d b48b 723d
000001c0: 6e7a fcbc 0d54 56bd 7c4a 3f3d 3856 9d3c
000001d0: c8f1 543c 4c39 773d 6c07 9e3c 9ab5 a23d
000001e0: 7819 aa3d fc20 6d3d 2a19 a93d f07a 5e3d
000001f0: 8033 aa3b b8a2 8c3c eeb6 843d 48dd 863d
00000200: fc84 2f3d c021 b53c 3e8a 8fbd 2994 6dbd
00000210: 78bd 3f3c b879 14bd e064 b4bb 4eac 42bd
00000220: 7c5f 4fbd ac56 eebc d023 1b3d d430 d93c
00000230: 93f6 afbd 59b2 babd 61a7 20bd 908d b3bd
00000240: 5037 863c fac2 933d 771f 07bd ea47 8cbd
00000250: 5866 c8bc e4f5 553d 37f7 85bd c066 6bbb
00000260: 7256 b23d 1033 f43b 86a6 993d e43f 593d
00000270: 3875 4bbd b04a 943d 8c99 51bd df88 7dbd
00000280: bcdf e1bc de4c 983d 345f 4c3d 45ed a7bd
00000290: ce44 b43d fd89 68bd b0f5 f4bb 97dd 1fbd
000002a0: cc54 533d 383c 4f3c 8041 e43a f081 74bd
000002b0: d0b1 b23d 80d0 8bbc 98b1 023d 3c51 a73c
000002c0: 788d bb3c 6934 70bd 3cef ac3d 60c9 1f3b
000002d0: 600e bebc 849f 103d 3496 7f3d e219 a7bd
000002e0: da76 893d 4c73 a63d f2c5 973d a28d 85bd
000002f0: a07e 55bc 5aad 7dbd c0c0 66bc f371 b6bd
00000300: 580a d0bc 1072 8fbc 2048 903d 3cc1 cf3c
00000310: 80c6 5b3d d668 aabd 1cd0 9cbd 116c a6bd
00000320: 5e32 b33d 6ffc 9fbd 1caa 773d def3 f4bc
00000330: aad6 a63d 80cc 113a 5cf7 fc3c 39e0 abbd
00000340: 943a 983c 3789 1bbd 68f1 d43c 78e7 493d
00000350: 30d7 a43c b9b1 0dbd d835 783d 60ab 83bd
00000360: e7b6 3ebd 5835 36bc 2cfa 97bc 809d b53d
00000370: cc85 e9bc 40dd 9e3c 0006 7eba 1737 8bbd
00000380: e6ce a13d 40e3 8b3a 6456 193d 00e3 b73a
00000390: b837 1fbc 1c2f 2bbd 24d2 5b3d abe3 14bd
000003a0: 9c5f b53c fc00 4e3d c4c3 a43d 42b8 a53d
000003b0: fe02 b23d a811 2abd 0c8c fabc ea13 073d
000003c0: a0a0 373d 6234 4bbd 3155 aebd 6c7e 523d
000003d0: 2868 a93d 0042 d13c 009e efba e833 2d3c
000003e0: 1868 963d 61a9 8abd dce3 dfbc 9ced b1bc
000003f0: 7035 c2bb 0038 77b8 50d9 a2bd 91ea 0bbd
-0.04572799 0.05493036 -0.045035206 -0.0062995255 -0.043265387 -0.05080728 -0.016324349 0.004731633
0.03762038 -0.09086009 -0.019538656 -0.059051447 -0.037990067 -0.05579677 0.006259568 0.04159458
-0.06260051 -0.09104521 0.082736015 0.021908171 0.06788434 0.027849577 0.012214206 -0.05867402
0.027462147 0.06988247 0.011992753 -0.07756539 -0.07928335 0.0630724 -0.019991286 -0.025823474
0.01592496 -0.069653094 0.012977891 -0.04444718 0.035962433 -0.08573798 0.057529047 -0.030617002
-0.05076352 0.080859795 -0.02472324 -0.058711607 -0.07367738 -0.039403815 0.065403834 -0.0849655
0.003853716 0.05158387 -0.06660438 -0.074273705 0.0032136068 0.016600847 -0.060541816 0.003975719
-0.029389068 0.008882187 0.05639963 0.0071874037 -0.043279428 -0.059278853 0.047478437 0.04354672
0.0048327297 0.022634834 -0.01085341 0.027662344 0.07920939 0.03320332 0.01998756 0.09114763
0.031231403 0.04600805 0.08968033 -0.028833073 -0.087627396 -0.03851947 0.045783058 -0.081711344
0.058498427 -0.055424757 0.04043518 -0.007512152 -0.08651203 -0.029060174 0.049894482 0.026137047
0.03651081 -0.027948521 0.07157406 -0.08172977 0.018301703 -0.08064994 0.037478864 -0.062464498
-0.072048925 0.00033146143 0.046256885 -0.04399155 0.0041407794 -0.0075128675 -0.07779716 -0.006532334
-0.018438809 0.045168966 -0.026016712 -0.07070736 -0.041612633 0.038188726 0.06693746 0.059215263
-0.030820098 -0.05232625 0.046701893 0.019206151 0.012997098 0.060357377 0.019290648 0.07944794
0.08305639 0.057892784 0.08256753 0.05431646 0.0051941276 0.017167434 0.064802036 0.06585175
0.042851433 0.02211082 -0.070087895 -0.058002625 0.011702888 -0.036248893 -0.0055051893 -0.047527604
-0.05062817 -0.029094063 0.03787595 0.02651254 -0.08591952 -0.09116048 -0.039222125 -0.08767235
0.016383797 0.07214923 -0.03298899 -0.06849654 -0.024462864 0.052236453 -0.06541293 -0.0035919398
0.087078944 0.007452376 0.07502465 0.053039446 -0.049672335 0.07240808 -0.051171824 -0.06189811
-0.027572505 0.07436536 0.04989548 -0.081995524 0.08802186 -0.05677222 -0.0074755773 -0.039029684
0.05159454 0.012648635 0.001741454 -0.05969423 0.08725321 -0.017067194 0.031907648 0.020424478
0.022894606 -0.058643732 0.08444068 0.0024381503 -0.023200214 0.035308376 0.062399104 -0.08159234
0.06712122 0.0812746 0.07410802 -0.06521155 -0.013030678 -0.0619329 -0.014084041 -0.08908453
-0.025395557 -0.017510444 0.07045007 0.025360696 0.0536561 -0.08320777 -0.07656881 -0.08126081
0.08749841 -0.0781182 0.060464963 -0.029901441 0.08146413 0.0005561784 0.030879669 -0.083923765
0.01858262 -0.037972655 0.025994018 0.04929301 0.02012214 -0.034593318 0.060598224 -0.064291716
-0.046561148 -0.011121117 -0.018551908 0.08867931 -0.028506182 0.01939261 -0.0009690225 -0.06797617
0.07900791 0.0010672584 0.037435904 0.0014029443 -0.009717874 -0.041792974 0.053667203 -0.036349934
0.022140317 0.050293908 0.08045152 0.08091785 0.08691977 -0.041520745 -0.030584358 0.032977976
0.04483092 -0.049610503 -0.08512343 0.051390097 0.08271819 0.025544167 -0.0018281341 0.010571457
0.07344073 -0.06770588 -0.027330332 -0.021719746 -0.0059267804 -5.8941543e-05 -0.07951605 -0.034159247

bias f4 [84]
00000000: a44f 533d dc35 833d fc3d b3bc 7a5d f3bc
00000010: ac4f 583d 6ca1 7d3d 20f8 bdbc 7a07 23bd
00000020: cb52 aabd 2f5c 79bd 64a5 5a3d 909e 5c3d
00000030: cb97 94bd c9ff 50bd eeb0 af3d 705b abbb
00000040: 00fc 803b b467 8d3d 6051 a43d 2758 55bd
00000050: a0ed d9bb 9df9 70bd 94ba 013d 5a7b 9c3d
00000060: 90f2 debc 6045 973c 203a 0cbd 3cb5 1b3d
00000070: e821 70bc 48f9 a0bd d324 50bd 163e adbd
00000080: 7cbe a63d 6069 0d3d 9ce7 cd3c b07a 053d
00000090: fa96 92bd 4cf8 423d c018 d2bc 75ac 66bd
000000a0: 2d02 8cbd 7831 ac3d 7879 77bc b8b5 2fbc
000000b0: f04f 74bc 7635 8f3d 9cb8 f8bc 7020 573d
000000c0: e57e 0fbd dc02 9e3c 18a1 323c d64a a3bd
000000d0: 9040 87bd 3867 b1bd 2a5e 87bd 4f07 aebd
000000e0: 54d0 7f3d 180b c3bc 089b 5f3d f0d7 c9bb
000000f0: 0079 bd39 e48a 8f3d 60f9 f53c e9ab 4bbd
00000100: 288d e83c 6071 443d 34ed 9bbc 305e ac3d
00000110: 242b a5bd e03f 7a3d 08d9 353d c4d2 493d
00000120: 40f2 11bc 30af 8dbd 34a6 d0bc 7c3d 6f3d
00000130: 4c06 603d 9757 42bd 1734 b3bd 8884 953d
00000140: d132 20bd e04f f63c 48da b03d 0071 14bb
0.051589623 0.06406757 -0.021880142 -0.029707659 0.052810356 0.061921522 -0.023189604 -0.039802052
-0.08316573 -0.06087893 0.053380385 0.053862154 -0.07255515 -0.051025186 0.085786685 -0.005229406
0.0039362907 0.069045454 0.080233335 -0.05208602 -0.0066506416 -0.0588318 0.031672075 0.07640715
-0.027215272 0.018465698 -0.03423512 0.038014635 -0.014656521 -0.078600466 -0.05081637 -0.084591076
0.08141801 0.03452432 0.025134854 0.032587707 -0.07157703 0.047600076 -0.025646567 -0.05631681
-0.068363525 0.08407873 -0.015104644 -0.0107244775 -0.014911637 0.06992619 -0.030361466 0.05252117
-0.035033125 0.019288473 0.010902666 -0.07973258 -0.06604111 -0.086622655 -0.06609757 -0.08497488
0.062454537 -0.023809 0.05459121 -0.006159775 0.0003613904 0.07008913 0.030026138 -0.049724493
0.028387621 0.047959685 -0.019034006 0.08416402 -0.08064869 0.061096072 0.04439643 0.049273267
-0.008907855 -0.0691818 -0.025469877 0.058408245 0.054693505 -0.047446813 -0.0875017 0.07300669
-0.039110962 0.030067384 0.08635384 -0.002265036

weight f4 [10, 84]
00000000: 791a ad3d 50ee 433c 0879 8dbc e5f7 da3d
00000010: 5e8c 32bd e546 d93d a8fe 04bd 3a2a 253d
00000020: 7c62 d13c 4ffa a93d 58e4 423c b4c8 e83c
00000030: 8d5b 9abd 2400 e53c 6b9d 3fbd 29fb d73d
00000040: 232d dcbd 3a04 6c3d 1aac 663d 81bf 43bd
00000050: aa87 7cbd bf51 813d a412 afbd c411 9cbd
00000060: 7937 bebd 1425 c6bc 9070 2dbd b0f6 90bc
00000070: 7e75 1fbd 7247 623d f099 b83b b0eb c2bb
00000080: 5dbe 8d3d a87b 23bd 8cbb d03c f1c8 dd3d
00000090: ba02 293d 1f1b 9c3d bb84 a93d dc81 aa3c
000000a0: 16af 1e3d d3c8 893d 7663 323d 1a61 9bbd
000000b0: b0a1 32bc 30f8 02bd 544e bb3c 3071 f1bc
000000c0: da16 6d3d c671 193d 3de1 833d 585a a1bd
000000d0: bd2b a93d 2108 883d 5c86 2cbd 0935 debd
000000e0: 1987 d23d a098 0dbc 005f deb9 61e1 823d
000000f0: 9f98 913d 3c89 b23c bb51 d1bd d4f0 d93c
00000100: 72c4 5e3d 6685 bbbd 0dd6 a83d 0acc d1bd
00000110: 0837 d7bc 03e7 c33d c01a 47bc 80e5 963b
00000120: 9e79 50bd 1b05 ab3d 99a2 9e3d bad7 703d
00000130: 286d 49bc b19d a63d 8a30 073d 5316 b03d
00000140: 7cfd b4bd 5c4c bcbc 64b1 38bd 211f c13d
00000150: 80bf 6bbd 19a0 96bd d3b2 db3d 1316 89bd
00000160: 17ea 6cbd 5e90 93bd 2c24 d53c 74f7 1ebd
00000170: 9a1d 1bbd 7027 1fbd 764e 303d a013 ea3b
00000180: a5e3 813d 9c96 e0bc a4a9 c03c ffce b8bd
00000190: dabf 7f3d 5ef1 12bd 7118 bf3d cc2d d9bc
000001a0: d0b5 613c 34d8 a8bd 8d68 973d a369 72bd
000001b0: eb1e cd3d 9ba6 d83d d0fa 6cbc 35a8 9f3d
000001c0: 8c8a 81bd a84c 5bbc 875a c63d 05bd 953d
000001d0: dfd8 afbd da5a 3e3d 6b80 803d b4d3 95bd
000001e0: 35e2 c33d 78c5 82bc 9ccd c0bd 7e8d 8bbd
000001f0: aa84 9bbd ead1 533d 0dea 8f3d a78b ad3d
00000200: 200d 883b e256 5d3d d82e 713c 546d dabc
00000210: 84c0 98bd 4fc3 893d ba25 6bbd d77c 9fbd
00000220: 12ec 4c3d 7767 cabd becd 6ebd 302a 8a3b
00000230: 6ec4 033d 00d2 cdbd 1684 133d b8dc 9bbd
00000240: fac0 293d c24d 103d c0b2 f73b 9152 8ebd
00000250: 24f0 e83c 368d 343d f261 313d fdd4 a63d
00000260: 5624 3fbd 6309 953d c246 543d c776 9dbd
00000270: 71a8 9a3d 1619 573d 58b2 28bd 948a c4bc
00000280: ce19 b6bd 061c 593d 3417 d03c 46e0 293d
00000290: 746d b2bc 9867 323c f303 d23d 30e8 923b
000002a0: a0e5 49bb 7e62 31bd 40af edbc ae7d 44bd
000002b0: efe0 5cbd 9a27 363d e47d bcbc 9168 873d
000002c0: bbf0 d43d 04cd c43c 2fb2 d13d 8bf3 9c3d
000002d0: 6ced cc3c d218 51bd 62b5 5a3d 40bf 7c3c
000002e0: d925 a3bd ac7e 97bc 225a 623d 8d10 b33d
000002f0: f313 cf3d a45d b1bc 1d7e cebd 4a88 6e3d
00000300: f026 6bbc 20d7 ea3b 00c6 c73b 8a4b 523d
00000310: 4cbb 9ebd 705b 283c 7081 0abd 1b85 913d
00000320: c0d4 cabc 2e52 8fbd 4a05 713d adc5 cd3d
00000330: bc6e adbd e6bf 3a3d 6740 cfbd 419b 7bbd
00000340: 9cd6 be3c ea73 bdbd 6090 fa3b afca cdbd
00000350: b1cb b23d 2232 1a3d 81f5 923d 681b 3dbd
00000360: 6c6a dc3c 5c9d 973c 12e9 b1bd 1041 ae3b
00000370: 0a33 683d aae5 a7bd 0043 64bd 0573 8b3d
00000380: 2db0 db3d 880f 7cbc 5295 5e3d 0ce9 cbbd
00000390: 044f eb3c 8e1d 03bd 6221 593d b0a9 af3b
000003a0: 36ab 16bd 14eb 20bd e4f2 e83c 686f 93bd
000003b0: 2c1e d0bc 5930 a23d dcce 99bd e81c bdbd
000003c0: 7e8c 51bd dac4 363d 0193 933d 46d0 053d
000003d0: ae12 35bd 6e6c 87bd 24ac c73c bad3 483d
000003e0: 8027 fcbb 4902 5cbd 2efb 113d a828 aebd
000003f0: 5fb8 d0bd a6c0 173d 9b7d 8c3d a685 6c3d
0.08452315 0.011958674 -0.017269626 0.106918134 -0.043590896 0.10609225 -0.03246942 0.040323474
0.025559656 0.08299696 0.011895262 0.028416015 -0.07536993 0.027954169 -0.046780985 0.10545952
-0.10750797 0.05762122 0.056316473 -0.047790054 -0.061652817 0.0631442 -0.08548477 -0.07620576
-0.09287924 -0.024187602 -0.042343676 -0.017695755 -0.03893041 0.055243917 0.005633585 -0.0059485063
0.069210745 -0.03991285 0.025480054 0.10829342 0.041262366 0.076223604 0.082772695 0.020813875
0.038741194 0.06727757 0.043551885 -0.0758688 -0.010902807 -0.03197497 0.022864498 -0.029472917
0.05788312 0.03746202 0.06439445 -0.0787856 0.082602955 0.066421755 -0.042120323 -0.108499594
0.10279674 -0.008642346 -0.0004241392 0.06390644 0.07109188 0.021793954 -0.10220667 0.026604094
0.054386564 -0.09156303 0.08243952 -0.102439955 -0.026271358 0.09565546 -0.012152374 0.0046049953
-0.050897233 0.08350583 0.07745857 0.058799483 -0.012294091 0.08135546 0.033005275 0.08598008
-0.08837411 -0.02298563 -0.045091048 0.094297655 -0.057555676 -0.07354755 0.107274674 -0.066936634
-0.057840433 -0.0720527 0.026018225 -0.03881021 -0.037870027 -0.03885597 0.043043576 0.0071434528
0.06342248 -0.027415566 0.023518391 -0.09023856 0.062438823 -0.035874717 0.09330834 -0.026511095
0.013776258 -0.082443625 0.07392988 -0.059182774 0.10015663 0.105786525 -0.014464095 0.07795755
-0.06325254 -0.0133849755 0.096852355 0.07311443 -0.08586287 0.04647336 0.06274494 -0.0731577
0.0956463 -0.015963301 -0.09414217 -0.06814097 -0.07593663 0.05171386 0.070270635 0.08473902
0.0041519552 0.054037936 0.014720641 -0.02666346 -0.074585944 0.06726705 -0.057409026 -0.07787483
0.05002982 -0.098830156 -0.05830168 0.004216455 0.03216975 -0.1004982 0.03601464 -0.07610458
0.041443802 0.035230406 0.0075591505 -0.06949342 0.02843482 0.04407998 0.0433063 0.08146093
-0.046665512 0.07277181 0.051825292 -0.076886706 0.07551659 0.05251416 -0.041185707 -0.02399186
-0.088916406 0.05300524 0.02540169 0.04147365 -0.021780707 0.0108889565 0.102546595 0.0044832453
-0.0030807033 -0.04330682 -0.02901423 -0.04797142 -0.05392545 0.04447136 -0.023009248 0.06611741
0.10397478 0.02402354 0.10239064 0.0766364 0.025015555 -0.05104906 0.053395636 0.015426457
-0.07966203 -0.018493019 0.05526174 0.08743391 0.10111227 -0.021651097 -0.10082648 0.058235444
-0.014352545 0.007166758 0.0060966015 0.05134157 -0.07750568 0.010275707 -0.033814847 0.07105466
-0.02475965 -0.069980964 0.058842935 0.10047469 -0.084683865 0.045593165 -0.10119706 -0.06142736
0.023295693 -0.092506245 0.0076466054 -0.100484245 0.08730257 0.037645467 0.071757324 -0.046168715
0.026906215 0.018507652 -0.08687033 0.0053178146 0.0566893 -0.08198102 -0.05572796 0.068090476
0.10726962 -0.015384562 0.05434162 -0.099565595 0.028724201 -0.032010607 0.053010352 0.0053608045
-0.036784373 -0.039286688 0.028436132 -0.071989834 -0.025405012 0.07919378 -0.075101584 -0.09234029
-0.051159374 0.044621326 0.07205773 0.03266933 -0.044207267 -0.06612478 0.024374075 0.049030043
-0.0076951385 -0.053713117 0.035639934 -0.08503848 -0.10191416 0.03704896 0.06859895 0.057744645

bias f4 [10]
00000000: 9a8e 253d 8085 11bc a347 a8bd 7acb 773d
00000010: 91a4 833d ef05 4cbd 5e1d 663d c898 0dbc
00000020: 4d35 d3bd 3ab0 48bd
0.0404192 -0.008881927 -0.082167886 0.060496785 0.06427873 -0.049810346 0.05618035 -0.008642383
-0.10312901 -0.048996188
