mnist_sample_cnn_server.pt (torch_old, 35209 bytes, 2 tensors)

weight f4 [10, 784]
000000 1a 47 01 bd 54 0e a0 bb 7c 56 6e 3c 38 31 fe bc
       -0.03156195 -0.0048845205 0.014546987 -0.031029329
000010 58 93 8f 3c da 4a d1 bc b8 a0 2e 3c 86 53 95 3c
       0.017526314 -0.025548387 0.0106584355 0.018228304
000020 87 af 08 3d 39 b7 10 3d 20 cd ee ba 18 28 f4 bc
       0.03337052 0.035330985 -0.0018219091 -0.029804274
000030 e0 04 83 3c c3 8b b2 3b fe a5 f0 bc 00 25 d3 b9
       0.015993536 0.00544879 -0.029376026 -0.00040272623
000040 fc 50 96 bc ce d6 27 bc e0 3b 36 bb d0 77 c2 3c
       -0.018349163 -0.0102440845 -0.0027806684 0.023738772
000050 20 19 06 bc 80 13 fa bb 72 20 0e bc d4 ac 2c 3c
       -0.008184701 -0.007631719 -0.008674728 0.010539252
000060 d3 69 97 bc 98 f5 78 bc 7a 77 c7 bc c0 0f 53 ba
       -0.018483078 -0.015195273 -0.024348963 -0.0008051358
000070 64 67 fa bb 25 02 01 bd 00 27 11 3c 8e 29 12 bc
       -0.0076417197 -0.031496186 0.008859396 -0.00892104
000080 b2 a6 0a bc b3 22 c2 bc 52 94 00 bd 2e ef 18 bc
       -0.008462595 -0.023698187 -0.03139145 -0.009334369
000090 64 ab 7b 3c 29 80 ee bb a4 3a 27 3c 68 58 84 bc
       0.015360687 -0.0072784615 0.010206852 -0.016155437
0000a0 ea d9 f1 3c ee 4e 0b 3d a5 e0 17 bb 1a 79 e7 3c
       0.029522855 0.03401082 -0.002317467 0.028255988
0000b0 d5 13 d4 3b f8 9f 07 bd 0e 34 04 bd 1c 1e f5 bc
       0.0064720907 -0.033111542 -0.032276206 -0.029921584
0000c0 58 89 51 3c 00 c1 2c 3a f6 0f f4 3c c9 be 99 bc
       0.012789093 0.00065900385 0.029792767 -0.018767731
0000d0 70 5a 5a 3c 2a 94 17 bc 43 ce 03 3d a3 aa e9 bc
       0.013327226 -0.009251634 0.03217913 -0.028523749
0000e0 ac 58 98 bc 30 1a 66 3b 10 89 34 3c c0 e6 01 3c
       -0.01859697 0.0035110824 0.011019006 0.00792855
0000f0 b6 9f 8b bc d6 ec ba 3c b6 67 fc 3c 05 c4 ed 3b
       -0.01704393 0.02281801 0.030811172 0.0072560334
000100 1c 49 a7 bc ff c9 94 bb 1c c1 cf 3c 6e fb f1 bc
       -0.020420603 -0.0045406814 0.025360636 -0.029538836
000110 0f 22 9c bc 58 19 0d bd 95 cb 62 bc 6a f8 54 3c
       -0.01905921 -0.034447998 -0.013842483 0.01299868
000120 58 23 46 3c 65 d7 ac bb f0 50 10 bb 5a 95 c9 bb
       0.012093388 -0.0052747005 -0.0022020899 -0.0061518373
000130 b4 51 22 bd 80 be c2 3c 3d 5c 05 3d ba 9f 17 bc
       -0.0396287 0.023772478 0.03255867 -0.00925439
000140 ca 64 5e bb 7a b7 d4 3c 90 da e4 3b c0 c1 d1 3a
       -0.0033934587 0.025966395 0.0069840625 0.0016003177
000150 60 1a 37 3c 88 8b c5 3c a0 40 12 3b 3c 36 a2 3c
       0.011175722 0.024114385 0.0022316352 0.019801252
000160 41 f7 f7 bc d9 4a 95 bb 9e f1 f3 3c 23 34 11 bd
       -0.030269267 -0.0045560417 0.029778298 -0.035450112
000170 94 b2 05 bd 82 4b 02 bb 86 15 18 3c 52 de d5 bb
       -0.03264101 -0.0019881432 0.009282475 -0.006526747
000180 9d 6d f7 bc bd 6b 46 bb 62 1f 58 bc 84 dc 21 bd
       -0.030203635 -0.003027662 -0.013191076 -0.03951694
000190 d7 61 7f bc 94 9e 8e bd 60 be 78 bd 42 06 11 bd
       -0.015587292 -0.0696384 -0.06072843 -0.03540636
0001a0 0f 73 30 bc 3c f0 4b bc 76 f4 a3 bc 38 04 0d 3b
       -0.01076962 -0.012447413 -0.020014029 0.0021517407
0001b0 c6 e6 fd bc 92 9f ad bc 49 77 08 3d 98 ff 7b 3c
       -0.03099383 -0.021194253 0.033316884 0.0153807625
0001c0 00 99 cd 3b 06 fc a0 3c 5a 88 b0 3c b6 09 c0 bc
       0.0062743425 0.019651424 0.021549392 -0.02344213
0001d0 ea b2 00 3c 6c 0d 92 3c 3c fe 1c bd 38 2a d7 b9
       0.007855156 0.017828666 -0.038328394 -0.0004103945
0001e0 a3 85 76 bc ee 61 83 3c e4 08 39 bd be 06 13 3b
       -0.01504651 0.016037907 -0.045174494 0.0022434439
0001f0 c8 94 a4 bc a3 cd eb bc fa f2 36 bc aa 3c fe 3b
       -0.020090476 -0.028784579 -0.011166329 0.0077586966
000200 58 a2 89 3c 8a 4d 0d bc 33 c2 f8 bb 4d ae 9a bd
       0.016801044 -0.008624444 -0.0075915097 -0.075527765
000210 8b e7 dc bb ac d4 4d bd 5c ae 97 bb 35 6a bc bc
       -0.0067414693 -0.050251648 -0.0046289396 -0.022999862
000220 12 fa d9 bc e7 4b 4e 3a ef a7 02 bd 02 30 0c bc
       -0.0266085 0.00078695867 -0.031898435 -0.008556368
000230 ae 07 99 bc 00 d5 a6 bc e4 13 f4 3c ad 00 54 bc
       -0.01868042 -0.020365238 0.02979464 -0.012939614
000240 3b 69 68 3c ed f1 d9 ba d9 a8 99 3c 20 2c 62 bd
       0.014185245 -0.0016627886 0.01875727 -0.055217862
000250 21 d5 b7 bc 8a b4 9a bc 68 7f 79 bd e2 70 cb bb
       -0.022440495 -0.018884916 -0.06091252 -0.006208525
000260 22 a1 c3 3c ba 7a 29 3d 30 1c 22 3d ed 69 b5 3d
       0.023880545 0.041376807 0.039577663 0.08858094
000270 ea d0 c1 3d 86 5d 85 3d 67 2a e9 3c 9b de 8d bb
       0.09463675 0.06511979 0.028462602 -0.004329515
000280 f5 c0 9b 3c e1 6f 2e bc f3 a7 8a bc 06 1a 97 bc
       0.019012908 -0.010646791 -0.016925788 -0.018445026
000290 56 25 8b bb bc 3a 2c bd af 3b cd bc ac f4 da bc
       -0.004246394 -0.0420482 -0.025052873 -0.026727997
0002a0 cc 7d f4 bc bc db d0 bc 3c d4 8b ba fc b0 a8 3c
       -0.02984514 -0.025495403 -0.0010668109 0.020592205
0002b0 bd 0d b8 3c c6 f6 6b bc 2e 3e 4b bd 8e 98 e0 bc
       0.022467488 -0.014402097 -0.049619846 -0.027416494
0002c0 12 7b 58 bd a6 18 98 bd ea c6 fd bc 9e 24 22 bd
       -0.052851744 -0.07426576 -0.030978639 -0.039585702
0002d0 d4 6c e6 3b d5 64 1f 3d b6 cc b0 3d 00 09 d9 3d
       0.0070320163 0.03891452 0.086327955 0.1059742
0002e0 f5 2d 00 3e ed d9 07 3e 16 c1 9a 3d ee d5 c2 3d
       0.12517531 0.13266726 0.075563595 0.0951346
0002f0 55 e9 00 3d ad 41 90 3b 89 16 d6 bc e6 da 3e bd
       0.031472523 0.0044023604 -0.026133792 -0.046595477
000300 34 0b 82 bd 1a 6a de 3b a5 47 90 3b 95 cd 61 3c
       -0.06349793 0.0067875506 0.004403072 0.013781925
000310 9c c6 fe bb 57 ca f0 3c 33 54 f0 3c df 05 bb bc
       -0.007775141 0.029393358 0.029337024 -0.022829948
000320 14 bb b6 3b f2 33 51 3c 2a 67 25 bd 86 5c 32 bd
       0.0055765007 0.012768732 -0.040381588 -0.04354527
000330 0d 87 6d bd 72 15 93 bd d3 ec b3 3c 3f 3f 95 3b
       -0.057990123 -0.07181825 0.021963513 0.0045546587
000340 d5 91 29 3d 95 82 af 3d 7c 9d b3 3d 6f 26 be 3d
       0.041398842 0.085698284 0.08770272 0.092846744
000350 c2 c6 04 3e 48 d1 0c 3e 20 6b 1e 3e e2 4c b0 3d
       0.12966445 0.1375171 0.15470552 0.08608414
000360 4b d0 79 3d fb 66 43 3d 8c 32 f0 bc d8 83 0e 3c
       0.06098966 0.04770563 -0.029320978 0.008698426
000370 f3 c5 45 bd de 9b 61 bd 2f c0 4b bc a9 2f 0e 3c
       -0.048284482 -0.055080287 -0.012435957 0.008678355
000380 a0 5b b2 bc cb f9 ec 3c 5e 3b 89 3c 56 12 92 bc
       -0.021772206 0.028927704 0.016751941 -0.017831009
000390 66 73 11 bd 7c ba 03 bb 20 c9 df bc 64 4d 1a bd
       -0.035510443 -0.0020100167 -0.027317584 -0.03767146
0003a0 58 ff 03 bd 6e 70 00 3c db 7c 68 bd 68 76 b0 3a
       -0.032225937 0.007839305 -0.056759696 0.0013463022
0003b0 04 5e 2e 3d 14 76 b0 3d 03 f7 e0 3d 9c 35 ae 3d
       0.04257013 0.086162716 0.10984614 0.08506319
0003c0 44 b0 ec 3d 05 58 0b 3e 6c 15 b9 3d b8 a4 a7 3d
       0.115570575 0.13607796 0.09037289 0.081857145
0003d0 07 f8 84 3d f0 38 ae 3b da a6 10 3c 02 8c 47 3d
       0.0649262 0.005316846 0.008828843 0.048717506
0003e0 35 94 df bc 01 e9 1d bd 64 7f 8b 3a 1c 97 f6 bc
       -0.02729235 -0.038552288 0.0010642824 -0.030101351
0003f0 a3 0e ee bc 94 61 50 bc aa c7 22 bb ef f0 0e bc
       -0.029059714 -0.012718577 -0.0024838247 -0.008724435

bias f4 [10]
000000 11 fa 19 be 29 88 54 3e 08 aa ee bc 10 64 47 bd
       -0.15036799 0.20755066 -0.029133812 -0.04867941
000010 48 7f 8a 3d 9b 0f c4 3e 3d 84 10 bd a2 b0 03 3e
       0.06762558 0.38293156 -0.035282362 0.12860349
000020 17 86 c8 be 7d ef 92 bd
       -0.39164802 -0.07174585
