mnist_sample_cnn_client.pt (torch, 129427 bytes, 10 tensors)

weight f4 [3, 1, 5, 5]
0.19869272 -0.107265994 0.006612972 0.47255167 -0.061970025 -0.22432502 0.2031662 0.3469405
0.96655476 0.23262432 -0.032130256 0.05170868 0.51302296 0.68703204 0.045842685 -0.1543256
0.28711733 -0.05857934 -0.09786512 -0.040648744 -0.3819319 -0.14419639 -0.19773294 0.009870995
-0.026424801 0.04147564 -9.6224096e-05 -0.47258902 -0.34484404 -0.010374322 -0.024969157 -0.43166047
-0.24738623 -0.3312833 0.17034867 -0.26890615 -0.36652595 0.3186111 0.5201222 0.84845257
-0.12919365 0.26296645 0.711138 1.0361221 0.9573703 0.1203516 -0.14444402 -0.10054222
-0.084834956 0.32269892 -0.0008026179 0.00814549 -0.03538699 0.05207428 -0.124730594 0.18755272
-0.16825432 -0.15721369 0.029191991 0.01576808 -0.18379293 -0.150001 0.004826998 0.19230708
0.055628378 -0.13935375 -0.112989515 -0.076269135 -0.05619629 0.013500078 0.16124399 0.035869513
-0.06663653 -0.16355634 -0.085106134
00000000: 1b76 4b3e 46ae dbbd a1b1 d83b 4bf2 f13e
00000010: 48d4 7dbd 75b5 65be cd0a 503e 2fa2 b13e
00000020: 2270 773f 1235 6e3e 049b 03bd 7bcc 533d
00000030: 7955 033f 55e1 2f3f 8ac5 3b3d 8807 1ebe
00000040: 0b01 933e e4f0 6fbd 826d c8bd 4c7f 26bd
00000050: 948c c3be 38a8 13be 817a 4abe f4b9 213c
00000060: d378 d8bc 5ce2 293d ebcb c9b8 30f7 f1be
00000070: 668f b0be 0ff9 29bc 1e8c ccbc 9a02 ddbe
00000080: d152 7dbe f79d a9be e26f 2e3e 11ae 89be
00000090: 4aa9 bbbe fe20 a33e ba26 053f 3034 593f
000000a0: 574b 04be 8aa3 863e 240d 363f a69f 843f
000000b0: 3816 753f e67a f63d 22e9 13be 14e9 cdbd
000000c0: f3bd adbd cb38 a53e c766 52ba a974 053c
000000d0: f3f1 10bd d74b 553d c172 ffbd d20d 403e
000000e0: dc4a 2cbe a0fc 20be 0b24 ef3c 0f2c 813c
000000f0: 3734 3cbe dd99 19be cb2b 9e3b 26ec 443e
00000100: 95da 633d c0b2 0ebe 0c67 e7bd fe32 9cbd
00000110: 152e 66bd 6e2f 5d3c 251d 253e e9eb 123d
00000120: bc78 88bd 507b 27be 204c aebd

bias f4 [3]
-0.2467856 -0.08536884 -0.15965576
00000000: 5db5 7cbe dcd5 aebd cd7c 23be

weight f4 [10, 3, 5, 5]
-0.12225172 -0.08756056 0.081640154 -0.14462109 -0.74111605 0.14896582 0.38263866 0.098083965
0.13825169 -0.19603956 -0.1806102 -0.16994335 0.25488624 0.389863 0.16863394 -0.39760247
-0.43354306 0.06536938 0.15888117 -0.011070636 0.117098495 -0.11341874 -0.33651355 -0.28208828
-0.03987638 0.2729584 0.5395651 0.32566205 0.04649856 -0.418452 0.20219177 -0.090408936
0.44864056 0.4145638 0.05119733 -0.9288339 -0.41977304 0.087128654 -5.2061394e-05 -0.16316986
0.026448904 -0.43185687 -0.5045926 -0.017754108 -0.029143954 0.36773652 0.043683223 0.03919208
0.018306836 -0.46384972 -0.01753287 -0.10042348 -0.0018642817 -0.011738999 -0.05714319 -0.03788492
-0.11239016 0.10873774 -0.057981417 -0.024336584 0.06380321 -0.08198666 -0.043704115 -0.018876389
0.08504336 0.046593152 -0.105475664 -0.026066119 -0.08896829 0.111105494 0.09343976 -0.053909406
0.11575811 0.022313315 -0.1033681 -0.29817882 -0.023750773 0.12492662 -0.00022565907 -0.008554324
-0.17297657 -0.27429327 -0.079109825 0.108375624 -0.2089092 -0.38477117 -0.43603027 0.1110696
0.5486869 -0.15847328 -0.38693547 -0.11593635 0.46584633 0.25297195 -0.7365926 -0.24711542
0.028766513 0.25473255 -0.38854063 -0.72250426 -0.3144149 -0.17696267 -0.04586862 0.014495757
-0.18441525 -0.684254 -0.44916174 0.54975 0.2439468 -0.25141528 -0.58145374 -0.0741758
0.6823728 0.15284237 -0.81604505 -0.19200216 0.32207602 0.43695718 -0.53191304 -0.9298445
-0.09150622 0.29850352 0.03467743 -0.555422 -0.5200558 0.03528819 0.10433464 -0.00042934297
0.0011621654 -0.1077073 -0.052477885 0.10877382 -0.035304446 0.016504407 0.097621076 0.005602153
0.068481 0.09643018 0.07728932 -0.038669188 -0.087184325 -0.05375562 -0.013489648 0.066112034
0.07953628 -0.066091426 -0.06164077 -0.06657961 0.09857204 -0.037863847 -0.45636174 0.2515219
0.4184998 0.17840968 -0.198069 0.040445745 0.2839802 0.042958505 -0.23079395 -0.09051108
0.22789006 -0.18194501 -0.20113103 -0.19443008 0.00020828197 0.05159506 0.16554981 -0.08457333
-0.06076589 0.04208886 -0.4163574 0.05734891 -0.24920233 0.052469388 -0.1426446 0.47304666
0.5974785 0.10194875 -0.30941275 0.07611244 0.7668338 -0.067107774 -0.56519437 -0.07401112
-0.25347167 -0.16267438 -0.18731447 -0.10822389 0.22923975 -0.078746095 -0.56162024 -0.27410138
-0.21054049 0.2915966 -0.18384828 -0.09450262 -0.23326072 -0.24838875 -0.10409546 -0.11459683
-0.051039394 0.039656986 -0.037391786 -0.107552655 0.010243958 -0.03337982 -0.087691635 -0.09272427
-0.025116565 -0.01329151 0.05624312 0.027899168 -0.02288806 0.010016534 -0.027107837 0.108913705
0.052650828 -0.055976138 0.035931334 -0.03764575 0.11121275 -0.09467003 0.048362426 0.026935818
0.11023869 0.047955837 -0.15893689 -0.16628736 -0.36793202 -0.03218926 0.030444583 -0.010982801
-0.28645548 -0.2332651 0.105125055 0.19452654 0.43390897 0.37655163 0.42053935 0.14136042
-0.04984989 0.19162913 0.2599318 -0.16649173 -0.22361208 -0.18712907 -0.5246183 -0.5993092
-0.6155732 0.10008368 0.06873281 -0.29908744 -0.50187635 -0.39911017 -0.0151864905 -0.08951859
00000000: 1c5f fabd f352 b3bd f432 a73d 8d17 14be
00000010: c8b9 3dbf 7f8a 183e 37e9 c33e 3fe0 c83d
00000020: da91 0d3e 98be 48be e1f1 38be a105 2ebe
00000030: 7380 823e 209c c73e 60ae 2c3e 8d92 cbbe
00000040: 5bf9 ddbe 62e0 853d bfb1 223e 9d61 35bc
00000050: 56d1 ef3d 1648 e8bd 814b acbe e06d 90be
00000060: 6a55 23bd 34c1 8b3e f020 0a3f 2dbd a63e
00000070: 4675 3e3d 573f d6be 5c0b 4f3e 5228 b9bd
00000080: 37b4 e53e b541 d43e 4bb4 513d 0fc8 6dbf
00000090: 7eec d6be 8270 b23d 7f5c 5ab8 0016 27be
000000a0: 5fab d83c 581c ddbe fb2c 01bf 1071 91bc
000000b0: 4dbf eebc f647 bc3e 2eed 323d e087 203d
000000c0: 38f8 953c b67d edbe 18a1 8fbc d3aa cdbd
000000d0: ea5a f4ba ee54 40bc fa0e 6abd 382d 1bbd
000000e0: d02c e6bd e4b1 de3d ec7d 6dbd 845d c7bc
000000f0: 42ab 823d 9fe8 a7bd 1603 33bd a8a2 9abc
00000100: 372b ae3d 76d8 3e3d a003 d8bd 9d88 d5bc
00000110: 0235 b6bd 478b e33d 585d bf3d 1cd0 5cbd
00000120: 9712 ed3d 6aca b63c a8b2 d3bd e5aa 98be
00000130: fb90 c2bc 87d9 ff3d e59e 6cb9 6f27 0cbc
00000140: c520 31be 2b70 8cbe 5504 a2bd 0af4 dd3d
00000150: 4bec 55be ba00 c5be 5c3f dfbe 7578 e33d
00000160: bf76 0c3f d246 22be 681c c6be 0970 edbd
00000170: 6983 ee3e 8a85 813e 5591 3cbf d30b 7dbe
00000180: c0a7 eb3c 4e6c 823e ccee c6be 0af6 38bf
00000190: fdfa a0be b435 35be bce0 3bbd 9d7f 6d3c
000001a0: 5ad7 3cbe 452b 2fbf 87f8 e5be 6abc 0c3f
000001b0: 31cd 793e 81b9 80be 27da 14bf 7be9 97bd
000001c0: fcaf 2e3f b682 1c3e 54e8 50bf 379c 44be
000001d0: 26e7 a43e dab8 df3e 742b 08bf 4a0a 6ebf
000001e0: 9d67 bbbd 74d5 983e ec09 0e3d 2330 0ebf
000001f0: 6022 05bf 598a 103d 66ad d53d 7019 e1b9
00000200: cd53 983a a595 dcbd 0df3 56bd cfc4 de3d
00000210: 659b 10bd 4034 873c 8fed c73d 4492 b73b
00000220: c43f 8c3d 307d c53d dd49 9e3d 9563 1ebd
00000230: b28d b2bd da2e 5cbd af03 5dbc bf65 873d
00000240: ebe3 a23d f15a 87bd 087b 7cbd e45a 88bd
00000250: 23e0 c93d 1f17 1bbd 3fa8 e9be 7ac7 803e
00000260: 9b45 d63e 07b1 363e 9ad2 4abe 70aa 253d
00000270: da65 913e 42f5 2f3d 4055 6cbe e05d b9bd
00000280: 035c 693e cb4f 3abe 4bf5 4dbe ae18 47be
00000290: 4466 5a39 5755 533d e485 293e c834 adbd
000002a0: a7e5 78bd 5e65 2c3d cc2c d5be b1e6 6a3d
000002b0: e52e 7fbe 24ea 563d 6d11 12be 2c33 f23e
000002c0: 5af4 183f 82ca d03d 596b 9ebe d7e0 9b3d
000002d0: 384f 443f cd6f 89bd 94b0 10bf 2493 97bd
000002e0: 0ac7 81be 1d94 26be 5dcf 3fbe 7da4 ddbd
000002f0: d3bd 6a3e a245 a1bd 58c6 0fbf 0457 8cbe
00000300: ed97 57be 264c 953e b942 3cbe 978a c1bd
00000310: e6db 6ebe 9f59 7ebe 0030 d5bd beb1 eabd
00000320: af0e 51bd 5d6f 223d 2128 19bd 9144 dcbd
00000330: 46d6 273c 47b9 08bd ac97 b3bd 39e6 bdbd
00000340: 41c1 cdbc a2c4 59bc 305f 663d cc8c e43c
00000350: be7f bbbc 631c 243c 4111 debc 260e df3d
00000360: 65a8 573d 3c47 65bd bc2c 133d 6e32 1abd
00000370: 83c3 e33d 5ce2 c1bd ae17 463d 81a8 dc3c
00000380: d3c4 e13d 576d 443d 5ac0 22be 3c47 2abe
00000390: 9661 bcbe e3d8 03bd eb66 f93c 35f1 33bc
000003a0: 4baa 92be 0cdd 6ebe ce4b d73d f731 473e
000003b0: 5129 de3e 60cb c03e ef50 d73e c9c0 103e
000003c0: 662f 4cbd 6d3a 443e c815 853e cf7c 2abe
000003d0: 91fa 64be c39e 3fbe 634d 06bf 546c 19bf
000003e0: 3596 1dbf acf8 cc3d cac3 8c3d fd21 99be
000003f0: f87a 00bf 2b58 ccbe c2d0 78bc 8655 b7bd

bias f4 [10]
-0.12160683 -0.039906416 -0.11526805 -0.046090916 -0.25049898 -0.038688026 -0.11522967 0.016928054
-0.040506944 0.035058163
00000000: 000d f9bd e974 23bd a811 ecbd d4c9 3cbd
00000010: 6741 80be 5677 1ebd 89fd ebbd b4ac 8a3c
00000020: 9cea 25bd 2699 0f3d

weight f4 [120, 160]
-0.03627809 -0.018443502 0.05713757 0.055042867 0.014891467 -0.035588928 0.0068349065 0.0133913485
-0.051084764 -0.08289894 -0.076507375 -0.040223908 0.051586013 -0.07544664 0.06254692 -0.048662376
0.03885443 -0.0773085 -0.025319777 -0.0015101548 -0.06251892 0.009239135 -0.076077 0.0046084593
-0.064997844 0.0017369499 0.011955683 -0.016216898 -0.027723761 0.035873428 0.045235913 -0.055925716
0.077202395 -0.06744537 -0.03255267 0.03936021 -0.024186656 -0.07868463 -0.00069962733 0.043197796
-0.0011524322 -0.016232338 0.027486712 -0.08456594 0.05942908 0.042241506 0.05024882 -0.0652078
-0.04866179 -0.07133473 -0.053399168 -0.005421386 -0.07757752 0.004088259 0.045953333 -0.05183812
-0.02838219 -0.06816316 0.036477283 0.056080714 -0.06567524 -0.06487539 -0.026715802 0.04530137
-0.022914594 -0.0049588247 0.068725385 -0.029110774 0.010426665 0.016335275 0.050304912 -0.05595913
0.053204607 -0.047865964 -0.07156359 0.012016656 0.068779305 0.026462622 -0.043278422 0.06450101
0.011641346 -0.008099485 -0.025102 0.003897102 0.043842528 0.047995053 0.0012950527 0.021754825
-0.051743943 0.018812675 0.0023230019 -0.0072161937 0.0480319 0.06971173 -0.05186279 0.05316417
-0.06343692 -0.060995355 0.001539375 -0.08206139 -0.03460107 -0.041339424 0.0088807335 -0.06134259
-0.036521263 -0.022984909 -0.032740366 -0.038674925 0.0185081 -0.054961953 0.049577814 0.015074128
-0.0031459848 -0.001227845 -0.05727555 0.050036572 -0.0010121844 0.051721137 0.03187973 -0.05236004
0.056428105 0.03111328 0.05205261 -0.061881118 -0.008281064 0.024063513 -0.053366568 0.06788842
0.049508706 0.0666527 -0.05360758 -0.016064204 0.009037008 -0.066965885 0.042418405 0.003396964
-0.065248385 0.009010102 -0.05860583 -0.023190182 0.0132808825 0.03170472 -0.022956833 0.076587275
-0.031620584 -0.051797226 -0.06420688 -0.06978905 0.013320824 -0.07484541 -0.06408131 0.04778382
0.048686128 0.0070725735 -0.02792685 -0.026244005 0.06939111 0.027551955 0.07790427 0.042325407
0.17356566 0.22416769 0.10034475 -0.10818501 -0.04108547 0.049417134 0.11730801 -0.012322869
-0.26985317 -0.18097131 -0.123274066 -0.1155935 0.06867323 -0.068846665 -0.075299986 0.2161828
-0.08146292 -0.011121699 -0.08218309 -0.098816186 0.20839204 0.14254025 0.08201531 0.1703689
0.034914255 0.018178469 0.22246554 0.008385562 -0.094119415 -0.0463173 -0.03543481 0.01389364
0.009005864 -0.080703266 -0.037807193 -0.14366218 0.047058042 0.041468844 -0.046010505 0.010194329
0.026735669 0.10775863 -0.055944577 0.01760464 0.19649081 -0.022364205 0.06284325 0.15281436
0.1871118 0.10080066 -0.025417054 0.06951597 -0.07289547 0.0861059 -0.054745425 2.1196507e-05
0.06564546 -0.14543079 -0.13542809 0.043051675 0.04503715 -0.02299841 -0.10398697 0.13364652
0.102040164 -0.037344284 0.07401501 -0.06077282 0.016911827 0.024438677 -0.17870037 -0.035858493
-0.12564959 -0.08544927 0.041974764 0.09855248 -0.06321202 -0.014485959 0.07129836 0.12749045
-0.049337022 0.061827134 -0.06098188 -0.008570305 0.09564147 -0.030980136 -0.027064838 -0.026219355
0.021899723 -0.049616024 -0.029082393 0.08996226 -0.061908763 0.02800828 0.08215934 -0.005174392
00000000: 5698 14bd d416 97bc 1609 6a3d a174 613d
00000010: 57fb 733c b2c5 11bd 5af7 df3b 6367 5b3c
00000020: 423e 51bd ebc6 a9bd e6af 9cbd d3c1 24bd
00000030: db4b 533d c583 9abd 9918 803d 3352 47bd
00000040: d325 1f3d eb53 9ebd 6c6b cfbc 63f0 c5ba
00000050: eb09 80bd be5f 173c 42ce 9bbd 8f02 973b
00000060: 971d 85bd 5eaa e33a c5e1 433c 4dd9 84bc
00000070: f11c e3bc 04f0 123d 4b49 393d 5d12 65bd
00000080: 4a1c 9e3d cc20 8abd f355 05bd 2c38 213d
00000090: 1823 c6bc 6825 a1bd 3267 37ba 2cf0 303d
000000a0: 350d 97ba aef9 84bc d02b e13c e830 adbd
000000b0: e86b 733d 6e05 2d3d b5d1 4d3d ab8b 85bd
000000c0: 9651 47bd f117 92bd 16b9 5abd e2a5 b1bb
000000d0: f6e0 9ebd cdf6 853b 9039 3c3d 3554 54bd
000000e0: c481 e8bc 2099 8bbd 3469 153d e4b4 653d
000000f0: bd80 86bd 63dd 84bd 19db dabc ee8d 393d
00000100: 63b7 bbbc a37d a2bb e5bf 8c3d b879 eebc
00000110: 9ad4 2a3c 8ed1 853c 860c 4e3d 6735 65bd
00000120: 13ed 593d 1a0f 44bd ee8f 92bd 82e1 443c
00000130: 2adc 8c3d 24c8 d83c b744 31bd 1b19 843d
00000140: 58bb 3e3c b4b3 04bc b6a2 cdbc 8666 7f3b
00000150: 3994 333d 7696 443d c2be a93a 2d37 b23c
00000160: 75f1 53bd 0a1d 9a3c 813d 183b d275 ecbb
00000170: 19bd 443d 06c5 8e3d 146e 54bd acc2 593d
00000180: 37eb 81bd 44d6 79bd dbc4 c93a cd0f a8bd
00000190: dab9 0dbd 8753 29bd 7f80 113c 5e42 7bbd
000001a0: 5297 15bd d94a bcbc c31a 06bd 9969 1ebd
000001b0: 4d9e 973c c91f 61bd 1b12 4b3d 7af9 763c
000001c0: de2c 4ebb a4ef a0ba c499 6abd 26f3 4c3d
000001d0: 46ab 84ba 8bd9 533d 5294 023d 7b77 56bd
000001e0: 2821 673d 47e1 fe3c 1e35 553d 0e77 7dbd
000001f0: 4dad 07bc d820 c53c e796 5abd 1509 8b3d
00000200: a4c9 4a3d 3681 883d 9f93 5bbd 1499 83bc
00000210: f50f 143c 6925 89bd ecbe 2d3d 999f 5e3b
00000220: f2a0 85bd 1b9f 133c ab0c 70bd 56f9 bdbc
00000230: 0f98 593c cfdc 013d f80f bcbc cad9 9c3d
00000240: 9684 01bd 5429 54bd e67e 83bd 90ed 8ebd
00000250: 963f 5a3c 8d48 99bd 103d 83bd f8b8 433d
00000260: 1b6b 473d 0cc1 e73b d9c6 e4bc abfd d6bc
00000270: ed1c 8e3d a3b4 e13c 468c 9f3d 685d 2d3d
00000280: 32bb 313e 378c 653e 8c81 cd3d 1a90 ddbd
00000290: 3d49 28bd 9f69 4a3d 2f3f f03d dce5 49bc
000002a0: 322a 8abe 8b50 39be 1d77 fcbd 49bc ecbd
000002b0: 8da4 8c3d 7bff 8cbd e136 9abd 065f 5d3e
000002c0: 08d6 a6bd c937 36bc 9c4f a8bd 2460 cabd
000002d0: b964 553e 12f6 113e a5f7 a73d 2f75 2e3e
000002e0: 4002 0f3d 03eb 943c 02ce 633e 9963 093c
000002f0: aec1 c0bd 36b7 3dbd 1724 11bd 26a2 633c
00000300: 558d 133c c147 a5bd b7db 1abd 2e1c 13be
00000310: efbf 403d 3cdb 293d 8375 3cbd 1d06 273c
00000320: c304 db3c 8eb0 dc3d 2426 65bd 9b37 903c
00000330: e334 493e 2335 b7bc f6b3 803d 5e7b 1c3e
00000340: 3c9a 3f3e 9470 ce3d 6d37 d0bc 645e 8e3d
00000350: 384a 95bd 4a58 b03d bd3c 60bd 27cf b137
00000360: 2071 863d cfeb 14be a9ad 0abe f456 303d
00000370: e078 383d 2967 bcbc 1ff7 d4bd a2da 083e
00000380: 6ffa d03d 52f6 18bd 2e95 973d ecec 78bd
00000390: ac8a 8a3c 9f33 c83c 3bfd 36be 5be0 12bd
000003a0: 49aa 00be 0700 afbd bbed 2b3d e2d5 c93d
000003b0: 4e75 81bd 8456 6dbc e004 923d db8c 023e
000003c0: 9e15 4abd 733e 7d3d 23c8 79bd 776a 0cbc
000003d0: addf c33d 0eca fdbc 14b7 ddbc f9c9 d6bc
000003e0: 0c67 b33c 2c3a 4bbd 333e eebc 223e b83d
000003f0: 0b94 7dbd 9f71 e53c 2843 a83d f28d a9bb

bias f4 [120]
-0.05076501 -0.06335974 -0.04404677 -0.056305423 -0.14112265 0.04107369 -0.021082351 -0.019107068
-0.013003134 0.017313631 0.001180459 0.011384968 0.05305704 0.04596115 0.01845312 0.08813917
-0.010736952 -0.07904007 -0.10475747 0.052148305 0.1487303 -0.027017312 -0.038462024 0.023897203
0.09029709 -0.07969405 0.10076636 0.026396826 0.06778251 0.05253042 0.031794827 0.034226865
-0.039260004 0.07550402 0.0039136214 0.07003937 -0.010553471 0.023065804 -0.031168608 -0.08518359
-0.018880691 -0.07645415 -0.064110406 -0.019233841 -0.07506763 -0.03156503 -0.07902179 0.022261707
-0.042299625 -0.056381 -0.010130344 0.07502126 -0.051463842 -0.019582417 -0.11758162 -0.0059957877
-0.013211898 0.011629063 -0.05885785 0.028769625 -0.037673954 -0.0010247374 -0.0682565 0.074925005
-0.070501655 -0.0701998 0.15116505 0.006976936 0.04438779 -0.035214648 -0.042651277 -0.08669532
0.0006497454 0.020318251 -0.036091477 0.004003564 0.02365095 0.04935699 -0.07526433 -0.043576736
-0.08269014 -0.0119110355 -0.005829231 0.036942508 -0.027128143 -0.011909759 -0.017989172 0.08006344
-0.01945794 -0.017024517 -0.02734101 0.03524101 0.058177486 -0.041218158 0.12552476 -0.08026662
-0.008159205 -0.08173151 0.034168903 0.03336036 -0.059944473 -0.026315335 -0.017386932 -0.022149267
-0.00046797912 -0.0030421426 -0.008575244 -0.043468375 0.014582589 0.115159035 0.017404601 0.08979589
0.00965379 0.051650032 -0.1188778 0.055536114 0.01845639 -0.008142317 -0.017263157 -0.023042321
00000000: f9ee 4fbd c0c2 81bd 636a 34bd 84a0 66bd
00000010: 7582 10be e33c 283d e5b4 acbc 6d86 9cbc
00000020: 190b 55bc 51d5 8d3c a2b9 9a3a 0488 3a3c
00000030: 5752 593d c241 3c3d ff2a 973c 4f82 b43d
00000040: 0aea 2fbc c3df a1bd 168b d6bd 7699 553d
00000050: c14c 183e 6953 ddbc 5b8a 1dbd 11c4 c33c
00000060: aeed b83d a236 a3bd 985e ce3d 283e d83c
00000070: 8ed1 8a3d 232a 573d 4b3b 023d 7831 0c3d
00000080: 19cf 20bd daa1 9a3d d63d 803b cd70 8f3d
00000090: 77e8 2cbc 7ff4 bc3c 4f55 ffbc bc74 aebd
000000a0: aeab 9abc fe93 9cbd 514c 83bd 4a90 9dbc
000000b0: 0fbd 99bd 554a 01bd 2dd6 a1bd 2f5e b63c
000000c0: 5f42 2dbd c3ef 66bd bef9 25bc bfa4 993d
000000d0: c0cb 52bd 4e6b a0bc a2ce f0bd 5078 c4bb
000000e0: b776 58bc d387 3e3c ee14 71bd 47ae eb3c
000000f0: 0150 1abd 7b50 86ba 10ca 8bbd 4872 993d
00000100: 2c63 90bd eac4 8fbd 03cb 1a3e c89e e43b
00000110: f9cf 353d 3c3d 10bd 1bb3 2ebd 518d b1bd
00000120: ad53 2a3a 7672 a63c a8d4 13bd 5430 833b
00000130: a3bf c13c 8e2a 4a3d 2f24 9abd 857d 32bd
00000140: 7359 a9bd 8126 43bc 2203 bfbb 0751 173d
00000150: d73b debc 2621 43bc 075e 93bc 4df8 a33d
00000160: 4266 9fbc 0077 8bbc 41fa dfbc e158 103d
00000170: 844b 6e3d 5fd4 28bd 9089 003e d362 a4bd
00000180: 30ae 05bc da62 a7bd b1f4 0b3d dfa4 083d
00000190: 5688 75bd 4293 d7bc 0a6f 8ebc 6172 b5bc
000001a0: 185b f5b9 af5e 47bb 2e7f 0cbc e50b 32bd
000001b0: d0eb 6e3c 80d8 eb3d 1894 8e3c e8e6 b73d
000001c0: ee2a 1e3c fc8e 533d 3476 f3bd d679 633d
000001d0: db31 973c 5a67 05bc 776b 8dbc 40c3 bcbc

weight f4 [84, 120]
0.031322435 -0.023540862 -0.04933686 -0.040380098 -0.106486 0.06406798 -0.004689445 0.09016976
0.09485892 -0.011702421 -0.05672897 0.0458881 -0.0018360009 -0.047714926 0.015771326 0.013702498
-0.10927575 0.010965016 0.03697209 -0.021423107 -0.07853667 0.10212694 -0.017998254 -0.010080086
0.15712537 -0.074293554 0.0030171664 0.1149636 0.061474353 -0.16614048 -0.012642065 -0.042934775
-0.04902685 0.0039336965 -0.004281647 0.019424679 -0.08667371 0.030691708 0.04869913 0.042563614
-0.13001971 -0.034392495 0.028226737 0.10023295 -0.069076955 0.01144637 -0.0013843974 0.073935546
-0.10664295 0.033007104 -0.014543181 0.056870874 0.031626575 0.07993319 0.008892 0.044228744
0.08970093 -0.04205403 -0.057146676 0.05968247 -0.02962154 -0.04382398 -0.106086604 -0.14007689
-0.09707047 0.024998145 0.14612328 -0.030989036 -0.027453236 -0.011428811 -0.023724437 0.09133315
-0.053114537 -0.04861995 0.018406274 0.14372714 -0.12347325 0.10084493 -0.030428652 -0.024270678
-0.0030993288 -0.015279973 0.010146258 0.12228567 0.055864416 -0.091359645 0.06977517 0.026094763
0.091150664 -0.017319346 0.03839185 -0.16453516 -0.024408884 -0.06239275 0.063082196 0.11030563
-0.11525191 0.02349037 0.011013189 -0.10865476 0.029164022 0.024015585 0.1171233 -0.05492733
-0.11057666 -0.049214378 0.08583108 0.14131536 0.034778185 -0.11955957 -0.060642358 0.20960428
-0.008738249 -0.06788689 0.004924886 0.02826824 0.15040115 -0.01998 -0.057068177 0.0496875
-0.081490204 -0.10385016 -0.040797263 0.04975601 0.019193025 -0.10406168 0.096290275 -0.09918746
0.08570273 0.007423528 -0.12242441 0.11644993 0.03698189 -0.0032092643 0.0029083122 0.09235898
-0.0034252692 -0.07489765 -0.021602347 0.0889665 0.045957096 0.05011478 -0.0022888484 -0.012904536
-0.028210696 -0.039212577 -0.01462912 0.034391418 0.02685382 0.08810033 -0.119326055 -0.024483306
-0.082977176 -0.017519426 -0.08669486 0.023674333 0.035600714 0.06704961 0.08440759 -0.052453518
0.11402588 -0.035266124 -0.1004602 0.10292247 0.07967872 0.047230408 -0.011841382 -0.08962962
0.088963784 0.024666116 0.06817123 0.079262495 0.0576883 0.11503959 0.049322855 0.01291533
-0.00038702152 -0.052050382 0.030843787 0.01981492 -0.0033846335 -0.072643206 0.022318184 -0.11275888
0.02625255 -0.027550517 -0.0364565 -0.05352884 0.10542294 0.005729508 0.08569768 0.025765015
0.19847733 0.073643945 0.0014645885 0.07133083 -0.009965827 -0.032231603 -0.060773615 -0.06320937
0.052730367 -0.016869955 0.00042305543 0.09929351 -0.00482202 -0.01975166 0.02301632 -0.12943411
-0.06173898 -0.020285986 0.07651418 -0.07372224 0.002025913 0.022457885 0.087429754 0.025427684
0.018965406 -0.05253629 0.08638143 -0.094543956 -0.0038571737 -0.07667319 -0.04216251 0.115444414
0.07005854 -0.003944433 -0.020554746 0.001130497 0.016365 0.04200345 0.06577469 -0.0050267815
-0.0332308 -0.0073540895 -0.039486464 0.21460834 0.086904585 0.044259112 0.01746652 0.022381146
0.005993087 -0.056826286 -0.034327127 -0.101143844 -0.08921914 -0.03599652 -0.10247117 -0.08430496
0.04147467 -0.036346857 -0.0667057 0.09248302 -0.009679827 -0.089863196 -0.06621177 0.08495967
00000000: f44b 003d c4d8 c0bc 7315 4abd 9a65 25bd
00000010: 5515 dabd 1336 833d eaa9 99bb ecaa b83d
00000020: 6545 c23d 83bb 3fbc a35c 68bd 29f5 3b3d
00000030: f8a5 f0ba ba70 43bd de32 813c 7180 603c
00000040: f7cb dfbd 9ca6 333c 0c70 173d 837f afbc
00000050: d5d7 a0bd ee27 d13d 1371 93bc f226 25bc
00000060: 79e5 203e 3827 98bd a7bb 453b 0972 eb3d
00000070: 88cc 7b3d bb20 2abe aa20 4fbc 60dc 2fbd
00000080: 61d0 48bd 3de6 803b 0f4d 8cbb 8120 9f3c
00000090: fc81 b1bd 2d6d fb3c bd78 473d 2f57 2e3d
000000a0: e323 05be 25df 0cbd c23b e73c ef46 cd3d
000000b0: 3878 8dbd 8e89 3b3c ab74 b5ba 856b 973d
000000c0: 9e67 dabd 7532 073d 8646 6ebc 6ff1 683d
000000d0: de8a 013d 03b4 a33d c0af 113c 3329 353d
000000e0: 1fb5 b73d d940 2cbd a212 6abd 9b75 743d
000000f0: dfa8 f2bc c680 33bd ef43 d9bd 5170 0fbe
00000100: e2cc c6bd e9c8 cc3c 57a1 153e b8dc fdbc
00000110: 9ce5 e0bc e83f 3bbc c059 c2bc e00c bb3d
00000120: a18e 59bd b625 47bd c1c8 963c 352d 133e
00000130: 8bdf fcbd c987 ce3d 8245 f9bc 4dd3 c6bc
00000140: 1c1e 4bbb da58 7abc 7e3c 263c e970 fa3d
00000150: 16d2 643d c41a bbbd 49e6 8e3d afc4 d53c
00000160: 33ad ba3d 4de1 8dbc c640 1d3d e87b 28be
00000170: 24f5 c7bc 8a8f 7fbd 3d31 813d ebe7 e13d
00000180: 3209 ecbd e06e c03c aa70 343c 6386 debd
00000190: 63e9 ee3c 55bc c43c 57de ef3d 7bfb 60bd
000001a0: 0476 e2bd 0495 49bd 35c8 af3d f9b4 103e
000001b0: 9273 0e3d a6db f4bd 1f64 78bd 81a2 563e
000001c0: df2a 0fbc 4808 8bbd f060 a13b cc92 e73c
000001d0: c202 1a3e 19ad a3bc 52c0 69bd 1f85 4b3d
000001e0: 56e4 a6bd 65af d4bd 081b 27bd f5cc 4b3d
000001f0: b13a 9d3c 4a1e d5bd d633 c53d cc22 cbbd
00000200: ea84 af3d 1141 f33b a6b9 fabd 4d7d ee3d
00000210: 537a 173d 8552 52bb 6299 3e3b b426 bd3d
00000220: 7b7a 60bb f063 99bd 68f7 b0bc 1134 b63d
00000230: 823d 3c3d 2845 4d3d 8100 16bb 8c6d 53bc
00000240: 1e1a e7bc 5e9d 20bd faae 6fbc 04de 0c3d
00000250: 8bfc db3c f26d b43d 3861 f4bd 3791 c8bc
00000260: f0ef a9bd e684 8fbc 138d b1bd adf0 c13c
00000270: 0ed2 113d 4e51 893d e3dd ac3d 80d9 56bd
00000280: 6786 e93d 3673 10bd 14be cdbd 04c9 d23d
00000290: 992e a33d ac74 413d 5b02 42bc bc8f b7bd
000002a0: a532 b63d 9810 ca3c 5c9d 8b3d 6054 a23d
000002b0: 914a 6c3d e099 eb3d c306 4a3d d29a 533c
000002c0: 26e9 cab9 c832 55bd 1cac fc3c e652 a23c
000002d0: bad0 5dbb f6c5 94bd a0d4 b63c 21ee e6bd
000002e0: 960f d73c 9fb1 e1bc 6953 15bd 0f41 5bbd
000002f0: fbe7 d73d 99be bb3b 4482 af3d 2711 d33c
00000300: a43d 4b3e a3d2 963d 6ff7 bf3a e615 923d
00000310: b547 23bc 4905 04bd c1ed 78bd ea73 81bd
00000320: ccfb 573d dc32 8abc 8acd dd39 655a cb3d
00000330: 0902 9ebb 3cce a1bc b98c bc3c 608a 04be
00000340: 03e2 7cbd cc2e a6bc 77b3 9c3d b0fb 96bd
00000350: 2ec5 043b 99f9 b73c 5f0e b33d b84d d03c
00000360: 575d 9b3c 4b30 57bd bfe8 b03d 43a0 c1bd
00000370: a3c8 7cbb d506 9dbd 99b2 2cbd 1f6e ec3d
00000380: da7a 8f3d 4d40 81bb 6d62 a8bc 2f2d 943a
00000390: e40f 863c cf0b 2c3d e1b4 863d b3b7 a4bb
000003a0: 051d 08bd 93fa f0bb 8fbc 21bd 4ac2 5b3e
000003b0: 08fb b13d 0b49 353d f315 8f3c aa58 b73c
000003c0: a861 c43b aec2 68bd 9a9a 0cbd 8124 cfbd
000003d0: 86b8 b6bd 1671 13bd 68dc d1bd 14a8 acbd
000003e0: 58e1 293d 71e0 14bd ff9c 88bd bd67 bd3d
000003f0: 2398 1ebc 320a b8bd 099a 87bd 56ff ad3d

bias f4 [84]
-0.017567825 0.078900106 0.0031494673 0.1267765 0.035422977 0.044461936 -0.008383599 0.04002079
-0.06259853 0.10590154 -0.056094285 0.039450992 -0.05500581 -0.0642232 -0.0066988934 0.0832391
0.030623043 -0.06822479 -0.10970141 0.0811899 0.075161055 -0.09003346 -0.066919535 0.019698758
0.014906128 0.016252961 -0.03804102 -0.013713126 -0.09371017 0.09894596 0.02544729 0.13461329
0.08716331 -0.057357777 -0.11819964 0.033009823 -0.014814431 -0.055982787 0.13945124 0.076865576
-0.0064465497 -0.01796546 0.13290067 -0.06424968 0.039098218 -0.050958063 0.051263914 0.11965851
-0.034061484 -0.03550993 0.022911508 -0.041762315 -0.048820913 0.071173415 0.07939647 -0.09363622
0.027981162 0.09266673 0.015409395 -0.040609047 0.008301095 0.064714074 0.11888816 -0.052562106
0.017131582 -0.09495081 0.06200368 0.013845514 0.133812 -0.10440827 -0.08345388 -0.080427065
0.12464347 0.09051113 0.014179205 0.0036593478 0.09053153 0.039684054 -0.05452218 -0.015848298
-0.11354198 -0.0070213773 0.13332489 0.1263395
00000000: 66ea 8fbc 6196 a13d 4b67 4e3b b3d1 013e
00000010: af17 113d b81d 363d 5d5b 09bc d7ec 233d
00000020: a833 80bd e8e2 d83d 1fc3 65bd 5d97 213d
00000030: c64d 61bd 7487 83bd 6482 dbbb 4379 aa3d
00000040: 2ddd fa3c 70b9 8bbd 22ab e0bd e446 a63d
00000050: 0aee 993d 7663 b8bd 1c0d 89bd 4a5f a13c
00000060: d538 743c ee24 853c e7d0 1bbd 05ad 60bc
00000070: 1eeb bfbd 2ea4 ca3d d676 d03c 11d8 093e
00000080: ad82 b23d fdef 6abd a712 f2bd 4f35 073d
00000090: 3ab8 72bc 354e 65bd 4ecc 0e3e b36b 9d3d
000000a0: 943d d3bb 4d2c 93bc 1d17 083e 5695 83bd
000000b0: 7425 203d 67b9 50bd 1cfa 513d 850f f53d
000000c0: 0e84 0bbd dc72 11bd eab0 bb3c f60e 2bbd
000000d0: 70f8 47bd 5ec3 913d 9e9a a23d 59c4 bfbd
000000e0: c038 e53c 0ec8 bd3d b077 7c3c ac55 26bd
000000f0: 5101 083c d088 843d a37b f33d 5d4b 57bd
00000100: 8857 8c3c 9275 c2bd 92f7 7d3d 4bd8 623c
00000110: 0306 093e 01d4 d5bd dee9 aabd f2b6 a4bd
00000120: 1345 ff3d e65d b93d e54f 683c abd1 6f3b
00000130: 9868 b93d bf8b 223d a652 5fbd 4ad4 81bc
00000140: b388 e8bd 9513 e6bb 5286 083e 245f 013e

weight f4 [10, 84]
0.40158364 0.100154325 -0.056902993 0.020488214 0.29544124 -0.13542633 -0.07053972 0.0235545
0.27815902 -0.14934741 0.095754504 -0.27438578 0.13194992 -0.00246428 0.09300717 0.012280982
-0.032261167 0.01767751 0.0033277043 0.075717635 -0.00093597645 0.008565771 -0.16637209 0.14942458
0.064428315 -0.13001746 -0.026643278 -0.09160966 -0.12657808 0.307644 0.1418544 -0.07243079
0.17281155 0.07132712 -0.05096932 -0.09607605 0.28319898 -0.18813483 0.24067886 -0.17010224
-0.028849877 -0.045323525 -0.37295383 0.032572474 -0.12130687 0.20198081 0.03420231 -0.47248998
0.037576336 0.011756248 -0.043823324 0.067008555 -0.11616656 0.3722629 0.12637685 -0.0546043
0.14855449 -0.02439353 -0.027031083 0.022637405 0.088608585 0.19388607 0.37492537 0.004687001
-0.054490667 -0.052310042 -0.018849289 0.3984578 -0.30519292 -0.09709736 -0.23997556 0.0837193
0.18758143 0.016259518 -0.265238 0.029579738 -0.06999216 0.23738912 -0.029140042 -0.23550805
-0.07404835 -0.15056525 -0.07520844 -0.21122883 -0.022645775 0.13127588 -0.18775663 -0.10634933
-0.1830856 0.14910187 0.14055745 0.4035666 -0.21470518 0.23812771 0.078557156 0.13366932
-0.005222651 -0.2350782 -0.23125629 0.090214625 -0.032451596 -0.12134911 -0.061914958 -0.025593929
-0.12420421 -0.03378814 -0.1356834 0.17075297 -0.098780416 -0.16489327 -0.06155252 0.047472518
0.14539705 -0.035254996 0.31452152 -0.021504669 0.30394536 -0.10673894 0.12347376 -0.1793076
0.021822127 -0.133596 -0.20536987 0.12470789 -0.16172053 0.10056596 0.22516984 0.059093736
0.07585251 0.06809195 0.038204383 -0.0028983164 -0.07030141 0.031493295 -0.21453792 0.33425435
0.27041668 -0.021440681 -0.26083532 0.004868022 0.16038206 0.004764747 -0.010018084 -0.02351494
0.23387852 -0.23064454 0.2775346 -0.090578996 -0.09345299 0.14910606 -0.0574389 -0.021180138
0.08258968 0.11784251 0.12680364 0.11110171 -0.41281733 0.26510444 -0.20848684 -0.20476335
-0.109339185 -0.16007218 -0.03972794 -0.12069388 0.009405763 0.36011866 0.24811375 -0.38663802
-0.09646875 -0.07855993 -0.14198244 -0.2391841 -0.070494585 0.04383237 -0.077217065 -0.22599515
0.12544255 0.26827556 -0.039383892 -0.14222407 0.06759993 0.049769416 0.024055453 0.3210259
0.01706747 0.013284207 0.14068256 -0.030597104 0.29427364 -0.08192967 0.0047668084 -0.051797695
-0.1378903 0.118317336 0.0512549 0.006372735 -0.053118 -0.058171507 0.13338335 0.27014217
-0.09482089 -0.058911894 -0.04859881 0.07885266 -0.047217984 0.30483168 -0.2944793 0.098222606
0.28198463 0.09104536 -0.17112921 0.1285304 -0.084561795 -0.09953259 0.06176651 0.08534539
0.015064888 -0.022917112 0.09675764 -0.08710785 -0.22052856 0.035025127 -0.021778999 0.1704913
-0.1749195 -0.022523098 0.029690882 0.028658228 -0.22004625 -0.009211396 0.2068777 0.0056226854
0.17132212 -0.042570192 0.03623966 0.036933176 -0.2823581 -0.090010166 -0.22566688 -0.0851306
-0.31248736 -0.14914781 -0.33280462 0.5422591 -0.080445416 -0.09048176 0.12073887 0.26606232
0.13747954 0.2743919 0.24274658 -0.2830589 -0.18086113 -0.11555895 -0.010735189 -0.34064588
00000000: 5f9c cd3e b61d cd3d 1d13 69bd e6d6 a73c
00000010: 1344 973e 33ad 0abe 2177 90bd 5ef5 c03c
00000020: dc6a 8e3e 87ee 18be f01a c43d 4b7c 8cbe
00000030: e11d 073e c27f 21bb 8b7a be3d 2c36 493c
00000040: 4924 04bd 6dd0 903c 9d15 5a3b d911 9b3d
00000050: 515c 75ba 7357 0c3c 725d 2abe c202 193e
00000060: fef2 833d 4c23 05be 0143 dabc d89d bbbd
00000070: af9d 01be 8483 9d3e 4842 113e 9856 94bd
00000080: 83f5 303e f413 923d 35c5 50bd 85c3 c4bd
00000090: 75ff 903e 6ba6 40be 8574 763e 482f 2ebe
000000a0: 9456 ecbc 29a5 39bd cef3 bebe b76a 053d
000000b0: bc6f f8bd 0fd4 4e3e b917 0c3d 35ea f1be
000000c0: a5e9 193d 479d 403c 1680 33bd c83b 893d
000000d0: bce8 edbd 3e99 be3e ef68 013e c2a8 5fbd
000000e0: ab1e 183e f1d4 c7bc 4a70 ddbc 1472 b93c
000000f0: 6b78 b53d 128a 463e 38f6 bf3e 6a95 993b
00000100: 9b31 5fbd 0e43 56bd d369 9abc a902 cc3e
00000110: 3f42 9cbe fbda c6bd 27bc 75be 0675 ab3d
00000120: 5915 403e ae32 853c 46cd 87be 3551 f23c
00000130: 0d58 8fbd 2216 733e 19b7 eebc 0629 71be
00000140: a9a6 97bd c72d 1abe e206 9abd 5f4c 58be
00000150: a283 b9bc 2f6d 063e 4643 40be adcd d9bd
00000160: cb7a 3bbe 29ae 183e 4bee 0f3e 48a0 ce3e
00000170: addb 5bbe c0d7 733e 93e2 a03d 9ce0 083e
00000180: c622 abbb 57b8 70be 73ce 6cbe 72c2 b83d
00000190: f7eb 04bd e285 f8bd 8a9a 7dbd 5caa d1bc
000001a0: c75e febd 6f65 0abd 97f0 0abe ded9 2e3e
000001b0: 634d cabd c8d9 28be 7f1e 7cbd 8b72 423d
000001c0: f7e2 143e 8b67 10bd f708 a13e 8f2a b0bc
000001d0: ba9e 9b3e f299 dabd d0df fc3d 699c 37be
000001e0: 51c4 b23c 64cd 08be 7b4c 52be da66 ff3d
000001f0: 119a 25be 87f5 cd3d ec92 663e 460c 723d
00000200: 9058 9b3d cb73 8b3d 337c 1c3d aef1 3dbb
00000210: 30fa 8fbd 1dff 003d d4af 5bbe 6323 ab3e
00000220: 0e74 8a3e 5ea4 afbc 358c 85be ee83 9f3b
00000230: 323b 243e 9821 9c3b e422 24bc 67a2 c0bc
00000240: da7d 6f3e 152e 6cbe 0419 8e3e 7b81 b9bd
00000250: 4864 bfbd 42af 183e 0d45 6bbd f881 adbc
00000260: c724 a93d 6a57 f13d d0d8 013e 4b89 e33d
00000270: cb5c d3be c5bb 873e 937d 55be 7cad 51be
00000280: 39ed dfbd f6e9 23be c4b9 22bd 5a2e f7bd
00000290: a11a 1a3c 7961 b83e 8811 7e3e 6bf5 c5be
000002a0: 6891 c5bd 07e4 a0bd d863 11be adec 74be
000002b0: 775f 90bd 9289 333d fb23 9ebd 466b 67be
000002c0: 0374 003e 6a5b 893e 0151 21bd 30a3 11be
000002d0: d571 8a3d 04db 4b3d f10f c53c 825d a43e
000002e0: 14d1 8b3c 01a6 593c 170f 103e c7a6 fabc
000002f0: 09ab 963e beca a7bd e332 9c3b d229 54bd
00000300: 1d33 0dbe 5c50 f23d a8f0 513d 60d2 d03b
00000310: 4392 59bd 3f45 6ebd a595 083e 1350 8a3e
00000320: 7431 c2bd 994d 71bd 8c0f 47bd 817d a13d
00000330: a567 41bd e612 9c3e fec5 96be ef28 c93d
00000340: 4a60 903e fd75 ba3d 7f3c 2fbe 799d 033e
00000350: bc2e adbd bed7 cbbd e1fe 7c3d 90c9 ae3d
00000360: b8d2 763c abbc bbbc df28 c63d 9a65 b2bd
00000370: 3dd2 61be 8276 0f3d df69 b2bc 4595 2e3e
00000380: 191e 33be 5c82 b8bc 4b3a f33c a9c4 ea3c
00000390: ce53 61be 65eb 16bc bfd7 533e 813e b83b
000003a0: 116f 2f3e 155e 2ebd 0a70 143d 3e47 173d
000003b0: 3e91 90be 4057 b8bd 3815 67be f458 aebd
000003c0: 58fe 9fbe 34ba 18be 5e65 aabe 7ed1 0a3f
000003d0: 91c0 a4bd 804e b9bd f145 f73d 5239 883e
000003e0: 70c7 0c3e 187d 8c3e 8f92 783e 19ed 90be
000003f0: a933 39be 2caa ecbd a5e2 2fbc 2369 aebe

bias f4 [10]
-0.08319784 0.12710184 -0.09679728 -0.1310346 0.006703825 0.14863852 -0.10794374 -0.038906645
0.14913502 0.08588059
00000000: a163 aabd fc26 023e a73d c6bd ef2d 06be
00000010: c3ab db3b b234 183e 9c11 ddbd 935c 1fbd
00000020: dab6 183e 2ae2 af3d
