mnist_sample_cnn_server.pt (torch_old, 35209 bytes, 2 tensors)

weight f4 [10, 784]
000000 2a 91 b7 3c 20 5a 40 bc 9a d7 98 bc 1e da d9 bc
       0.022408087 -0.0117402375 -0.018657494 -0.026593264
000010 5d 3e 05 bd d4 e6 9a bb 54 86 b9 bb e4 9c a4 bb
       -0.032530177 -0.004727224 -0.005661765 -0.0050235856
000020 5c 1f b8 bc c8 d4 1b 3c 80 e9 1d 3b b0 bc 0f 3b
       -0.02247589 0.00951118 0.0024095476 0.0021932535
000030 c1 46 e3 bc a6 f9 bc 3c b0 0b 3f bb e8 d4 e3 3b
       -0.027743699 0.02306826 -0.0029151253 0.0069528706
000040 a0 6f e4 3b e6 d5 50 bc 7d 33 12 3d 18 14 32 bc
       0.0069713145 -0.01274631 0.035693634 -0.010869049
000050 a8 05 fb 3b f8 0a 33 bc a0 66 e1 ba 60 18 8b 3a
       0.0076605864 -0.010927908 -0.0017196722 0.0010612123
000060 7a 40 d4 3c 54 15 16 3c 9f a6 09 bd b8 15 9a bb
       0.025909651 0.009160358 -0.033606168 -0.004702296
000070 90 1f 4f 3c 6a b5 25 bc 50 ad 55 3b d3 f4 f4 bc
       0.012641802 -0.010114053 0.0032604523 -0.029901898
000080 3e 22 b3 bc 00 a0 96 bc b8 e8 8d ba 62 a9 ab bc
       -0.021866914 -0.01838684 -0.0010826802 -0.020954791
000090 62 33 a3 bc 52 e0 d4 bc 04 74 10 bd d3 67 86 bc
       -0.019921962 -0.02598587 -0.03526689 -0.01640693
0000a0 44 5f 63 bc ab 02 f7 3c 58 51 09 bd f2 47 05 bc
       -0.013877694 0.03015264 -0.03352484 -0.008134829
0000b0 e8 69 95 3c 8a 3c 99 3b 36 6d 0e bd e2 24 0e 3d
       0.018238977 0.0046764063 -0.03477212 0.034703143
0000c0 fe 4a 22 bb 36 0d 04 bd 6a 19 89 3c ee 94 ca bc
       -0.0024763937 -0.03223916 0.016735751 -0.024729218
0000d0 d8 70 99 3c d0 be 41 3c 35 9f 8d bc 09 bc 0e 3d
       0.018730566 0.011825278 -0.01728783 0.034847293
0000e0 f7 4a a4 bc d5 e3 d6 bc a4 b6 cf bb 11 6f 03 bd
       -0.020055277 -0.026231686 -0.006338911 -0.032088343
0000f0 fe 64 da 3a da ff 0f bd ae ec c1 3b 99 95 e9 3c
       0.0016662178 -0.03515611 0.005918107 0.028513717
000100 ec a3 44 bc 32 9c 00 3c 5d 52 88 3c dc 73 24 bd
       -0.012001973 0.00784974 0.016640836 -0.040149555
000110 e3 d6 ae bc 7f 57 11 bd 1a 2f 84 bd ec 47 81 bc
       -0.0213427 -0.035483833 -0.064542964 -0.015781365
000120 10 84 b8 3a f0 88 89 bc 88 02 6c bd 96 e0 da 3b
       0.0014077444 -0.01678893 -0.0576196 0.0066796048
000130 c4 0b 8e bc e3 e7 47 bb 34 76 0b 3c b5 70 58 bc
       -0.017339595 -0.0030503205 0.008512069 -0.013210465
000140 e7 c4 9b 3c 00 b1 ff 3b 2c 60 f0 bc 67 75 0a 3d
       0.019014789 0.0078030825 -0.029342733 0.03380337
000150 db 99 0a 3d 3c eb 69 bc b8 a9 c9 3c e6 35 63 3c
       0.033838134 -0.014277276 0.024617061 0.013867831
000160 f7 4c c2 bb 0b 52 e0 3c ae ff 82 3b 26 e1 69 bc
       -0.005929585 0.027382871 0.0039977646 -0.014274871
000170 20 aa 3b bc 12 71 89 bb 91 37 07 bd 45 26 b7 3c
       -0.011454135 -0.0041943872 -0.033011977 0.022357116
000180 bc 20 00 3c 35 0b 23 bd 6f 26 38 bd c8 fb c0 bd
       0.0078203045 -0.03980561 -0.044958528 -0.094230235
000190 29 ac de bd 6a 48 5e bd 8e 30 b1 bd dc 59 0f be
       -0.10872681 -0.05426828 -0.08651839 -0.13999122
0001a0 8c 99 49 bd 5c 06 8f bd 1f 13 87 bc 72 e9 c4 bc
       -0.0492187 -0.06983635 -0.01648861 -0.024037097
0001b0 0b a1 31 bd b2 5c fd bc c3 dd ee bc 4e b4 4f bc
       -0.043366473 -0.03092799 -0.029158479 -0.012677265
0001c0 e7 80 90 bc 8e 83 d5 3c 2e ba fa 3c ee 05 79 bc
       -0.01763959 0.026063707 0.030606356 -0.015199168
0001d0 e9 ea 0a 3d c4 2a 27 bd 9d ef a6 3c 52 29 36 3c
       0.033915434 -0.04081227 0.020377928 0.01111825
0001e0 27 d9 81 bc 70 9e 09 3d 0c 97 f5 bc bc 55 fe bc
       -0.015850617 0.033598363 -0.029979251 -0.03104674
0001f0 1a 91 46 bc 19 8b 46 bc 68 04 ea bb f2 b2 e5 3b
       -0.012119556 -0.012118124 -0.0071416385 0.0070098573
000200 ac 3f 85 bc ea e5 42 bc 4f 9a 78 bd 35 ac bd bd
       -0.016265713 -0.011895636 -0.060694035 -0.092613615
000210 62 cf b6 bd 72 59 ba bd 73 8d cd bc 10 17 2f bd
       -0.08926274 -0.090990916 -0.025091862 -0.042746603
000220 6d 47 29 bc e1 94 79 3c 5c c3 09 bd 9e b7 aa bc
       -0.010331971 0.015233249 -0.033633575 -0.020839509
000230 1c 3d 03 3c f9 a6 0a 3d 84 3e 4b 3c 55 60 01 3c
       0.008010175 0.033850644 0.012405042 0.0078965025
000240 d4 f9 40 3c 1d 63 f0 bc 50 97 e1 3c ff 0f 90 3a
       0.011778314 -0.029344136 0.027537972 0.0010991095
000250 88 23 e5 bc ea 6f 10 bc 39 1c 14 bc b8 bc f2 3c
       -0.027971044 -0.008815745 -0.009039932 0.029631004
000260 7a e0 bc 3d 82 1e 35 3d 80 5d e4 3d ea 14 38 3e
       0.09222503 0.044218548 0.11150646 0.17976728
000270 58 98 e6 3d 2f a4 e4 3d 02 df 17 3e bb 2f 6e 3d
       0.11259526 0.11164128 0.14831164 0.058150988
000280 70 0f fa bc 14 81 8f bc 26 0a 9e 3b 28 e2 99 bd
       -0.03052494 -0.017517604 0.004822987 -0.07513839
000290 84 18 25 bd 22 f4 71 bc fe 1a 4b 3c 70 fe d7 3b
       -0.040306583 -0.014767678 0.012396572 0.0065916106
0002a0 98 2f 9b 3b 70 91 d0 bc 06 e5 80 bc 72 6c 9b 3c
       0.004735898 -0.025459975 -0.015734207 0.01897261
0002b0 2c b2 01 bd 39 13 4e 3b 67 b9 a5 bc 52 51 b3 bd
       -0.03166406 0.0031444563 -0.020230008 -0.08755745
0002c0 b4 8d c6 bd a3 14 ae bd e4 dc 06 3a 46 7d e0 3d
       -0.096949965 -0.0850003 0.00051446096 0.10961394
0002d0 89 18 99 3d 00 48 b6 3d d8 16 ed 3d 46 c3 cd 3d
       0.07475383 0.08900452 0.11576623 0.10047011
0002e0 c0 17 16 3e 73 4e 67 3e 85 c1 22 3e 9d e1 ed 3d
       0.14657497 0.2258852 0.15894134 0.11615298
0002f0 a1 4b 2f 3d ee 3f c5 3d ea 8a ce 3d 5c cc 28 3c
       0.042796735 0.09631334 0.100850895 0.010302629
000300 9f 5c c0 bd 33 c9 32 bd 9a cd 58 bc eb b2 cd 3c
       -0.09392666 -0.04364891 -0.013232613 0.025109729
000310 60 bd 28 3b 5c c0 68 3c 61 e7 8e 3c 66 97 d8 ba
       0.0025747642 0.014206018 0.017444314 -0.0016524612
000320 b2 ff 04 bd f0 12 2b bd 70 47 93 bc 8d 3d 61 bd
       -0.032470413 -0.041766107 -0.0179784 -0.05499034
000330 15 cd d6 bd ec b5 1a 3d c7 01 38 3d 7d af 47 3d
       -0.10488335 0.03777115 0.04492357 0.048751343
000340 16 b9 a0 3b 25 0a 24 3e a7 1c 22 3e 4e 15 af 3d
       0.0049048765 0.16019495 0.15831243 0.085489854
000350 06 3a ea 3d 14 9b 30 3e ca ec f7 3d 02 be 69 3d
       0.11436848 0.17246658 0.12105711 0.05706597
000360 08 d5 0d bc 77 d6 83 3d 9a f1 91 3d bb ae 00 3d
       -0.008656748 0.0643739 0.0712616 0.031416636
000370 3d 95 3f bd 53 b7 08 be da 9e 51 bd 82 ef 1e 3c
       -0.046773184 -0.13351183 -0.051176883 0.009700658
000380 10 e3 63 3b 06 33 09 3d d3 d4 48 bc ef 77 18 bd
       0.003477279 0.033495925 -0.0122577725 -0.037223753
000390 78 ee ea bc df c9 a7 bd 8c 17 1f bd 2e d5 a0 bd
       -0.028678164 -0.08192801 -0.038840815 -0.07853161
0003a0 f1 1c 8c bd af 4c 35 bc 0f 9b 51 3d f8 1f 4f bc
       -0.06841458 -0.011065646 0.051173266 -0.012641899
0003b0 99 64 03 3d ae 11 02 bb 27 0a 29 3e 5f 21 2e 3e
       0.03207836 -0.0019846964 0.16507779 0.17004918
0003c0 61 1a 7c 3e bf 08 30 3e 3e bb 17 3e 6c a6 b3 3d
       0.24619438 0.17190836 0.14817521 0.08771977
0003d0 64 9b 8f 3c 01 ea 34 bc c1 c1 85 3d 17 f6 a5 3d
       0.01753015 -0.011042119 0.06531096 0.081035785
0003e0 75 ac 8b 3c 3a 46 e1 bd c6 ba 62 bd ae 7b 6b bb
       0.017050007 -0.10999723 -0.055353902 -0.0035931873
0003f0 3c 63 a3 3c 67 c8 b4 bb 9c 16 b1 bc 80 87 1f bd
       0.01994478 -0.005517054 -0.021617226 -0.038947582

bias f4 [10]
000000 50 b8 9f be 90 d6 8a 3e f4 6f d0 3d 65 66 29 be
       -0.31195307 0.27116823 0.10177603 -0.16542967
000010 80 15 1f 3e 78 e4 8c 3f a3 1b 5c bd f2 db c1 3e
       0.15535545 1.1007223 -0.053737294 0.37863117
000020 6a 69 97 bf 55 37 86 be
       -1.1829045 -0.2621409
