mnist_sample_cnn_server.pt (torch_old, 35209 bytes, 2 tensors)

weight f4 [10, 784]
000000 a8 89 18 3c 3e 76 ea bc 5e a5 08 bd a8 dc c3 3c
       0.009310164 -0.028620835 -0.03336083 0.023908928
000010 30 be d4 3c df cb 08 bd 0a 9a b8 bc 22 07 9e 3c
       0.025969595 -0.03339755 -0.022534389 0.01929051
000020 32 ee 53 bc 5e 64 e2 3c be 22 c5 3c 08 b3 de 3b
       -0.012935208 0.02763575 0.024064418 0.0067962445
000030 fc 55 d7 bc 5e 8f e8 bc e8 86 34 3c b3 89 ab bc
       -0.026286118 -0.028388675 0.011018492 -0.020939684
000040 b8 f3 5c 3c 18 40 17 bc 5c 9e ad bc e0 7b 8a 3a
       0.013485841 -0.00923159 -0.021193676 0.0010565482
000050 38 17 8f 3c 11 5e 02 3d c8 34 29 3c fc 54 93 bc
       0.017467126 0.03182799 0.010327525 -0.01798486
000060 e0 1b 58 bb 6e 23 c1 3c a8 d8 b3 3c c0 44 6c 3a
       -0.00329756 0.023576465 0.021953896 0.000901293
000070 1c 06 0c bc 38 eb dc 3b 2c 35 f9 bc d8 42 99 3b
       -0.008546378 0.0067419074 -0.030420862 0.004677158
000080 38 d6 98 3c e0 4f 7a 3b 98 b7 40 3c 50 ff aa 3c
       0.018656835 0.0038194582 0.011762522 0.020873696
000090 23 cc d0 bc 12 6a 50 bc c6 9a 94 bc 44 ee 0c bd
       -0.025487965 -0.012720602 -0.018140208 -0.034406915
0000a0 f0 8a b4 3c 23 0a bf bc 0d b5 ba 3c 81 bb f7 3b
       0.022038907 -0.023320263 0.02279141 0.007560194
0000b0 58 6b 9b 3c f0 24 8e 3c 22 70 1c bc 99 b7 bd bb
       0.018972084 0.017351598 -0.009548219 -0.005789709
0000c0 8a a1 8e 3c 35 e3 04 bd 10 41 b1 bc 6a d8 f5 bc
       0.017411012 -0.032443244 -0.02163747 -0.03001042
0000d0 94 9f 22 3c a8 cb 5c 3c 35 6d c0 bc 17 38 09 bd
       0.009925742 0.01347629 -0.023489574 -0.033500757
0000e0 20 b9 0d bd 10 a7 bd 3b c3 ba 0d 3d 2c 98 e6 bc
       -0.034600377 0.0057877377 0.034601938 -0.028148733
0000f0 6c d6 da 3c e0 17 c1 bc 84 18 ae bc 8b 5e 0b 3c
       0.026713572 -0.023570955 -0.021251924 0.0085064275
000100 58 f8 14 bd 6f ee 0d 3c 88 28 e1 3c c5 ce 29 bc
       -0.03636965 0.008662804 0.027485147 -0.010364239
000110 d5 15 f9 bc 62 a2 1b bc 99 02 fa bc 27 b6 1f bd
       -0.030405918 -0.009499164 -0.030518817 -0.038992073
000120 28 e2 bb 3c f7 c1 b9 bc 64 07 dc bc 1d 8e 97 bc
       0.022934988 -0.022675497 -0.026858993 -0.018500382
000130 a4 47 02 bd 69 9b 84 3c f9 2a a6 3c 45 d7 a4 3c
       -0.031806603 0.016187387 0.020284163 0.02012218
000140 90 87 a2 bc 97 fc 81 bc 24 16 04 3c 83 58 e4 bc
       -0.019840032 -0.015867515 0.008061919 -0.027874237
000150 00 75 bb ba 0e 0b a8 bc c6 50 09 bd e0 13 18 bc
       -0.0014301836 -0.020513084 -0.033524297 -0.009282082
000160 c7 8e dd bc dd 89 1a bd 7c 6d ee bc 64 60 2e 3c
       -0.02704562 -0.037729133 -0.02910494 0.0106430985
000170 4a 2a 1c bd b6 5c ae bc 85 61 45 bc e1 d7 68 bd
       -0.038126267 -0.021284442 -0.012047176 -0.056846503
000180 0a 51 fa bc 41 98 bf 3b 50 70 34 bc a0 b5 b8 bc
       -0.03055622 0.0058470075 -0.0110131055 -0.022547543
000190 03 66 5a bd 83 06 a8 bc 89 fb be bd 9a 5f 6b bd
       -0.053319942 -0.020510918 -0.0932532 -0.05746422
0001a0 95 de 45 bd b4 4e 02 bc fd 90 63 bb 1e ad 29 bc
       -0.048307974 -0.007953335 -0.003472387 -0.010356216
0001b0 66 f9 bd bc c1 ca 03 3c 40 cb 67 bc c6 f9 c7 3c
       -0.023190212 0.008043946 -0.01414758 0.024411093
0001c0 ba 70 ce 3c 87 6a 87 bc be 2b cc bc 90 6d 04 3d
       0.025200237 -0.016530288 -0.024923202 0.03233105
0001d0 0e c4 26 3a 46 fb e1 3c 3a 5e 76 3c bc e2 46 bc
       0.0006361612 0.027585637 0.015037114 -0.012139019
0001e0 a0 d5 6b bd 7e be 70 bc c5 5a c0 bd af dc e0 bd
       -0.057576776 -0.014693854 -0.09392313 -0.10979592
0001f0 3b bd 80 bc a8 88 42 3c 5c 08 b3 3d 20 e4 65 3d
       -0.015715232 0.011873402 0.08741829 0.05612576
000200 86 02 33 3c 22 f1 2b 3c 3b cb 74 bc 71 34 03 bd
       0.010925895 0.010494502 -0.014941032 -0.032032434
000210 cf de cb bd e1 4d ec bd 00 97 40 bd db 95 48 bd
       -0.09954607 -0.11538292 -0.047019005 -0.04897104
000220 ae 5b 2a bb 63 e3 a5 3c 6b 0e 91 bc 2b 78 a0 3c
       -0.0025994587 0.020250028 -0.01770707 0.01958855
000230 90 bb 52 3c ba dc bd 3c 74 52 6f bb 6e fd 0a bd
       0.012862101 0.02317654 -0.0036517652 -0.033933096
000240 7b 5e 4d bc 62 ad be 3c e6 70 7a bb 86 56 7d bc
       -0.012534733 0.023276035 -0.0038214265 -0.015462523
000250 39 1e 0a bd 60 9f fc bc ce 21 82 bd a9 89 27 bd
       -0.03372023 -0.030837715 -0.06354104 -0.040902767
000260 d3 6c a0 3d 7c 9d 51 3e 28 c8 1d 3e 66 a0 d3 3d
       0.078332566 0.20470232 0.15408385 0.10333328
000270 52 34 41 3e 5a a6 16 3e 85 c8 73 3d 92 58 66 3d
       0.18867615 0.14711896 0.059517402 0.05623681
000280 26 58 a8 3c f2 fc 18 bd 6b 17 be bd 5a 47 bc bd
       0.020549845 -0.037350602 -0.092818104 -0.09193297
000290 29 39 13 bc dc 1c a1 bc 3f 41 80 3b 0e e6 17 bc
       -0.008985796 -0.019667082 0.003914028 -0.009271158
0002a0 fb 50 0f 3d b0 ad a1 bc 89 e1 0a bd 6f 43 fc 3a
       0.03498934 -0.019736141 -0.033906493 0.0019246171
0002b0 12 9e 04 bd 0b b0 17 bc d8 ce 68 bd c4 5b 10 bd
       -0.03237731 -0.0092582805 -0.056837887 -0.035243765
0002c0 0b 79 69 bc cf be f1 bc 40 d7 9e bd 59 17 d8 bc
       -0.01425005 -0.02950993 -0.077558994 -0.02637832
0002d0 89 99 16 3e a4 fc 6f 3e 12 56 7f 3e dd de 81 3e
       0.14707007 0.23436219 0.24935177 0.25365344
0002e0 51 d8 53 3e f8 3e 43 3e ac 0f 0c 3e e8 ff d8 3d
       0.20687987 0.1906699 0.13677853 0.10595685
0002f0 2b 19 a2 3d 1d d5 83 3d 25 6a a1 3c 73 75 1e bd
       0.07914957 0.064371325 0.019703934 -0.038686227
000300 02 8a 2b 3b 58 c4 5b bd 2c 3a 97 bc 2c 38 e3 bc
       0.0026174788 -0.053654045 -0.018460356 -0.027736746
000310 d4 00 38 3c 50 50 4c bb 0d 03 07 3d 71 28 50 3c
       0.011230666 -0.00311758 0.032961894 0.0127049545
000320 32 45 f1 3b fe d5 9f bd 1b 74 18 bd 84 ee 73 bd
       0.007362985 -0.07804488 -0.0372201 -0.059553638
000330 0c 1c 83 bd 6c 48 51 bd be 71 24 bc bc 2d 3e 3d
       -0.06401834 -0.051094458 -0.010036884 0.046430334
000340 7b 5f 20 3e 1b 74 61 3e 40 7a 24 3e 18 7c 45 3e
       0.15661423 0.22016947 0.1606226 0.1928562
000350 02 54 94 3e 12 1c 42 3e d0 d6 04 3e 6b 24 3c 3e
       0.28970343 0.1895602 0.1297257 0.18373267
000360 28 03 4b 3e be 87 02 3d 39 ff 5b 3d da bb a0 3d
       0.19825423 0.031867735 0.053710196 0.0784833
000370 62 d4 56 bc 61 a1 26 bd 7e 2f a8 bc 71 0d 07 3d
       -0.013112159 -0.040681247 -0.020530459 0.032971803
000380 62 19 05 bd b5 3c a2 bc 78 01 35 bb 7f a5 85 bc
       -0.03249491 -0.019804338 -0.0027619284 -0.016314266
000390 f2 4f fe bb 79 3e be bd b4 5f 94 bd 1f 11 05 be
       -0.007760995 -0.092892595 -0.072448164 -0.12994812
0003a0 e5 18 0c be ea 5a 94 bc 4c 1a 80 3d ad 30 1e 3d
       -0.13681372 -0.018109757 0.06255016 0.03862064
0003b0 f9 a1 cb 3d d0 40 3f 3d 60 3c 12 3e 3d 8c 3d 3e
       0.09943003 0.04669267 0.14280844 0.18510528
0003c0 3f 60 8c 3e 11 11 37 3e 18 40 94 3d dd af be 3d
       0.2741718 0.17877604 0.072387874 0.09310887
0003d0 9d 19 ed 3d 09 03 05 3e be ca a9 3d ad 49 ff 3d
       0.11577151 0.12989439 0.08290623 0.124652244
0003e0 eb ce 35 3d b7 b9 ed bc f9 d9 13 bd 19 bb 01 bd
       0.044386785 -0.02901922 -0.036096547 -0.03167257
0003f0 44 7a 0f bc 1b 59 08 3c c3 b5 a0 bc f3 f4 e3 3c
       -0.008757178 0.008322026 -0.01961792 0.027826762

bias f4 [10]
000000 ac 77 66 be a0 73 88 3e 42 4a 36 3d 4d c6 7a be
       -0.22506589 0.26650715 0.04450441 -0.24489708
000010 73 35 0e 3e 8e 8a 28 3f dc 04 00 3e 3f 4b c2 3e
       0.13887577 0.6583642 0.12501854 0.37948033
000020 7a 83 71 bf 79 9c 73 be
       -0.9434124 -0.23790158
