mnist_sample_cnn_server.pt (torch_old, 35209 bytes, 2 tensors)

weight f4 [10, 784]
0	0x3c3fc5b0	0.011704847
1	0xbc535f32	-0.012901114
2	0x3ca71ce2	0.020399515
3	0xbc79e3c6	-0.015252059
4	0xbcc8d61c	-0.024516158
5	0x3bf8cd60	0.007592842
6	0x3cb4e446	0.022081506
7	0xbccbea2a	-0.024891932
8	0xbcb2c400	-0.021821976
9	0x3c8ce620	0.017199576
10	0xbca2deae	-0.019881573
11	0x3c3139f4	0.01081704
12	0x3cc26390	0.023729116
13	0xbb05db00	-0.0020424724
14	0xbb08c5e0	-0.0020869896
15	0x3c66b170	0.01408039
16	0x3c8b76d8	0.017024443
17	0xbce2f34c	-0.027703904
18	0x3cd13280	0.025536776
19	0x3b3e13a0	0.0029003397
20	0x3b18bf70	0.0023307465
21	0x3bc135f0	0.0058963224
22	0xbcc20be3	-0.023687309
23	0x3d0d86a3	0.034552228
24	0x3ba5efd8	0.005063992
25	0x3cfdef6a	0.03099795
26	0x3c175890	0.009237424
27	0xbb171650	-0.002305407
28	0xbbfc9e1c	-0.007709278
29	0x3c27395c	0.010206547
30	0xbb5dd680	-0.0033849776
31	0xbbdbeee4	-0.0067118276
32	0x3c8ffdd8	0.017577097
33	0xbcbf8fba	-0.023383964
34	0x3ca0358a	0.01955678
35	0x3c00869a	0.0078445915
36	0xbc7a8788	-0.015291102
37	0xb92af1e4	-0.00016302575
38	0x3be683a1	0.0070347344
39	0x3cffee58	0.03124158
40	0x3bb5c020	0.0055465847
41	0x3bbcaaa2	0.0057576457
42	0xbd0b0236	-0.033937655
43	0xbcbe419e	-0.023224648
44	0x3c0bf4a5	0.0085422145
45	0x3ce850e2	0.02835888
46	0xbd0f628b	-0.035006087
47	0xbd0c8e29	-0.034315262
48	0xbd0aafa4	-0.03385891
49	0x3cf65b14	0.030072726
50	0x3c9472c8	0.018121138
51	0xbcdc41dc	-0.026886873
52	0x3d096873	0.033546876
53	0xbc3fdb00	-0.0117099285
54	0xbcd67930	-0.026180834
55	0x3ce48f76	0.027900439
56	0xbb3a1d80	-0.002839893
57	0x3bd2d5c8	0.006434176
58	0xbcff4a73	-0.03116343
59	0xbcb407bb	-0.021976342
60	0x3b015e00	0.0019739866
61	0xbc165766	-0.009176111
62	0x3cb94608	0.022616401
63	0x3d0ca645	0.034338254
64	0x3cb287bc	0.021793239
65	0xbb7836d1	-0.003787447
66	0x3942df0f	0.00018584378
67	0xbd159d2d	-0.036526848
68	0xbc837ad6	-0.016049784
69	0xbcafd830	-0.02146539
70	0xbd2dd877	-0.042442765
71	0xbb852880	-0.004063666
72	0xbc889bfb	-0.01667594
73	0xbd2589c6	-0.040414594
74	0xbc94cc07	-0.018163694
75	0x3a8a23c0	0.0010539219
76	0xbcd8862b	-0.026431164
77	0xbce2a326	-0.027665686
78	0x3d037e02	0.032102592
79	0xbbbb2a9f	-0.005711868
80	0xbad97258	-0.0016589863
81	0xbbe96bf0	-0.007123463
82	0xbbe08338	-0.00685158
83	0x3c33d1e4	0.010975335
84	0x3ca070ea	0.019585092
85	0xbd07264c	-0.032995507
86	0x3cbd0420	0.023073256
87	0xbc7ac884	-0.015306596
88	0xbc1542c4	-0.009110156
89	0x3c8e2238	0.017350301
90	0x3c833041	0.01601422
91	0xbd0d4e77	-0.034498658
92	0x3c3eb17b	0.011638994
93	0xbcc4c18c	-0.024018072
94	0xbc08833b	-0.008332069
95	0x3b8237cc	0.0039739367
96	0xbd358ec0	-0.04432559
97	0xbc701132	-0.014652537
98	0xbd1fed0f	-0.039044436
99	0xbd3f4396	-0.046695314
100	0xbd2aae72	-0.04167027
101	0xbceab412	-0.028650317
102	0xbd930d44	-0.071802646
103	0xbd939428	-0.07205993
104	0xbb0b1fd9	-0.00212287
105	0xbc99fa1e	-0.018796023
106	0xbd1ea2eb	-0.03872959
107	0x3bfd17b2	0.007723772
108	0x3c641bc5	0.013922636
109	0x3ce24b0a	0.027623672
110	0xbcdce429	-0.026964264
111	0xbc82c0ae	-0.015961017
112	0xbb414af0	-0.002949413
113	0xb98a033a	-0.00026323815
114	0xbc9fb99a	-0.019497681
115	0x3cf37488	0.029718652
116	0xb82844ee	-4.0118517e-05
117	0xbc9a33a2	-0.018823449
118	0xbb2e6070	-0.0026607774
119	0x3a36f043	0.0006978551
120	0xbc0d7826	-0.008634603
121	0xbccde37d	-0.025132889
122	0xbca4da1d	-0.020123536
123	0xbd3e072e	-0.046393566
124	0x3cb7a33a	0.0224167
125	0x3c893366	0.016748141
126	0x3cb9bece	0.02267399
127	0x3c77f4b1	0.015134023
128	0xbd27424c	-0.04083471
129	0xbb6a0baa	-0.0035712519
130	0xbd95cd7c	-0.07314584
131	0xbd095bd6	-0.033534847
132	0xbc9c5663	-0.019084161
133	0xbd375aa9	-0.044764195
134	0xbbe91221	-0.007112757
135	0xbd2d5d19	-0.042325113
136	0x3ae34732	0.0017339943
137	0xbca703cc	-0.020387553
138	0x3c5ad18e	0.013355626
139	0x3bd90d68	0.0066239126
140	0x3d122e0b	0.03568844
141	0xbc81a3ac	-0.015825115
142	0xbca9dd99	-0.020735549
143	0x3cc97c05	0.02459527
144	0x3ca38b90	0.01996401
145	0xbcd3f95c	-0.02587574
146	0xbb7d0435	-0.0038607244
147	0xbd4814c6	-0.048847936
148	0xbd89a6f3	-0.06721296
149	0xbc2b4ba4	-0.010455046
150	0xbd29f7ca	-0.041496076
151	0x3bce1281	0.006288827
152	0xbc55f502	-0.013058903
153	0x3d9c6a09	0.07637412
154	0x3e1f7ee8	0.15575755
155	0x3e1373a1	0.14399578
156	0x3debb8b4	0.11509839
157	0x3e113983	0.14182095
158	0x3d6f5aa4	0.05843605
159	0x3cb0a64b	0.02156367
160	0xbcc88b5d	-0.024480516
161	0xbcf26fde	-0.029594358
162	0xbd14f219	-0.036363695
163	0xbd8c335c	-0.068457335
164	0xbd060974	-0.03272386
165	0x3b95659a	0.004559231
166	0xbd07cbed	-0.033153463
167	0x3c8682ab	0.01641973
168	0x3ccdd10e	0.0251241
169	0x3c28c734	0.0103014
170	0x3cf224ab	0.0295585
171	0x3cdbdf45	0.026839862
172	0xbcb0101c	-0.021492057
173	0xbbeed0ea	-0.007288088
174	0xbd3f7354	-0.046740845
175	0xbcf8b044	-0.030357487
176	0xbcfe8100	-0.031067371
177	0xbda768ef	-0.08174311
178	0xbba73481	-0.0051026945
179	0xbd28e19a	-0.041230775
180	0x3d1c4a6b	0.038156908
181	0x3da3df8e	0.08001624
182	0x3e00f040	0.12591648
183	0x3e1a9c98	0.15098798
184	0x3e3834b7	0.17988859
185	0x3e229d00	0.15880203
186	0x3de7d3d9	0.113197036
187	0x3de2cae4	0.110738546
188	0x3d18de21	0.037321214
189	0x3d56abbc	0.052409872
190	0x3d0197b6	0.031638823
191	0xbccc285d	-0.02492159
192	0xbd19c744	-0.03754355
193	0xbcb0470a	-0.021518249
194	0x3cd83e04	0.026396759
195	0xbce48f25	-0.027900288
196	0xbccdaca8	-0.025106743
197	0x3ca20121	0.019775929
198	0xbc86477e	-0.016391512
199	0xb912817a	-0.00013971879
200	0xbbec3d6f	-0.007209472
201	0xbc6c0045	-0.014404361
202	0xbd2c4fd2	-0.04206831
203	0xbda6dd33	-0.08147659
204	0xbda4748e	-0.080300435
205	0xbd1248eb	-0.03571407
206	0x3c93926a	0.018014152
207	0x3d1e5110	0.038651526
208	0x3d07409b	0.033020597
209	0x3d575e8f	0.052580412
210	0x3e111f53	0.14172105
211	0x3e16f310	0.14741158
212	0x3e238da4	0.15972
213	0x3e1e3147	0.15448485
214	0x3e1c77d2	0.15280083
215	0x3d900ab1	0.07033289
216	0x3d96e9f5	0.073688425
217	0x3d7861d4	0.06064017
218	0x3e02f3d2	0.12788323
219	0x3c1bf2ee	0.009518368
220	0xbd492c21	-0.04911435
221	0xbd2fbbca	-0.0429037
222	0xbceee5cb	-0.029162308
223	0xbc3af719	-0.011411452
224	0xbbcdf0e7	-0.0062848213
225	0xbc5966b2	-0.013269113
226	0xbcb2b098	-0.021812722
227	0x3c6a1239	0.014286571
228	0xbd223c2e	-0.039608173
229	0xbc45664c	-0.012048315
230	0xbd996dcb	-0.074916445
231	0xbd555375	-0.052081544
232	0xbd1e05d2	-0.03857977
233	0xbbc11587	-0.005892459
234	0x3c29f937	0.010374359
235	0x3b05edc2	0.0020435904
236	0x3d27ff62	0.041015036
237	0x3daf8514	0.085703045
238	0x3dfd12ba	0.123570874
239	0x3e0161fa	0.12635031
240	0x3e17797c	0.14792436
241	0x3e2b307e	0.16717717
242	0x3e28f722	0.16500524
243	0x3e06d749	0.13168062
244	0x3de58310	0.11206639
245	0x3d8f7827	0.07005339
246	0x3dfc12a8	0.12308246
247	0x3d90003f	0.07031297
248	0xbd910ae8	-0.07082158
249	0xbd29a826	-0.041420124
250	0xbc973fa3	-0.018462962
251	0x3c4d9ffb	0.012550349
252	0xbcf66c4c	-0.030080937
253	0xbb9f9b5c	-0.004870815
254	0xbcd8ac33	-0.026449298
255	0xbc9bb592	-0.019007478

bias f4 [10]
0	0xbe64b34b	-0.2233402
1	0x3e5288ba	0.2055997
2	0xbd3cf555	-0.046132404
3	0xbdd575a0	-0.10422826
4	0x3daed943	0.08537533
5	0x3f0083a4	0.5020087
6	0x3c3cbebf	0.011520087
7	0x3e673720	0.22579622
8	0xbf2497ae	-0.64293945
9	0xbddb99a6	-0.107226655
