mnist_sample_cnn_server.pt (torch_old, 35261 bytes, 2 tensors)

weight f4 [10, 784]
00000000: e40c 9ebb 48a2 d9bb aef9 c03c 60bd 10bc
00000010: 33cd ebbc 2877 00bd b644 de3c b8ca ccbb
00000020: 20e1 faba 8016 733a 0821 703c 82c8 863c
00000030: 7352 8bbc ea18 c23c 8a69 4cbc e66f b03c
00000040: 0044 033b 4ed5 46bc ba75 a2bc 667e cd3c
00000050: fe7b e33c 9de8 0a3d a005 06bd 00e6 0d39
00000060: 433a a1bc 002c 2438 82fd af3c 20aa f23a
00000070: 9e99 a3bc 2c9e cc3c 7806 51bc b050 4d3c
00000080: c00c 333c 2f61 103d 8aeb 43bc d0f1 3f3b
00000090: 407d d43a 50ac 76bb 82c4 e43c f3c6 06bd
000000a0: 14f4 cbbb 9c8f 93bb fc8e bf3c 80e2 423b
000000b0: 78f0 cbbb 0578 b0bc 10f9 95bc a839 803b
000000c0: f7dc 0a3d fc00 e8bc ee2a 13bc 73e0 113d
000000d0: 6ecb e13c a425 debb f8f2 13bc 3032 78bb
000000e0: de27 8e3c 00cb edb9 400b 9bba 9676 d53c
000000f0: 7013 173c a03a 2a3c 3070 483b 8df0 11bd
00000100: 8beb 063d 484b e3bb 6878 e1bc 2ecb 2dbc
00000110: b8b2 903c e8b8 c83b 7c8d 1c3c 032a b7bc
00000120: f8e9 48bc 4a2f 06bc 5891 e2bc 806e c93c
00000130: 64fd 05bc 260d 31bc 15bf 89bc 40dc d3ba
00000140: 9c7c b7bb 6446 253c 102e 1fbb d8c3 03bd
00000150: a499 813c e843 b1bc c046 4d3a 1e00 b83c
00000160: 6ec2 0dbd 5062 33bb 1c94 373c dc02 56bc
00000170: 3514 acbc 10da ba3b 456f acbc d11c 023d
00000180: 5a3c bdbc c8fe a33b 5ce9 343c 0864 493c
00000190: be05 fe3c 8832 a8bc 70e8 21bb 2af5 22bc
000001a0: d061 7ebb 80f8 ca3b f062 2cbb 610a 033d
000001b0: 2017 f93b 20f3 603c e1cd f1bc a04a 06bb
000001c0: c0f6 b4ba 30c5 543c aae3 cb3c c476 6d3c
000001d0: 80c6 993c dc51 e5bb 678f a0bc b565 bdbc
000001e0: 5044 513c 8483 5b3c f0b0 c4bb d670 dc3c
000001f0: c767 113d 3a83 c8bc 4066 aaba 81df 083d
00000200: 65b8 0fbd 5c94 adbb f8fa af3c a08c 99ba
00000210: c019 02bd b0d5 a03c e02f 5b3c 1cd8 393c
00000220: 5e45 92bc 83b0 a7bc b0de ce3c 3e26 ecbc
00000230: a6c8 a83c 145f b0bb 58e0 4dbc 2eb6 02bc
00000240: ee80 31bc 0056 6fba bc04 ac3c 9266 0ebd
00000250: a59b 9abc 60f3 e0ba 3a00 ba3c 125f 6fbc
00000260: 00ce 36b9 4e8c c63c 9c00 2fbc 644b 573c
00000270: 5ccc 33bc 2a52 d2bc 8030 4fbc aa8e cb3c
00000280: 98df 0abd febf ff3c 6687 e13c 5a54 953c
00000290: da9f f43c 85e0 d4bc 9352 d9bc ca5a 1bbc
000002a0: 2ec8 953c 885b cd3c b279 e53c 1efa c43c
000002b0: 581a 973c e231 0abd 2eda d33c 4314 043d
000002c0: 7cf0 b1bc 757b ecbc b5d0 f6bc b8e0 d73c
000002d0: 9c91 073c e0df 583c a03e d23b 386e b63b
000002e0: 52ef 19bc 9ccf 96bb 8a58 07bd ae48 bdbc
000002f0: 0223 ab3c 62d5 c53c 64d7 cebb 88c6 ce3b
00000300: 4e2e cbbc 18de 513c be6c a23c 66bb e23c
00000310: c09b 30ba a55c bfbc 5c87 efbc a47c 483c
00000320: 7bea 063d fc9c b4bc 8af7 b03c a3a9 aebc
00000330: dc8e 9fbc d1d5 fbbc 7a85 b23c 2e79 f7bc
00000340: 3e97 f43c c3f9 0cbd 7aee b13c 881b da3c
00000350: f6a7 02bd 0ee8 a1bc d385 ccbc b9c4 0e3d
00000360: 1cfc a73c d689 cb3c a251 e63c 0a10 81bc
00000370: 202a 4fbc e07e 99bc 683c 8f3c 1c65 743c
00000380: 6ad4 c63c 46d2 21bc e062 c53c 600b 11bd
00000390: 8698 9c3c 1613 12bd 2e30 05bc 809f 0c3c
000003a0: 9c82 f1bc 88da 4c3c 15de eabc 3029 743c
000003b0: f872 563c 9e0f b9bc e768 8dbc ea6b 43bc
000003c0: 0070 c53a 6e76 9f3c 607a bbba 8a54 813c
000003d0: 6a7a 06bd f2f5 dc3c b2dd ae3c 33dd 0cbd
000003e0: 6015 ecba 3885 a13c 5bcd 07bd 7cbb 3c3c
000003f0: 8a5f 8a3c 80be 8fbc 6630 f53c 007e f938
-0.004823314 -0.00664166 0.023556557 -0.008834213 -0.02878437 -0.031363636 0.027132373 -0.006249752
-0.0019140579 0.0009273067 0.014656313 0.016453031 -0.017007088 0.02369352 -0.012476334 0.021537732
0.0020029545 -0.012135817 -0.019831527 0.025084686 0.027769085 0.033913244 -0.03272021 0.0001353249
-0.019681102 3.9141625e-05 0.021483187 0.0018513836 -0.019970711 0.024977766 -0.01275789 0.012531444
0.010928333 0.03524893 -0.011958012 0.0029288419 0.0016211644 -0.0037639327 0.027925733 -0.032904577
-0.0062241647 -0.0045032036 0.02338361 0.0029737055 -0.0062237345 -0.021541605 -0.018307239 0.003913123
0.033902135 -0.028320782 -0.008982403 0.035614442 0.027562823 -0.0067793895 -0.009030096 -0.003787171
0.017352995 -0.0004535541 -0.0011828914 0.026057523 0.009220943 0.010389954 0.0030584447 -0.035629798
0.032939475 -0.0069364645 -0.027523234 -0.010607524 0.017663345 0.006125558 0.009555217 -0.0223589
-0.012262814 -0.0081899855 -0.027657196 0.024588823 -0.008178089 -0.0108063575 -0.016814748 -0.0016163662
-0.0055995714 0.010087583 -0.002428893 -0.032169193 0.015820332 -0.021638826 0.0007830672 0.022460993
-0.03460925 -0.0027371831 0.011204746 -0.013062205 -0.02100573 0.0057022646 -0.021049151 0.031765763
-0.023100067 0.0050047375 0.011041965 0.012291916 0.031008597 -0.020531908 -0.0024705194 -0.009946147
-0.0038815625 0.0061941743 -0.0026304089 0.03199232 0.0076016337 0.0137298405 -0.029517116 -0.0020491257
-0.0013806447 0.012986466 0.024888832 0.014493648 0.01877141 -0.006998284 -0.01959963 -0.023119787
0.012772635 0.013398055 -0.006002538 0.026909273 0.03549936 -0.024476636 -0.0013000444 0.033416275
-0.03508796 -0.005297227 0.021481976 -0.0011714883 -0.03176284 0.019633144 0.0133781135 0.011343028
-0.017855342 -0.02046991 0.02525267 -0.028826829 0.02060349 -0.005382428 -0.012565695 -0.007978005
-0.010833962 -0.00091299415 0.020998351 -0.034765787 -0.018873045 -0.0017162375 0.022705186 -0.014610069
-0.00017433614 0.024236824 -0.010681298 0.013140533 -0.010974016 -0.025673945 -0.012645841 0.024848301
-0.033904642 0.031219479 0.027530383 0.018228699 0.02986138 -0.025985966 -0.026528632 -0.009482095
0.01828393 0.02506806 0.02801213 0.024045046 0.018445179 -0.03373898 0.025860872 0.032245886
-0.021721117 -0.028867463 -0.030128816 0.026352271 0.008274462 0.01323697 0.006416157 0.0055673383
-0.009395437 -0.0046023857 -0.03304342 -0.023105945 0.020890716 0.0241496 -0.0063122977 0.006310288
-0.024802353 0.012809299 0.019827243 0.02767725 -0.0006737076 -0.023359606 -0.029239349 0.012236748
0.03293846 -0.022047512 0.02160241 -0.021321123 -0.0194773 -0.030741604 0.021792162 -0.03020915
0.029857274 -0.03441788 0.02172016 0.026624456 -0.03189846 -0.019763973 -0.024966156 0.034855578
0.020505957 0.024845999 0.028115097 -0.015754718 -0.012644321 -0.018737257 0.017484859 0.0149166845
0.024271209 -0.009876793 0.024094999 -0.03541124 0.019115698 -0.035662733 -0.008129163 0.00858295
-0.029481225 0.012503274 -0.02867035 0.014902398 0.013088934 -0.022590455 -0.017261935 -0.011927584
0.0015063286 0.019465651 -0.0014303438 0.015787382 -0.032831587 0.026972745 0.021345947 -0.03439064
-0.0018011741 0.019716844 -0.033154827 0.011519309 0.01689126 -0.017546892 0.029930305 0.000118967146

bias f4 [10]
00000000: 5016 6abb f025 b1bc da78 9c3c 26e6 dd3c
00000010: e477 003c 3811 9fbb 00bb a5b9 d59d c6bc
00000020: 1861 2b3c 30d7 5d3b
-0.0035718866 -0.021624535 0.019100595 0.027087282 0.007841084 -0.0048543476 -0.00031610578 -0.024245182
0.010460161 0.0033850186
