mnist_sample_cnn_client3.pt (torch_old, 141069 bytes, 10 tensors)

weight f4 [3, 1, 5, 5]
0	0xbd867975	-0.06566135
1	0xbe0c1adc	-0.13682121
2	0xbe50a328	-0.20374739
3	0xbdb5044b	-0.088387094
4	0xbe04f25a	-0.12983075
5	0xbe713d78	-0.23558605
6	0xbe61045f	-0.21974324
7	0xbe27e3a1	-0.16395427
8	0xbd199acf	-0.037501153
9	0x3d49ceed	0.049269605
10	0x3decb878	0.11558622
11	0x3d1a7689	0.0377107
12	0xbe5dfd71	-0.21678711
13	0xbe40b731	-0.18819882
14	0xbe60088a	-0.21878257
15	0xbda21beb	-0.07915481
16	0xbce5df62	-0.028060619
17	0xbe3baddd	-0.18328042
18	0x3e0ad70c	0.13558596
19	0x3d742b1e	0.059611432
20	0xbd818cb9	-0.06325669
21	0x3e4be053	0.19909792
22	0x3d207bce	0.03918057
23	0x3e1e9aba	0.15488711
24	0x3e4517bf	0.1924734
25	0xbd1d8ad2	-0.038462467
26	0xbe259679	-0.16170682
27	0x3d5217f1	0.051292364
28	0xbd3a4052	-0.045471497
29	0xbe90781d	-0.2821664
30	0xbe8bd967	-0.27314302
31	0xbe23753b	-0.15962689
32	0x3e4f7b9e	0.20262
33	0x3e63c56e	0.22243282
34	0x3e57d3ef	0.2107694
35	0xbdc7aabd	-0.097493626
36	0x3db66342	0.08905651
37	0x3f04e988	0.5191884
38	0x3f295a74	0.66153646
39	0x3ef70f95	0.48254076
40	0x3dfeb13c	0.124361485
41	0x3ec75139	0.38929155
42	0x3eeb2695	0.45927873
43	0x3da690e0	0.081331015
44	0xbcd33f98	-0.02578716
45	0x3d687705	0.05675413
46	0x3e50b1c1	0.20380308
47	0xbe401ae9	-0.18760265
48	0xbb77cf4b	-0.0037812765
49	0xbf03c7b6	-0.5147661
50	0x3e280552	0.1640828
51	0x3ecb60c3	0.3972226
52	0x3ea61468	0.32437444
53	0x3f02be42	0.5107156
54	0x3de817ee	0.11332689
55	0xbd08a88c	-0.033363864
56	0x3e81dd4c	0.2536415
57	0x3ef9b6ea	0.48772365
58	0x3f3b70eb	0.73219174
59	0x3e41f5f7	0.18941484
60	0xbefd3913	-0.49457607
61	0xbe844050	-0.25830317
62	0xbdc3a05c	-0.095520705
63	0x3e863843	0.262148
64	0x3ed8070e	0.42192882
65	0xbed6bd63	-0.41941366
66	0xbeea176b	-0.45720991
67	0xbeab7d0b	-0.33493838
68	0x3d1562b9	0.036471102
69	0x3e9df31d	0.30849543
70	0xbefcd424	-0.493806
71	0xbe5fa254	-0.21839267
72	0xbe79aba6	-0.24381885
73	0xbdb45439	-0.08805127
74	0x3e5171c6	0.20453557

bias f4 [3]
0	0x3e860db2	0.26182324
1	0xbe9411f7	-0.28919956
2	0xbecfc2c4	-0.40578282

weight f4 [10, 3, 5, 5]
0	0xbdf70fc8	-0.12063557
1	0xba08ac6a	-0.000521368
2	0x3dae49a6	0.08510141
3	0xbdd09c89	-0.10186107
4	0x3dab2071	0.08355797
5	0xbdd9d519	-0.10636348
6	0xbcb8c582	-0.022555117
7	0xbdcb38ac	-0.09922919
8	0x3c955e05	0.018233309
9	0x3d37fc23	0.04491819
10	0xbe029fb4	-0.12756234
11	0xbce82337	-0.028337104
12	0x3d9a2cab	0.07528051
13	0xbd63016d	-0.05542128
14	0xbd148931	-0.03626365
15	0xbc97ff1c	-0.018554263
16	0x3cf86dd6	0.030325811
17	0x3c98ce20	0.018652976
18	0xbdf20e78	-0.11819166
19	0xbdef15b7	-0.11674064
20	0x3d932112	0.07184042
21	0xbd4d5d01	-0.050137524
22	0xbd95bff0	-0.07312
23	0x3d9370d9	0.07199258
24	0xbdb6b938	-0.089220464
25	0xbbf830b9	-0.0075741676
26	0xbe15f0d5	-0.14642651
27	0x3dcd452e	0.100229606
28	0x3d996a70	0.074910045
29	0xbe29ae57	-0.16570412
30	0xbd2884c8	-0.041142255
31	0xbd8c8cd4	-0.06862798
32	0x3d7fa6d8	0.062414974
33	0xbdbc5df2	-0.09197606
34	0xbd0da360	-0.034579635
35	0xbb0d6db2	-0.0021580276
36	0xbe3e08ac	-0.18557996
37	0xbe05e29c	-0.13074726
38	0x3d86193b	0.06547781
39	0x3b8cb899	0.0042944667
40	0xbea24ba5	-0.31698337
41	0xbe32fa62	-0.17478326
42	0xbe8149ac	-0.2525152
43	0xbcd3c204	-0.02584935
44	0x3d959d9f	0.073054545
45	0x3c3108bf	0.010805308
46	0xba4dc7de	-0.0007849912
47	0x3dcb0e64	0.09914854
48	0xbd6d3e89	-0.057920966
49	0xbdb59ebe	-0.08868168
50	0x3d073e2e	0.033018284
51	0x3c6de674	0.014520276
52	0x3ca0cb87	0.0196283
53	0xbe3972df	-0.18110226
54	0xbe555a5f	-0.20835255
55	0xbdf98ac8	-0.121846735
56	0x3dc9ca3a	0.09853025
57	0x3e9bfb9d	0.30465403
58	0x3e76c761	0.24099495
59	0xbe60d352	-0.21955612
60	0x3e46c7d2	0.19412163
61	0xbdafc290	-0.08582032
62	0x3e3a3b25	0.18186624
63	0x3ec1584c	0.37762678
64	0x3dbfdfb4	0.0936884
65	0x3e154f43	0.14581017
66	0x3bf1b870	0.007376723
67	0xbcf5e97a	-0.030018557
68	0x3e8952da	0.26821023
69	0x3e362db3	0.1779087
70	0xbe1565d0	-0.1458962
71	0xbe3a93a9	-0.1822039
72	0xbe9736fb	-0.29534134
73	0xbe89906c	-0.26867998
74	0xbe4f4873	-0.20242481
75	0xbd859cb4	-0.065240294
76	0x3c69e5b1	0.014275954
77	0xbc6ffa92	-0.014647143
78	0xbd4679c2	-0.04845596
79	0x3dc76f00	0.097379684
80	0x3d0e1ccd	0.034695435
81	0x3dd756bf	0.105145924
82	0xbdca0a38	-0.0986523
83	0x3d79fef7	0.06103417
84	0x3d5673be	0.052356474
85	0xbdcfa7ca	-0.10139425
86	0xbd99dcb2	-0.075127974
87	0x3bf2632f	0.0073970775
88	0x3db12ea5	0.08651475
89	0x3dcb5479	0.09928221
90	0x3da1ee77	0.07906812
91	0x3cff6f4e	0.031181004
92	0xbd16158b	-0.03664164
93	0x3cdf6297	0.027268691
94	0xbdf5adaf	-0.11996018
95	0x3c82c993	0.015965259
96	0xbce665fa	-0.028124798
97	0xbdfffd55	-0.12499491
98	0x3d2f283c	0.04276298
99	0x3cbddd46	0.0231768
100	0xbd8115a0	-0.06302953
101	0xbd5bf5fa	-0.05370138
102	0x3da46d66	0.080286786
103	0xbcb7f75a	-0.022456814
104	0x3dc39e26	0.09551649
105	0x3c3fbc2c	0.0117025785
106	0xbc84b39d	-0.016198928
107	0x3ca15b86	0.019696962
108	0x3df64210	0.12024319
109	0x3cd57086	0.026054632
110	0x3a148e0b	0.0005666918
111	0xbcf7d843	-0.030254489
112	0x39c6df68	0.00037931954
113	0x3c8c05a8	0.01709254
114	0x3cb5c982	0.022190813
115	0xbdc343cd	-0.09534416
116	0xbd280ad3	-0.041025948
117	0x3e0f66c3	0.14004044
118	0xbd883c94	-0.06652179
119	0xbc86402f	-0.016388027
120	0x3dc99d0d	0.09844408
121	0xbd7884e6	-0.060673617
122	0x3d580d3b	0.052746993
123	0xbd842218	-0.06451815
124	0x3d82d3e9	0.06388075
125	0x3c8666b9	0.016406404
126	0xbd81b0a5	-0.063325204
127	0x3da8efa3	0.08248832
128	0x3d39b743	0.045340788
129	0xbd5527f0	-0.05204004
130	0xbd94895a	-0.0725276
131	0xbd8b1582	-0.06791212
132	0xbdc4eb98	-0.096152484
133	0xbd9ba423	-0.07599666
134	0xbdbd58e8	-0.09245473
135	0xbdee6628	-0.116405785
136	0x3c0b7413	0.008511561
137	0xbd0a44b7	-0.033756938
138	0xbc66b384	-0.014080886
139	0x3d44e168	0.048066527
140	0xbde2b006	-0.1106873
141	0xbd590009	-0.05297855
142	0x3d8becb6	0.068322584
143	0xbc40b19d	-0.011761096
144	0xbded0b07	-0.11574369
145	0xbd694a6e	-0.056955747
146	0x3d6da4c5	0.058018465
147	0x3dfda062	0.12384106
148	0xbdd20afc	-0.10256001
149	0xbcd1b914	-0.025600947
150	0xbd3f35e8	-0.04668227
151	0xbe079f47	-0.13244353
152	0xbb7e4d47	-0.0038803385
153	0xbdc05b26	-0.09392385
154	0xbd0735e7	-0.03301039
155	0x3af4f1a7	0.0018687741
156	0xbdd395d6	-0.10331313
157	0x3cd18878	0.025577769
158	0xbd55d2b0	-0.05220288
159	0x3d8482f0	0.06470287
160	0x3da5b560	0.08091235
161	0x3dbc2d9b	0.09188386
162	0x3cf405a3	0.029787844
163	0xbdb0da16	-0.086353466
164	0xbdb729da	-0.089435294
165	0xbd8e70fd	-0.069551446
166	0x3cc05717	0.023479028
167	0xbd9775a2	-0.073954836
168	0xba673d5a	-0.0008821093
169	0xbd220162	-0.0395521
170	0xbd3515ff	-0.04421043
171	0xbdd12716	-0.10212533
172	0xbe0a4ace	-0.13505098
173	0xbdaea885	-0.08528236
174	0xbc869f08	-0.016433254
175	0x3d719fe1	0.058990363
176	0x3deeeb6b	0.11665996
177	0x3d843a25	0.06456403
178	0xbe4171cd	-0.18891068
179	0xbe1622de	-0.14661738
180	0xbe249f3f	-0.16076373
181	0xbe2c79c7	-0.1684333
182	0xbedce92b	-0.43146643
183	0xbf277f30	-0.6542845
184	0xbd8a3189	-0.06747729
185	0xbce46e45	-0.027884612
186	0xbc135897	-0.008993289
187	0x3d6f307d	0.05839585
188	0x3f273082	0.6530839
189	0x3f15852d	0.58406335
190	0x3e1d94a0	0.15388727
191	0x3e5a5c7e	0.21324345
192	0x3e9bbeec	0.304191
193	0xbcc19162	-0.023628894
194	0x3c9c8914	0.019108333
195	0xbe0a3acd	-0.13498993
196	0xbead335e	-0.33828253
197	0xbe29e815	-0.16592439
198	0xbdfdfa73	-0.12401285
199	0xbeb64d24	-0.3560573
200	0xbe55a496	-0.20863566
201	0x3dbedb00	0.09319115
202	0xbd06c00b	-0.03289799
203	0x3b682e29	0.0035427904
204	0x3d0e9732	0.03481216
205	0xbeb25a97	-0.3483474
206	0xbe71a6f3	-0.23598842
207	0x3d34b7b1	0.044120494
208	0xbdb8f7dd	-0.09031651
209	0xbddeeb72	-0.108847514
210	0xbd7422c8	-0.059603482
211	0xbe85dd32	-0.2614532
212	0xbf147de9	-0.58004624
213	0xbebedfec	-0.37280214
214	0xbddb81d4	-0.10718122
215	0x3e5d893b	0.2163438
216	0xbb20d9b5	-0.0024543826
217	0x3df01c81	0.11724187
218	0x3c7bbad4	0.0153643675
219	0x3e95bbfe	0.2924499
220	0xbd99a646	-0.07502417
221	0x3e5bd597	0.21468197
222	0x3e7355fc	0.23763269
223	0xbd01bf5c	-0.031676635
224	0xbec5aece	-0.38609928
225	0xbcea6700	-0.028613567
226	0xbd2f7896	-0.04283961
227	0xbdfb87e1	-0.12281776
228	0xbd2d437b	-0.042300683
229	0xbc1eab3a	-0.009684378
230	0x3d58732a	0.052844204
231	0x3d8e4b8e	0.06948005
232	0xbde0f464	-0.10984114
233	0x3d077e5a	0.033079483
234	0xbdfe8a52	-0.12428726
235	0xbe08d45b	-0.13362257
236	0x3dac7087	0.084199004
237	0x3c9a0ccd	0.018804932
238	0xbe1ce56f	-0.15321897
239	0xbe04a79a	-0.1295456
240	0x3d04cbfb	0.032421093
241	0x3dd91dc7	0.10601383
242	0xbd49f20c	-0.0493031
243	0x3d72e412	0.059299536
244	0xbdb7025e	-0.089359984
245	0x3db60675	0.0888795
246	0x3de94b47	0.11391311
247	0x3d218c53	0.039440464
248	0x3baaa1ab	0.0052072606
249	0xbe5e8535	-0.21730502
250	0x3da9e6e7	0.08295994
251	0xbd35c153	-0.04437382
252	0xbd34f977	-0.04418322
253	0x3dd6d5d4	0.10490003
254	0x3d27a3e1	0.04092777
255	0xbdd29082	-0.10281469

bias f4 [10]
0	0xbd0e49c6	-0.034738325
1	0xbd29d3fa	-0.041461922
2	0xbe368501	-0.17824174
3	0xbdcfedf3	-0.10152807
4	0x3e7c6aeb	0.24650161
5	0xbe045ef0	-0.12926841
6	0xbd4f5f76	-0.050628148
7	0xbe4e4392	-0.20142964
8	0xbe86a12d	-0.26294842
9	0xbcb9ef00	-0.022696972

weight f4 [120, 160]
0	0xbd486076	-0.048920117
1	0xbd91b002	-0.07113649
2	0x3d295c36	0.041347705
3	0xbd119fb3	-0.03555269
4	0x3d47762e	0.04869669
5	0x00000000	0.0
6	0xbda91d29	-0.08257515
7	0xbd824597	-0.063609295
8	0xbbfaefdc	-0.007657988
9	0xbd4d2a7c	-0.050089344
10	0x3d483592	0.048879214
11	0x3c81cef6	0.015845757
12	0xbd755273	-0.059893083
13	0xbd93a5d5	-0.07209364
14	0xbd3925fb	-0.045202237
15	0xbd8459cd	-0.06462441
16	0x3d9fb96a	0.07799037
17	0x3c4295ff	0.011876582
18	0xbcccba0e	-0.024991062
19	0x3d018a22	0.031625874
20	0xbd93bf68	-0.07214242
21	0xbce92ab7	-0.02846275
22	0xbb9af836	-0.004729296
23	0x3cd2fd14	0.025755443
24	0xbda1b4d6	-0.0789582
25	0x3d8f9d3b	0.07012411
26	0xbcdded66	-0.02709074
27	0xbcad2f04	-0.021140583
28	0xbcf78d45	-0.03021873
29	0xbcee2750	-0.02907148
30	0xbd06be77	-0.032896485
31	0xbda01c2b	-0.078178726
32	0xbd4f372e	-0.050589733
33	0x3b612b59	0.0034358113
34	0xbcfe5769	-0.03104754
35	0xbda1e596	-0.07905118
36	0xbda67a23	-0.081287645
37	0x3d82ab1e	0.06380294
38	0xbd93e7f4	-0.07221976
39	0xbda77713	-0.081770085
40	0xbda75fff	-0.08172607
41	0xbd12db92	-0.03585393
42	0xbd429168	-0.04750195
43	0xbcaaf5d9	-0.020869182
44	0xbcb5be5a	-0.022185493
45	0x3d3efbf5	0.046627004
46	0x3babaa56	0.0052388115
47	0xbcc8f786	-0.02453209
48	0xbd1c7d53	-0.038205456
49	0xbd635573	-0.055501413
50	0xbd9a5d8c	-0.07537374
51	0xbd6d39ed	-0.05791657
52	0xbd38273a	-0.044959284
53	0xbd4cf867	-0.050041582
54	0xbceaecdc	-0.028677396
55	0xbd456697	-0.04819354
56	0x3d4f8f58	0.050673813
57	0x3d7339e3	0.059381377
58	0xbd80143b	-0.06253859
59	0x3d012b21	0.03153527
60	0xbc7826d9	-0.015145981
61	0xbc2160e9	-0.009849765
62	0xbc652ab6	-0.013987234
63	0x3bf1b864	0.0073767174
64	0xbca788d0	-0.02045098
65	0xbcbfbc03	-0.02340508
66	0xbd9dea75	-0.07710735
67	0xbd1d8f76	-0.038466893
68	0xbc7b3967	-0.01533351
69	0xbd837fa4	-0.0642083
70	0xbd594e6c	-0.053053305
71	0xbc3086dc	-0.0107743405
72	0xbc99e9c2	-0.018788222
73	0x3d60261d	0.054723848
74	0xbd908752	-0.0705706
75	0xbd31fc50	-0.043453515
76	0x3c233aea	0.009962777
77	0x3c264800	0.010149002
78	0x3d669a06	0.056299232
79	0xbd58f96a	-0.052972235
80	0x3c78cc9c	0.015185501
81	0x3c27c159	0.010238969
82	0x3d553620	0.05205357
83	0x3d2f348c	0.042774722
84	0x3c2e51ca	0.010639617
85	0xbd1dca07	-0.038522746
86	0xbd48f871	-0.049065057
87	0xbd911de5	-0.0708578
88	0xbda32345	-0.079657115
89	0xbc9e990c	-0.019360088
90	0xbd037ead	-0.03210323
91	0x3cdc9300	0.026925564
92	0xbd30acd3	-0.043133568
93	0xbd613784	-0.054984584
94	0x3c68a268	0.014198877
95	0xbd955d40	-0.07293177
96	0xbd75aabf	-0.05997729
97	0xbd8461d3	-0.06463971
98	0xbd41904f	-0.047256764
99	0x3c3d6098	0.011558674
100	0x3d917d22	0.07103945
101	0x3d583552	0.052785225
102	0x3ce6075c	0.028079681
103	0x3d898a1e	0.06715797
104	0xbc7172bc	-0.014736827
105	0xbd888484	-0.066659
106	0xbd2174e8	-0.03941813
107	0x3d828be3	0.063743375
108	0xbc3f603c	-0.011680659
109	0xbcbc876b	-0.023013791
110	0x3ba78ee7	0.005113471
111	0xbd55ea22	-0.05222524
112	0xbc49a0e6	-0.012306428
113	0x3cdade16	0.026717227
114	0x3c2cd262	0.010548206
115	0x3cf76c61	0.030203046
116	0x3d1dd6d0	0.03853494
117	0x3c43fa8f	0.011961593
118	0xbd906ff6	-0.07052605
119	0x3c67c77b	0.014146681
120	0xbd275187	-0.040849235
121	0x3bb61545	0.0055567347
122	0x3cd6e1a0	0.026230633
123	0xbb4e0a48	-0.0031439234
124	0x3d575346	0.05256965
125	0xbb2741f6	-0.0025521494
126	0x3ceeb009	0.029136674
127	0x3d0fd8f2	0.035119005
128	0xbd3b06b9	-0.045660708
129	0xbd834c35	-0.0641102
130	0xbd9cb279	-0.076512285
131	0xbc9de1c7	-0.019272698
132	0xbcd22606	-0.025652897
133	0x3d0489ac	0.032357857
134	0xbd95f11a	-0.07321377
135	0x3d12cc29	0.035839234
136	0xbb31b7c5	-0.0027117592
137	0x3d8cfdd3	0.06884351
138	0xbc3cad15	-0.011515875
139	0x3c988ec1	0.018622758
140	0x3d7ef7a6	0.062247895
141	0x3d3b1cda	0.045681812
142	0x3cf7ab02	0.03023291
143	0x3bcf0bf7	0.006318565
144	0xbd427ca5	-0.04748215
145	0x3c96264c	0.018328808
146	0x3d38e100	0.04513645
147	0x3c1b9958	0.009497009
148	0x3d9915fa	0.07474895
149	0xbd964454	-0.07337251
150	0xbdacb297	-0.08432501
151	0xbd626938	-0.055276126
152	0xbd839849	-0.064255305
153	0x3d8afdfe	0.067867264
154	0xbd8cca07	-0.06874471
155	0x3d231dc0	0.039823294
156	0x3d9a7296	0.07541387
157	0x3d237b38	0.039912432
158	0xbd31f46e	-0.043445997
159	0xbd82c92f	-0.06386029
160	0xbdcaed60	-0.09908557
161	0xbcb0e9eb	-0.021595916
162	0x3d1489d3	0.036264252
163	0x3d368f95	0.044570524
164	0xbd333d14	-0.04375942
165	0x3da1821a	0.07886143
166	0xbd74f77b	-0.05980633
167	0x3d72d42b	0.05928437
168	0x3d503ec0	0.050841093
169	0xbd7f0231	-0.06225795
170	0x3dac1a90	0.08403504
171	0xbdded38b	-0.10880192
172	0x3c9e24fb	0.019304743
173	0xbdff89f9	-0.12477488
174	0xbd2f2d33	-0.042767715
175	0xbcfbaaf6	-0.030721169
176	0xbd4e99ba	-0.050439574
177	0xbda28f08	-0.07937437
178	0xbbc2bce8	-0.0059429295
179	0x3c62f899	0.013853216
180	0xbceda146	-0.029007565
181	0xbd247f0a	-0.040160216
182	0xbd8ce0b2	-0.06878795
183	0x3d302d97	0.043012228
184	0x3c91a241	0.017777564
185	0x3d4485e8	0.047979265
186	0x3a99c601	0.0011731983
187	0xbd4c8bfd	-0.04993819
188	0x3d969f9d	0.073546626
189	0x3d826eb1	0.06368769
190	0x3d50205f	0.05081212
191	0x3c97b82d	0.018520439
192	0xbd0dfe47	-0.034666326
193	0x3d596075	0.053070504
194	0x3e2eac5d	0.17057939
195	0x3e55b108	0.20868313
196	0x3a228c40	0.00062007084
197	0x3c6537dc	0.013990369
198	0xbdad86aa	-0.08472951
199	0xbdd33db2	-0.10314502
200	0xbe54ecef	-0.20793508
201	0xbe0596c6	-0.13045797
202	0xbcf49d81	-0.02986026
203	0xbdf6502d	-0.12027011
204	0xbcd23557	-0.0256602
205	0x3dabca9d	0.08388255
206	0xbe0042df	-0.1252551
207	0xbe24b97b	-0.1608638
208	0x3dd77bf9	0.10521693
209	0x3c9d5a62	0.019208137
210	0xbe231d2c	-0.15929097
211	0xbda2240d	-0.079170324
212	0x3db923d4	0.09040037
213	0xbd9504b7	-0.0727629
214	0x3d270702	0.040778168
215	0xbd486ae1	-0.048930053
216	0x3c8126de	0.015765604
217	0xbd58e61c	-0.052953824
218	0x3e454dff	0.19268034
219	0xbd829cb9	-0.06377549
220	0xbdb2cfc4	-0.087310344
221	0x3d06ddda	0.032926418
222	0x3d024453	0.03180344
223	0x3c9f346e	0.01943418
224	0xbda64391	-0.08118356
225	0xbde1c1fb	-0.11023327
226	0xbc6839bb	-0.01417392
227	0x3dd03c58	0.1016776
228	0xbe935190	-0.28773165
229	0xbe03f165	-0.12885053
230	0x3e0d8f85	0.1382428
231	0x3ea7be26	0.3276226
232	0xbd0ddca6	-0.034634255
233	0x3de03056	0.10946719
234	0x3d2e8f7e	0.042617314
235	0x3c2d5281	0.0105787525
236	0x3e12fdff	0.14354704
237	0x3e0c5c30	0.13707042
238	0x3d1bfc74	0.038082555
239	0x3b38c51e	0.0028193663
240	0xbb82a4f6	-0.00398695
241	0xbd97be71	-0.07409371
242	0x3da93596	0.08262174
243	0xbd9f5e99	-0.07781715
244	0xbdbf7573	-0.093485735
245	0x3d8f75f3	0.07004919
246	0x3d2e7b88	0.042598277
247	0x3cc4ebdd	0.02403825
248	0xbd8a049c	-0.067391604
249	0x3c99f064	0.018791385
250	0x3ca8b242	0.020592812
251	0xbc7195a6	-0.014745152
252	0xbda7cd0d	-0.08193407
253	0x3c9881a5	0.018616507
254	0xbcd59a1e	-0.026074465
255	0xbdbacd9f	-0.0912125

bias f4 [120]
0	0x3aad764d	0.0013234109
1	0x3d3d231d	0.046176065
2	0x3b458f7f	0.0030145345
3	0x3d24106a	0.040054716
4	0x3ca265af	0.019823877
5	0xbda2cde5	-0.079494275
6	0x3d87bc32	0.06627692
7	0xbce18137	-0.027527435
8	0x3d8adf21	0.0678084
9	0xbd405ed4	-0.046965435
10	0x3d8ae7cd	0.06782494
11	0xbcfafe2e	-0.03063878
12	0x3d7b09ef	0.06128877
13	0x3d79431b	0.060855012
14	0x3d97c8f6	0.07411377
15	0x3ba4dca5	0.0050311857
16	0x3d5e129b	0.054216962
17	0xbd955c76	-0.07293026
18	0x3d3cb9c1	0.046075586
19	0xbdca3dda	-0.098750785
20	0xbd0280fd	-0.031861294
21	0xbdc4b8e5	-0.09605578
22	0x3d27de25	0.040983338
23	0xbd89436d	-0.067023136
24	0xbd837c9b	-0.06420251
25	0x3d6c99b6	0.057763778
26	0x3dc83114	0.09774986
27	0x3db3244a	0.08747156
28	0x3cbf6a83	0.023366218
29	0x3c997434	0.018732168
30	0x3d401793	0.046897482
31	0x3e01d7d1	0.12679984
32	0x3d7f23fe	0.062290184
33	0xbdb02c3d	-0.08602188
34	0x3d6be504	0.057591453
35	0x3d5b946f	0.053608354
36	0x3ce7ca04	0.02829457
37	0xbd523c84	-0.051327243
38	0xbd911e78	-0.070858896
39	0xbd64b02e	-0.05583208
40	0xbd1b66ab	-0.03793971
41	0x3d86cf9a	0.065825656
42	0x3bdf17fa	0.006808278
43	0x3d86bf45	0.065794505
44	0x3d0c5803	0.034263622
45	0xbd0b78dc	-0.034050807
46	0x3db53bd1	0.088493
47	0xbdaa534a	-0.083166674
48	0xbcee96fa	-0.029124726
49	0xbcd1ff22	-0.025634352
50	0x3b9b0ea2	0.004731969
51	0x3d0e3f16	0.034728132
52	0x3db7030a	0.089361265
53	0xbc7ac33d	-0.0153053375
54	0xbd98df9b	-0.07464524
55	0xbd32b052	-0.043625183
56	0x3b9f4f07	0.0048617157
57	0x3cb25a8d	0.021771694
58	0x3e186db8	0.14885604
59	0x3cd729fe	0.02626514
60	0x3d03933e	0.032122843
61	0xbd2fdef2	-0.042937227
62	0x3d3e42d6	0.04645046
63	0x3c9a1996	0.018811028
64	0x3d7d7118	0.061875433
65	0xbbcfc1bf	-0.006340235
66	0x3dae79f1	0.08519352
67	0xbb5b8309	-0.003349485
68	0xbde45443	-0.11148884
69	0x3d848581	0.06470776
70	0xbd154ad6	-0.036448322
71	0xbdb15981	-0.0865965
72	0x3d7e2fe4	0.06205739
73	0x3c49062a	0.012269536
74	0x3cc9f6eb	0.024653872
75	0xbdd75bf4	-0.105155855
76	0x3d81b4b1	0.06333292
77	0xbafad21b	-0.0019136103
78	0xbd974cb4	-0.07387677
79	0x3d88fd11	0.066888936
80	0x3d5969bf	0.053079363
81	0x3d3ed01c	0.046585187
82	0xbcc95f7f	-0.024581669
83	0x3d3749c1	0.04474807
84	0x3c914ebc	0.017737739
85	0xbd533088	-0.051559955
86	0x3d5362f6	0.05160805
87	0x3d32883b	0.04358695
88	0xbd85cbff	-0.0653305
89	0x3be9848b	0.007126396
90	0x3c783c8e	0.015151156
91	0x3d426d48	0.0474675
92	0x3c52344d	0.012829852
93	0x3c4407e1	0.011964769
94	0xbc70a288	-0.014687188
95	0xbd095f81	-0.033538345
96	0x3ca3e83d	0.0200082
97	0xbd6914ee	-0.056904726
98	0x3d8a653b	0.067575894
99	0x3b1111fd	0.0022135966
100	0xbd8185d4	-0.06324354
101	0x3ccd2399	0.025041388
102	0xbdcb3b2a	-0.09923394
103	0xbd610d6c	-0.05494444
104	0xbd6e6c03	-0.058208477
105	0xbc32c955	-0.010912259
106	0x3d94e801	0.07270814
107	0x3d19fb64	0.03759326
108	0x3da00769	0.078139134
109	0x3d88cf21	0.06680132
110	0x3d32164f	0.043478306
111	0x3c9daab8	0.019246444
112	0xbcd76620	-0.026293814
113	0x3cfaf493	0.0306342
114	0x3d28da99	0.041224096
115	0xbd84ca6d	-0.06483922
116	0x3d3171d3	0.04332144
117	0xbcf5f16b	-0.030022344
118	0xbd8cfeaa	-0.06884511
119	0xbd8e0c4d	-0.0693594

weight f4 [84, 120]
0	0x3caf8014	0.021423377
1	0xbc04e2ae	-0.008110685
2	0xbd909219	-0.07059116
3	0x3bd9d8ce	0.0066481596
4	0xb9d9d61a	-0.00041548983
5	0xbd980f66	-0.07424812
6	0xbd3b64cc	-0.045750424
7	0xbc1936ee	-0.009351475
8	0xbdc79440	-0.09745073
9	0x3d39a053	0.045318913
10	0x3da8d414	0.08243576
11	0x3dda0906	0.10646252
12	0x3d16fcae	0.036862068
13	0x3c32e9c7	0.010919995
14	0x3ca0d1d3	0.019631302
15	0xbbc5e8d3	-0.0060397177
16	0xbca244cf	-0.019808201
17	0x3d2496c3	0.04018284
18	0x3dcddd28	0.10051948
19	0xbcac257a	-0.021013964
20	0x3cfb4eda	0.030677248
21	0xbd68d6d7	-0.056845512
22	0x3d8b54f1	0.06803311
23	0xbd42e787	-0.047584083
24	0x3d45fd88	0.04833749
25	0x3dc86435	0.09784738
26	0xbda952a6	-0.08267717
27	0xbcf58e41	-0.029975059
28	0xbc346b99	-0.011011981
29	0x00000000	0.0
30	0x3bdf9eae	0.006824336
31	0xbcb0ee5d	-0.021598035
32	0x3da1f159	0.079073615
33	0x3dad7299	0.084691234
34	0xbda58455	-0.08081881
35	0x3dd3add6	0.10335891
36	0xbd685d25	-0.056729455
37	0x3cbdef0f	0.023185281
38	0x3d8e5715	0.06950203
39	0xbd44e837	-0.04807302
40	0xbd8db31e	-0.069189295
41	0xbd0692bd	-0.032854784
42	0xbd73a0e2	-0.0594796
43	0xbd87743e	-0.06613968
44	0x3d72a53e	0.05923962
45	0x3cd5a244	0.02607835
46	0x3d81d928	0.063402474
47	0xbd4adfb6	-0.049529754
48	0xbe2b80f1	-0.16748406
49	0x3c86b51e	0.016443785
50	0x3c9519be	0.018200751
51	0x3da37c3d	0.07982681
52	0xbd0caf3c	-0.034346804
53	0x3d7c038b	0.061526816
54	0x3cd34f84	0.025794752
55	0xbdcf6bd2	-0.10127987
56	0xbe024f98	-0.12725675
57	0x3d4b1569	0.049580965
58	0x3c8c5e77	0.017134888
59	0xbda51c26	-0.080620095
60	0xbcaa75cb	-0.020808121
61	0x3db8a019	0.09014911
62	0x3d163c4c	0.036678597
63	0xbd12321c	-0.03569232
64	0xbd685e85	-0.056730766
65	0x3d455236	0.048174106
66	0x3d734b8b	0.059398215
67	0xbd947a89	-0.07249934
68	0xbd3a2af2	-0.045451112
69	0xbde405a4	-0.11133888
70	0x3d1bb579	0.038014863
71	0xbd08fbac	-0.033443138
72	0x3dd1bfbd	0.10241649
73	0x3d16369f	0.036673184
74	0xbcb2a657	-0.021807833
75	0xbca9565f	-0.020671068
76	0xbcd490ab	-0.02594789
77	0xbd8ca760	-0.06867862
78	0xbd954c5b	-0.07289954
79	0xbdbc9a91	-0.09209169
80	0x3db44cf5	0.08803741
81	0x3d92d640	0.07169771
82	0x3d0bf5a0	0.034169793
83	0xba60d67f	-0.0008576884
84	0xbc08f7bf	-0.0083598485
85	0xbd012a35	-0.031534392
86	0xbd614e22	-0.055006154
87	0xbd1504d1	-0.036381546
88	0xbd986898	-0.07441825
89	0xbccafe0a	-0.024779338
90	0x3cde8b68	0.027166083
91	0x3d8e1a0a	0.0693856
92	0x3d61a632	0.055090137
93	0xbd54a57b	-0.051915627
94	0x3d82db85	0.06389526
95	0xbd8d1f0a	-0.06890686
96	0xbc3e6fc2	-0.011623325
97	0xbcbe48ac	-0.023228012
98	0xbd00f96e	-0.031487875
99	0xbdae51fd	-0.08511732
100	0xbcb0cd82	-0.021582369
101	0xbc676b86	-0.014124757
102	0xbda2f63f	-0.07957124
103	0x3bd60272	0.006531053
104	0x3dc07545	0.093973674
105	0xbd9f3081	-0.07772923
106	0xbda3e8f0	-0.08003414
107	0x3d40f705	0.047110576
108	0xbda10fb9	-0.07864327
109	0xbd936cf4	-0.071985155
110	0x3d9ebbab	0.077506386
111	0xbd8edb93	-0.06975474
112	0x3dd92561	0.106028326
113	0xbd9bba4c	-0.07603893
114	0xbcbccfab	-0.023048243
115	0x3cba85a9	0.022768812
116	0x3c52856a	0.012849191
117	0xbd7ba5af	-0.061437305
118	0x3daf9797	0.08573835
119	0xbd8d656a	-0.06904109
120	0xbb4bf573	-0.003112164
121	0x3e0776f7	0.13228975
122	0x3a9cd93a	0.0011966594
123	0xbd05e6e6	-0.032690905
124	0x3da482d2	0.080327645
125	0xbdb4f267	-0.08835297
126	0xbca132f0	-0.01967761
127	0xbe1d46d4	-0.1535905
128	0xbd2e39a5	-0.042535443
129	0x3dc22afb	0.09480854
130	0xbb43241a	-0.0029776157
131	0xbcf91ea9	-0.030410128
132	0x3d9f3551	0.07773841
133	0xbbc4230f	-0.0059856246
134	0xbd4d9eae	-0.050200157
135	0x3e166667	0.14687501
136	0x3dadb1de	0.08481191
137	0xbd998012	-0.074951306
138	0xbdb299b8	-0.08720726
139	0x3c5190a1	0.01279083
140	0x3d2f78f7	0.04283997
141	0xbdcb1256	-0.09915607
142	0xbc9270d4	-0.017876066
143	0xbb73f182	-0.0037222807
144	0xbd3fdbfa	-0.046840645
145	0xbc99142b	-0.018686375
146	0xbce31e1a	-0.027724314
147	0x3d7205bc	0.0590875
148	0x3e46d9d9	0.1941904
149	0xbd90d0f5	-0.070711054
150	0x3de3b96c	0.11119351
151	0xbdb609f1	-0.08888615
152	0x3e0aabf6	0.1354216
153	0xbc5e7a45	-0.013578956
154	0x3d199512	0.03749568
155	0x3d78b140	0.060715914
156	0xbe0a9a51	-0.1353543
157	0x3dcafb2f	0.09911191
158	0xbe09ba3a	-0.13449946
159	0xbda444c1	-0.08020926
160	0xbda757f2	-0.08171071
161	0xbd0ca5e5	-0.034337897
162	0xbe0c2a84	-0.13688093
163	0x3e14102d	0.14459296
164	0x3d9b9dda	0.07598467
165	0xbc986fa1	-0.018607916
166	0x3dfceb74	0.123495966
167	0xbc0740e9	-0.008255222
168	0x3da568a9	0.08076603
169	0xbdbe37d3	-0.092879914
170	0x3d8a05c8	0.06739384
171	0xbcad9fed	-0.021194423
172	0xbd9bd23c	-0.076084584
173	0xbda538d7	-0.08067482
174	0x3abb51b0	0.0014291313
175	0xbcc8ea54	-0.024525799
176	0x3d9954ad	0.07486854
177	0xbdb95cd0	-0.09050906
178	0x3c72773b	0.014798935
179	0x3e393653	0.1808713
180	0xbbdd4d45	-0.006753596
181	0x3db263db	0.08710452
182	0xbe0d7845	-0.1381541
183	0xbdd6e984	-0.10493758
184	0xbe09d9a8	-0.13461936
185	0xbcb25698	-0.021769807
186	0xbca13b7f	-0.01968169
187	0xba878752	-0.0010340011
188	0x3e70226b	0.2345063
189	0x3d1382a3	0.036013257
190	0xbd4bbd53	-0.0497411
191	0xbbbae7d6	-0.0057039065
192	0xbe17a58e	-0.14809248
193	0xbd31c0d7	-0.043396797
194	0x3db02cba	0.08602281
195	0x3c787cc0	0.0151664615
196	0x3b839ab9	0.004016247
197	0x3daaba81	0.08336354
198	0x3d8b0f89	0.067900725
199	0xb9882593	-0.00025967936
200	0xbde204e6	-0.110360906
201	0x3d8d5ce0	0.0690248
202	0xbd26695a	-0.040627815
203	0xbdc284e7	-0.09498005
204	0x3c00f2e7	0.007870412
205	0x3e0aa88c	0.13540858
206	0x3c65a3c7	0.014016098
207	0xbd16b34f	-0.036792096
208	0x3d83fc41	0.06444598
209	0x3d9dc5c3	0.07703736
210	0x3b6ad6da	0.0035833628
211	0x3c5a88c8	0.013338275
212	0x3de88f95	0.11355511
213	0x3e10083f	0.14065646
214	0x3e4ad191	0.19806506
215	0xbb91d268	-0.004450131
216	0xbd3d9aa5	-0.04629006
217	0xbd38ae62	-0.04508818
218	0xbd417c68	-0.047237784
219	0xbe01ef5f	-0.12688969
220	0xbd196151	-0.037446324
221	0x3d992b3d	0.0747895
222	0xbc968d33	-0.018377876
223	0x3d5410dc	0.05177389
224	0xbd8c79a8	-0.068591416
225	0x3cbf2904	0.023334987
226	0x3d31822f	0.043337043
227	0xbdef26d6	-0.11677329
228	0xbd938f29	-0.0720504
229	0xbd6fb97a	-0.058526494
230	0x3e59768a	0.21236625
231	0xbd588028	-0.052856594
232	0xbba6fbee	-0.0050959503
233	0xbcfc0aff	-0.030766962
234	0x3cf734c4	0.030176528
235	0xbd4602a7	-0.048342373
236	0xbd682a47	-0.056680944
237	0xbe4271e4	-0.18988758
238	0xbe42e5e3	-0.19033007
239	0xbc35d214	-0.01109745
240	0xbda00d7c	-0.07815072
241	0xbd3563fd	-0.04428481
242	0x3aeb895f	0.0017970017
243	0xbc5ccc7f	-0.01347649
244	0x3d9e5872	0.07731713
245	0x3d21b75a	0.0394815
246	0x3caf948f	0.021433143
247	0xbc94d43e	-0.018167611
248	0x3cca39d0	0.02468577
249	0xbd39e55f	-0.04538476
250	0x3b3d4e74	0.0028885873
251	0x3d7c812c	0.061646625
252	0x3d9442c9	0.07239301
253	0xbcf2dfb9	-0.029647695
254	0xbd336b3c	-0.04380344
255	0x3ca5e227	0.02024944

bias f4 [84]
0	0xbd030d4c	-0.031995103
1	0x3dbfa75b	0.093580924
2	0xbd3d8c04	-0.046276107
3	0x3d818894	0.06324878
4	0xbd8da715	-0.06916634
5	0x3c6bfeb2	0.014403986
6	0xbc302954	-0.010752041
7	0x3e1db032	0.15399244
8	0x3b36ee92	0.0027913195
9	0xbc05c6b6	-0.008165052
10	0x3db839ca	0.089953974
11	0x3ddf63d8	0.109077156
12	0xbde2369b	-0.110455714
13	0x3d46283e	0.04837822
14	0x3dc90d9c	0.09817049
15	0x3c9e0e52	0.019293938
16	0x3c241d84	0.010016803
17	0x3d56abd0	0.052409947
18	0xbd847dd9	-0.06469316
19	0x3a743a4c	0.0009316548
20	0xbb483f45	-0.003055529
21	0x3e99d602	0.30046088
22	0xbd43a0ec	-0.04776089
23	0xbd85b890	-0.06529343
24	0x3dd03115	0.10165612
25	0x3c9ec283	0.01937986
26	0xbcd9281b	-0.026508382
27	0xbd9637dc	-0.07334873
28	0xbc29d844	-0.010366503
29	0xbc3a9ff5	-0.011390676
30	0x3d20d264	0.039263144
31	0xbda24883	-0.07923987
32	0xbbbf9fca	-0.0058479058
33	0x3b0cba69	0.0021473414
34	0xbda072a5	-0.07834367
35	0x3e0d71f3	0.13813
36	0xbd23848e	-0.039921336
37	0x3c4dee21	0.012568981
38	0xbd99e940	-0.07515192
39	0xbcdcce65	-0.026953885
40	0x3d637fe9	0.055541907
41	0x3dc377bc	0.09544322
42	0xbd0dbf46	-0.03460624
43	0x3c4ceb59	0.012507283
44	0x3c97cdd0	0.018530756
45	0xbda98e18	-0.08279055
46	0xbd3bc8d8	-0.045845836
47	0x3dab42bd	0.08362339
48	0xbcb1059f	-0.021609126
49	0x3b36f5cd	0.0027917505
50	0x3d821320	0.06351304
51	0xbd2600cc	-0.040528104
52	0xbd1e6f84	-0.03868057
53	0xbd564ad3	-0.05231745
54	0xbc5d8d8f	-0.01352252
55	0xbd551650	-0.052023232
56	0x3bc20a31	0.005921625
57	0x3ccf3f5a	0.025298763
58	0xbdb70a35	-0.08937494
59	0xbd44a3c1	-0.04800773
60	0x3d1a1829	0.037620697
61	0x3e1e71f4	0.15473157
62	0x3a9c1bf6	0.0011910188
63	0x3d9b155e	0.07572435
64	0x3dc459fd	0.095874764
65	0x3cec8b63	0.028875059
66	0x3c8b8883	0.017032867
67	0x3d90f959	0.07078809
68	0x3e86dc4b	0.26339945
69	0xbdcb26ca	-0.09919508
70	0x3d7ea25b	0.062166553
71	0x3cf54bad	0.029943312
72	0x3dd10e92	0.10207857
73	0x3c5f1aaa	0.013617197
74	0xbd369ac2	-0.044581182
75	0x3c9367c8	0.017993823
76	0x3d5d4336	0.054019175
77	0x3e1b470e	0.15163824
78	0xbd9c1d3a	-0.07622762
79	0xbce8caa1	-0.028416933
80	0xbd041bd6	-0.03225311
81	0xbc7825af	-0.015145703
82	0xbda4df7a	-0.08050437
83	0xbc9a0704	-0.018802173

weight f4 [10, 84]
0	0xbd75d3e5	-0.06001653
1	0x3e48263e	0.19545838
2	0xbcb3b2bd	-0.021935815
3	0x3dd01d7e	0.10161875
4	0xbbf8ad32	-0.007589006
5	0xbea1ca84	-0.3159982
6	0x3ef90e97	0.48643944
7	0x3dbb102e	0.091339454
8	0xbe346565	-0.17616804
9	0xbe349e17	-0.17638431
10	0x3e6be2ed	0.23035784
11	0x3e17f299	0.14838637
12	0xbc38c044	-0.011276308
13	0xbdc5ba92	-0.09654726
14	0xbda23b33	-0.079214476
15	0xbdcc56c4	-0.09977487
16	0xbd019478	-0.03163573
17	0x3dda517c	0.10660073
18	0xbe1d8618	-0.15383184
19	0xbde815f8	-0.11332315
20	0xbdfbdfce	-0.12298547
21	0xbe6b2fa8	-0.22967398
22	0xbd90b0c2	-0.07064964
23	0xbc865397	-0.01639728
24	0x3e1597b4	0.14608651
25	0x3dc89627	0.09794264
26	0xbe148954	-0.14505512
27	0xbd06bc6a	-0.03289453
28	0x3a7a725d	0.00095537846
29	0x3dbca45b	0.09211036
30	0x3d512879	0.05106399
31	0x3d558c53	0.052135777
32	0xb99fff32	-0.0003051698
33	0xbd6ee0eb	-0.058319967
34	0xbe792492	-0.24330357
35	0xbe7a9d87	-0.24474154
36	0x3e431796	0.19051966
37	0x3e679e13	0.22618894
38	0xbdb02485	-0.086007155
39	0xbda1f3d0	-0.07907832
40	0xbd87bca0	-0.06627774
41	0xbe010cfd	-0.12602611
42	0x3e10ccd6	0.14140639
43	0xbcca8277	-0.024720414
44	0x3e8c35d8	0.2738483
45	0xbd2ab563	-0.04167689
46	0x3ead2645	0.3381826
47	0xbe1ea926	-0.15494213
48	0xbd01cc1b	-0.03168879
49	0xbe2276e2	-0.15865663
50	0x3e112a94	0.14176399
51	0x3da90358	0.08252591
52	0xbe4cf395	-0.20014794
53	0xbcb21130	-0.021736711
54	0xbbf03979	-0.00733107
55	0x3d661364	0.056170836
56	0x3b4c53a7	0.003117779
57	0xbdc68e79	-0.09695143
58	0xbd3208d9	-0.04346547
59	0x3d85b860	0.06529307
60	0xbd496f51	-0.049178425
61	0xbea51617	-0.32243416
62	0x3e773eb1	0.24145009
63	0x3e9b5876	0.30340928
64	0x3c623934	0.013807584
65	0x3b859b11	0.0040773232
66	0x3dda0855	0.106461205
67	0xbe7d4ab8	-0.24735534
68	0xbe0e779e	-0.13912818
69	0xbd337a38	-0.04381773
70	0x3e23440b	0.15943925
71	0x3ee98829	0.45611694
72	0xbe1d84c3	-0.15382676
73	0xbdae5e92	-0.085141316
74	0x3d69e9be	0.05710768
75	0xbe02b3f6	-0.12763962
76	0x3dec2b3f	0.11531686
77	0xbdc2e8cd	-0.095170595
78	0x3d889b41	0.06670237
79	0xbe008b86	-0.12553224
80	0x3e4ab3ac	0.19795102
81	0xbc7c0e52	-0.015384274
82	0x3d8e4e15	0.06948487
83	0x3cfe8bd1	0.031072529
84	0xbe0502dd	-0.12989374
85	0xbe9a0dc7	-0.30088636
86	0x3d516cf7	0.051129308
87	0xbd9712b0	-0.07376611
88	0xbd729542	-0.059224375
89	0xbe00dc49	-0.12584032
90	0xbe60d0e6	-0.21954688
91	0x3d1d8261	0.038454417
92	0xbd6cce0c	-0.05781369
93	0xbcf15d7b	-0.02946352
94	0x3cf6c68b	0.03012397
95	0xbdaf0082	-0.08545019
96	0x3d493501	0.049122814
97	0xbdddb51b	-0.10825559
98	0x3d5816bf	0.052756067
99	0x3df9b91b	0.12193509
100	0x3ea11c4f	0.3146691
101	0xbe40d3a3	-0.18830733
102	0xbe6aa45a	-0.22914258
103	0xbe8cc01b	-0.27490315
104	0xbd89b181	-0.06723309
105	0x3f1da2cd	0.6157654
106	0xbd45e316	-0.04831227
107	0x3db243d9	0.08704347
108	0x3b74ee2f	0.0037373414
109	0x3c8e2424	0.017351218
110	0xbe8400d8	-0.25781894
111	0x3dad66b8	0.08466858
112	0x3dc340ca	0.09533842
113	0x3c521233	0.012821722
114	0xbd2c9afc	-0.042139992
115	0x3dbad215	0.09122101
116	0xbde30a9b	-0.11086007
117	0xbe7044e7	-0.23463784
118	0x3d5f5d27	0.054532196
119	0x3de6d63d	0.112713315
120	0xbe17a598	-0.14809263
121	0xbe1a0c3c	-0.1504373
122	0x3dd6a77e	0.10481165
123	0xbda90854	-0.082535416
124	0xbc292650	-0.010324076
125	0x3dee8aac	0.11647543
126	0xbe86ae4f	-0.26304862
127	0x3d57807a	0.05261276
128	0xbe06e0d3	-0.13171701
129	0xbd7e20ae	-0.062042885
130	0xbe1c07d5	-0.15237363
131	0xbe80c296	-0.25148457
132	0x3d6c6d54	0.05772145
133	0xbeb2ac8a	-0.34897262
134	0xbe082677	-0.13295923
135	0xbdf9f76a	-0.122053936
136	0xbd3b6b4b	-0.04575662
137	0x3d7f3a31	0.062311355
138	0x3dd9565d	0.106121756
139	0xbc36bfaf	-0.011154099
140	0xbdd76fbe	-0.1051936
141	0xbe845025	-0.25842395
142	0x3c8c7c7b	0.0171492
143	0x3d380eee	0.044936113
144	0x3dc88b72	0.09792222
145	0x3f2c0da6	0.67208326
146	0x3b3197d2	0.0027098549
147	0x3e3d9374	0.1851328
148	0x3e86f54c	0.26359022
149	0xbc7491f8	-0.01492738
150	0xbd92ff34	-0.071775824
151	0x3eb2803c	0.3486346
152	0x3e8c88a0	0.27447987
153	0xbe876cac	-0.26450098
154	0x3dbcec89	0.09224803
155	0xbde2416d	-0.11047635
156	0xbc1115d9	-0.008855307
157	0x3e739c01	0.2378998
158	0xbdd333f3	-0.10312643
159	0xbdd7fedd	-0.10546658
160	0xbde51f87	-0.11187654
161	0xbdc5bd62	-0.096552625
162	0x3daed072	0.085358515
163	0xbddcfe2e	-0.107906684
164	0xbdef6e7b	-0.11690994
165	0xbdcdf696	-0.10056798
166	0xbbe1fc05	-0.006896498
167	0xbc1e80c1	-0.009674252
168	0xbab57243	-0.0013843257
169	0xbe7ac1d9	-0.2448801
170	0xbdbfcf66	-0.0936573
171	0x3ce5b958	0.02804248
172	0xbda7b58e	-0.08188926
173	0xbe536082	-0.20642284
174	0xbe893ffa	-0.26806623
175	0x3d3ab484	0.04558231
176	0x3e677a15	0.22605164
177	0xbe17d4e3	-0.14827304
178	0xbe1d04d4	-0.15333873
179	0xbd59440f	-0.05304342
180	0xb9c083ef	-0.00036719392
181	0xbd36a520	-0.04459107
182	0x3bf862d4	0.0075801406
183	0x3dc6336c	0.09677777
184	0x3e10b30b	0.141308
185	0x3e2b15da	0.16707554
186	0xbe3138bb	-0.17306797
187	0xbd55e440	-0.05221963
188	0xbd1ed502	-0.03877736
189	0xbeb4f785	-0.35345092
190	0x3dc2589d	0.09489558
191	0x3d3557f5	0.044273335
192	0x3dbd0d97	0.09231108
193	0x3d618090	0.055054247
194	0x3ddacac7	0.10683208
195	0xbd956a13	-0.07295623
196	0xbddaa63c	-0.10676238
197	0x3d8b637d	0.06806085
198	0x3e228efe	0.1587486
199	0x3cab431b	0.020906022
200	0xbd2401c4	-0.040040746
201	0x3e70229f	0.23450707
202	0x3ed47973	0.41498908
203	0x3e0cadc0	0.13738155
204	0x3eabc979	0.3355215
205	0x3e4cce06	0.20000467
206	0xbddf7250	-0.10910475
207	0x3d185961	0.037194613
208	0xbac4d820	-0.0015018024
209	0xbd28321f	-0.041063424
210	0x3cee365c	0.029078655
211	0x3e542f83	0.2072125
212	0xbdc30503	-0.0952244
213	0x3c85397c	0.016262762
214	0xbdb69b3c	-0.08916327
215	0xbe0ea5d7	-0.1393045
216	0xbd51bb44	-0.05120398
217	0xbe8c332a	-0.27382785
218	0x3dde5636	0.10856287
219	0xbd783261	-0.06059492
220	0xbbe5709d	-0.00700195
221	0xbd6e53ce	-0.05818539
222	0xbcaf2ed4	-0.021384634
223	0x3e329638	0.17440116
224	0xbd6ed164	-0.05830516
225	0x3dd545bb	0.10413691
226	0xbcf858c6	-0.030315768
227	0xbc836b4d	-0.016042376
228	0xbda6619d	-0.08124087
229	0xbe331bb9	-0.17491044
230	0xbcc7939b	-0.024362376
231	0x3e44335a	0.19160214
232	0x3e1e2fa0	0.15447855
233	0xbd6436df	-0.05571639
234	0xbdc12bf0	-0.094322085
235	0x3d24df3e	0.040251963
236	0xbd44f71c	-0.048087224
237	0x3d649bb3	0.05581255
238	0xbb806490	-0.003918238
239	0xbe497d9f	-0.19676827
240	0xbd7c8869	-0.06165353
241	0x3de78f76	0.1130666
242	0xbdb31a43	-0.087452434
243	0xbe52e911	-0.2059672
244	0xbca54a3b	-0.020176997
245	0xbe083740	-0.13302326
246	0xbcf5cda8	-0.030005291
247	0x3efaa106	0.48950976
248	0x3c65557d	0.013997433
249	0x3d733a7d	0.05938195
250	0x3daf4918	0.085588634
251	0xbd8bcfe0	-0.068267584
252	0xbe1d9048	-0.1538707
253	0x3eaefba5	0.34176365
254	0xbdca8e8e	-0.098904714
255	0xbdbe1677	-0.092816286

bias f4 [10]
0	0xbd93a052	-0.07208313
1	0x3e8ec536	0.27884835
2	0xbe1159b4	-0.14194375
3	0xbdcaf0fc	-0.09909245
4	0x3d08dbab	0.033412617
5	0x3d09cc34	0.03364201
6	0xbd64da04	-0.05587198
7	0xbd7d25e1	-0.061803702
8	0x3d322f2b	0.043502014
9	0x3d1f020a	0.038820304
