mnist_sample_cnn_server.pt (torch_old, 141069 bytes, 10 tensors)

weight f4 [3, 1, 5, 5]
-0.012156587 -0.18737131 -0.35087305 -0.5007607 -0.37091854 -0.13522533 -0.29241383 -0.49804658
-0.61148983 -0.3996182 0.25589037 0.31221843 -0.07279344 -0.35654742 0.09269106 0.57126975
0.50533736 0.53541917 0.5410417 0.35355848 -0.24558471 -0.110431 0.12106166 0.36979344
-0.0002885866 0.024780715 0.19221482 0.3603179 -0.029383086 -0.44817853 -0.12984651 0.26932424
0.5036372 -0.44325298 -0.47813243 -0.026124503 0.27073598 0.5881878 -0.19662458 -0.5919567
0.12717083 0.34915516 0.6634785 0.53134865 -0.007596422 -0.061593197 -0.08898253 0.22459048
0.48049822 0.32612324 -0.007834281 -0.019234909 -0.07744174 -0.006128112 0.18149424 -0.3330645
-0.40988517 -0.2994407 0.13306977 -0.05264531 -0.51977706 -0.29586422 -0.019788815 0.40252495
0.24349831 -0.20739472 0.0529969 0.7851666 0.73088706 0.29073757 0.2981195 0.28302255
0.43752462 -0.064040326 -0.39629358
00000000: 6c2c 47bc 44de 3fbe a2a5 b3be da31 00bf
00000010: 09e9 bdbe 8278 0abe 44b7 95be f6ff febe
00000020: 998a 1cbf c29a ccbe 1004 833e 18db 9f3e
00000030: ba14 95bd 628d b6be cfd4 bd3d bc3e 123f
00000040: ca5d 013f 3b11 093f b581 0a3f 9e05 b53e
00000050: 8f7a 7bbe a629 e2bd 2def f73d 9155 bd3e
00000060: 704d 97b9 ed00 cb3c f6d3 443e 967b b83e
00000070: ccb4 f0bc a877 e5be 7cf6 04be dee4 893e
00000080: 5eee 003f 0ef2 e2be c6cd f4be 0e03 d6bc
00000090: e89d 8a3e 7a93 163f f457 49be 798a 17bf
000000a0: 1239 023e 77c4 b23e bad9 293f 7706 083f
000000b0: 68eb f8bb 2649 7cbd 793c b6bd 0cfb 653e
000000c0: dd03 f63e a0f9 a63e 5b5b 00bc 8792 9dbc
000000d0: c699 9ebd 54ce c8bb a0d9 393e 6e87 aabe
000000e0: 78dc d1be 4b50 99be 7143 083e 9ca2 57bd
000000f0: 1c10 05bf 847b 97be 271c a2bc c017 ce3e
00000100: 9f57 793e 485f 54be 4713 593d ae00 493f
00000110: 6a1b 3b3f 8edb 943e 1ea3 983e 55e8 903e
00000120: 3a03 e03e 9327 83bd fee6 cabe

bias f4 [3]
0.033330318 -0.9984926 -0.2456716
00000000: 5f85 083d 369d 7fbf 5691 7bbe

weight f4 [10, 3, 5, 5]
0.019510616 -0.16085462 -0.044656184 -0.01099307 -0.0908675 0.23424418 0.29837358 0.6402089
0.50521594 0.08459118 -0.07652576 -0.1638749 -0.3217732 -0.19799553 -0.10978205 -0.10166085
0.0069034137 -0.09317618 -0.16171038 -0.19541095 0.02551527 0.030819286 -0.13031745 -0.33584824
-0.44960335 -0.06535908 -0.11987722 0.079872414 -0.15971485 -0.11680068 -0.10903312 0.16105536
0.37617674 0.12642209 0.050486337 -0.2293675 -0.17832068 -0.15568236 0.16049868 0.1844204
-0.1589264 -0.008733893 -0.1893863 -0.031858884 0.09460771 -0.11294807 -0.15833923 -0.019482343
-0.19409066 0.014791695 0.018650223 -0.15691885 -0.23155855 -0.045854773 -0.19479066 0.27130252
0.5173626 0.16860248 -0.038828142 -0.24165542 -0.1079628 -0.1680646 -0.4945187 -0.4003298
-0.2163026 -0.1650622 -0.14671502 0.26795173 0.36617517 0.19170833 0.029841961 0.08178477
0.103513375 0.037544932 -0.157712 0.12273133 -0.22667855 0.09616485 0.27069515 -0.13711081
-0.1423371 -0.3272924 -0.03565919 -0.13002048 0.02927939 0.028713554 -0.24045727 -0.3455374
-0.005733044 0.2656038 -0.100893795 -0.3496097 -0.5017269 -0.23315302 0.16216402 0.15804675
0.1083439 -0.08658107 -0.25405738 -0.21652956 -0.14354263 -0.18064022 0.01890473 0.0052765873
-0.1341948 -0.13363019 -0.06401825 0.16427709 0.38228625 0.041025627 0.08046952 -0.14856572
-0.10267605 0.5869472 0.48333102 -0.12924893 -0.1347683 -0.19414708 0.11309937 0.50194824
0.13929781 -0.08055004 -0.3656667 -0.30630624 0.035444055 -0.09565459 -0.06864586 0.10111703
0.19203019 -0.105496936 -0.076899886 -0.12921162 0.03241818 0.116021454 -0.28450942 0.07371828
-0.24706097 -0.11802971 -0.045819856 -0.22501013 -0.07592298 -0.35286298 -0.11837307 -0.035182662
-0.23788291 -0.04519486 -0.08239059 0.1797052 0.14971188 0.072099164 -0.01896874 0.0034503406
0.019260392 -0.15259515 -0.11433978 0.008444073 -0.09924065 -0.3765023 -0.40716848 -0.20439407
-0.06615038 -0.46459123 -0.16222636 0.06763099 0.08947922 -0.3319419 -0.23131183 0.22363827
0.21940911 0.16776113 -0.15895236 0.010313312 0.232995 0.018311057 0.15954277 -0.5508125
-0.03261675 0.3546602 0.13916844 -0.25575277 -0.61768657 0.124476925 0.19315195 -0.14865905
-0.32497096 -0.46428657 0.2565794 0.23162252 -0.34062368 -0.28907514 -0.13121247 0.31577995
0.022766778 -0.3223608 -0.07228492 0.368249 0.21894825 -0.2243633 -0.23364046 -0.133596
-0.15498953 0.5388943 0.046875637 -0.20595652 -0.18527226 0.06997678 0.44799855 -0.20640938
-0.4756025 -0.00065782294 0.30499405 0.24807459 -0.45866024 -0.14756179 0.13528433 0.2420586
-0.259211 -0.28001145 0.027195007 -0.035757076 -0.0439275 -0.26877695 -0.08716673 -0.053648405
-0.036127172 -0.08249138 -0.078619465 0.04144113 -0.024524651 -0.050752625 -0.14992103 -0.15300186
0.017375194 -0.16756111 -0.35844374 -0.030907921 -0.0018051928 0.21495906 0.27260804 0.21505325
-0.037388913 -0.13058098 -0.05066407 0.12335548 0.17167622 -0.04256235 -0.11314385 -0.10121533
-0.28356248 -0.15798801 -0.085652165 0.044331178 0.020457475 -0.13896422 0.04742908 -0.02227319
00000000: bad4 9f3c 13b7 24be 67e9 36bd 471c 34bc
00000010: bd18 babd b5dd 6f3e 6cc4 983e bbe4 233f
00000020: d555 013f 243e ad3d 8ab9 9cbd d2ce 27be
00000030: 75bf a4be 57bf 4abe 69d5 e0bd 9033 d0bd
00000040: 0836 e23b 27d3 bebd 6897 25be cf19 48be
00000050: 6605 d13c ba78 fc3c f071 05be 4df4 abbe
00000060: 6932 e6be fbda 85bd 3082 f5bd 2694 a33d
00000070: 4a8c 23be 3235 efbd c24c dfbd b2eb 243e
00000080: 3d9a c03e cb74 013e c3ca 4e3d 50df 6abe
00000090: b299 36be 326b 1fbe c459 243e b4d8 3c3e
000000a0: 9abd 22be 9a18 0fbc 7bee 41be 767e 02bd
000000b0: b0c1 c13d 5151 e7bd ae23 22be 6f99 9fbc
000000c0: b4bf 46be de58 723c 5ac8 983c 56af 20be
000000d0: af1d 6dbe 37d2 3bbd 3477 47be 2ae8 8a3e
000000e0: e071 043f 21a6 2c3e 420a 1fbd 8574 77be
000000f0: 9a1b ddbd 2019 2cbe 8e31 fdbe 07f8 ccbe
00000100: 6e7e 5dbe 1106 29be 763c 16be f830 893e
00000110: 507b bb3e 304f 443e 2177 f43c c67e a73d
00000120: d2fe d33d b7c8 193d 417f 21be 905a fb3d
00000130: 6c1e 68be 14f2 c43d 8e98 8a3e c766 0cbe
00000140: d1c0 11be df92 a7be 5f0f 12bd 1724 05be
00000150: 55db ef3c b038 eb3c 6e3a 76be 47ea b0be
00000160: 42dc bbbb 39fd 873e 68a1 cebd 0b00 b3be
00000170: 2d71 00bf aabf 6ebe 530e 263e 02d7 213e
00000180: 68e3 dd3d 6b51 b1bd cf13 82be edb9 5dbe
00000190: d7fc 12be c0f9 38be 18de 9a3c 39e7 ac3b
000001a0: 5d6a 09be 5ad6 08be 001c 83bd 4138 283e
000001b0: 06bb c33e 7d0a 283d 34cd a43d 9d21 18be
000001c0: d247 d2bd 2c42 163f 2a77 f73e d559 04be
000001d0: b400 0abe 7ece 46be a4a0 e73d ae7f 003f
000001e0: 16a4 0e3e 6bf7 a4bd aa38 bbbe 2cd4 9cbe
000001f0: c92d 113d 8ee6 c3bd 3396 8cbd 7216 cf3d
00000200: 90a3 443e c70e d8bd b07d 9dbd 0d50 04be
00000210: edc8 043d a89c ed3d 38ab 91be 9cf9 963d
00000220: 8dfd 7cbe 90b9 f1bd 9aad 3bbd 0e69 66be
00000230: 827d 9bbd 75aa b4be 956d f2bd b21b 10bd
00000240: 9497 73be 3f1e 39bd 66bc a8bd a404 383e
00000250: 124e 193e baa8 933d 5564 9bbc 1c1f 623b
00000260: f8c7 9d3c e741 1cbe f92a eabd 0259 0a3c
00000270: af3e cbbd e9c4 c0be 6378 d0be ae4c 51be
00000280: da79 87bd e7de edbe ab1e 26be 1e82 8a3d
00000290: e240 b73d 4af4 a9be 02dd 6cbe 6e01 653e
000002a0: c8ac 603e 93c9 2b3e 68c4 22be 2af9 283c
000002b0: 3e96 6e3e 1201 963c 2e5f 233e 0c02 0dbf
000002c0: 2499 05bd 0696 b53e 2c82 0e3e 07f2 82be
000002d0: b520 1ebf c2ed fe3d a0c9 453e 143a 18be
000002e0: 9862 a6be f8b6 edbe 605e 833e 742e 6d3e
000002f0: 3a66 aebe a801 94be 905c 06be e9ad a13e
00000300: 6581 ba3c 7a0c a5be 1e0a 94bd 228b bc3e
00000310: f833 603e 7ebf 65be 723f 6fbe 64cd 08be
00000320: 93b5 1ebe faf4 093f ab00 403d 44e6 52be
00000330: 03b8 3dbe fc4f 8f3d 1160 e53e fb5c 53be
00000340: 2c82 f3be c071 2cba 2e28 9c3e 4407 7e3e
00000350: 84d5 eabe 701a 17be fa87 0a3e 36de 773e
00000360: 4eb7 84be a95d 8fbe 10c8 de3c 0376 12bd
00000370: 52ed 33bd 229d 89be 7884 b2bd 6ebe 5bbd
00000380: 16fa 13bd 3ef1 a8bd 3e03 a1bd 2dbe 293d
00000390: ece7 c8bc fce1 4fbd e684 19be 85ac 1cbe
000003a0: 6c56 8e3c 2495 2bbe f085 b7be 9c32 fdbc
000003b0: 389c ecba 3a1e 5c3e 4893 8b3e eb36 5c3e
000003c0: 1e25 19bd 05b7 05be 2185 4fbd cca1 fc3d
000003d0: e4cb 2f3e dc55 2ebd f6b7 e7bd fc49 cfbd
000003e0: 1a2f 91be 9cc7 21be 676a afbd 9c94 353d
000003f0: 6f96 a73c a34c 0ebe ff44 423d 4476 b6bc

bias f4 [10]
-0.43100208 -0.14941722 -0.18221089 -0.21727481 0.0016402446 -0.24197061 -0.008349109 -0.060872696
0.11113836 -0.3079872
00000000: 4eac dcbe d400 19be 7e95 3abe 4a7d 5ebe
00000010: 7afd d63a 25c7 77be b4ca 08bc a655 79bd
00000020: 829c e33d 80b0 9dbe

weight f4 [120, 160]
0.06420473 0.03555458 -0.03703314 0.051830206 -0.020058647 -0.044084135 -0.03522236 0.07085217
0.06557643 -0.06273214 0.054406475 0.005577341 -0.056919623 0.02766467 -0.011477893 0.009692645
-0.08707716 -0.026278056 -0.048535727 -0.08342454 -0.05795958 -0.039506685 0.012754858 0.026190754
-0.08696464 -0.072109334 -0.056703586 0.030233908 -0.05937048 -0.0688231 -0.0036963164 -0.054861207
0.018494084 -0.06369638 -0.041560724 0.054801974 0.07938589 0.0010575292 -0.021353025 -0.004395023
0.036363274 -0.047298126 -0.08116616 -0.055196702 -0.011682283 0.019921955 0.00017462822 0.030337617
0.050073974 0.060267247 0.06267678 -0.018385297 0.0056815036 0.0061358977 -0.06606397 0.015558429
0.004495796 -0.05967471 0.043978684 0.024903882 -0.02488446 -0.043472603 0.029310385 -0.04821691
-0.02964333 0.04385998 0.032211594 0.047111522 0.012453029 0.04495777 -0.007153108 -0.008816688
-0.07731852 -0.0050426144 0.042006876 0.04382782 -0.024668492 -0.04905765 -0.03476033 0.0054516867
0.02859832 0.029395513 0.044953912 -0.010716306 0.10550937 0.021897975 0.028066956 -0.0666221
-0.07907712 0.03422024 0.075763725 0.049205035 -0.014717564 0.032701127 0.00043355383 -0.076712355
0.046459682 0.032196805 -0.023139888 -0.06397714 -0.039238736 0.08360341 -0.014877895 -0.0037180216
0.037671864 -0.09300649 -0.028200947 -0.07340413 -0.003445942 -0.025025792 0.041663833 -0.07582098
0.02296942 -0.07671361 -0.029668713 0.043122143 -0.077426836 -0.03018426 -0.066490054 0.068756446
0.029963598 0.024293598 0.012507457 -0.0029747235 0.045941304 -0.056857903 0.042349074 0.017777644
-0.08702535 -0.06245992 -0.0023800833 0.042134605 -0.032755155 -0.031163646 0.068503655 0.043209895
-0.04372646 0.026746295 0.044488937 -0.0336662 0.017862512 -0.0052335043 0.032914497 0.054370522
0.057225958 0.0083692465 -0.037358906 -0.07972196 -0.039009735 -0.08088803 0.017707773 -0.059004866
-0.024562787 0.013563806 0.028487569 0.05446922 -0.0859858 -0.07870234 -0.02314691 0.025852188
-0.027389683 0.07729205 -0.024121344 -0.055301208 0.04116038 0.04935687 0.029304799 0.009420821
0.04104106 -0.005066379 0.015335973 -0.04714143 -0.05541897 0.03615621 0.05441691 0.049685407
-0.047698203 -0.015478014 -0.005695231 0.054883882 -0.12165925 -0.032793347 0.03552692 -0.07750561
0.03165461 0.040197935 -0.012301626 0.046885714 0.04857225 -0.079568915 0.0918683 0.059439953
0.012412328 -0.019303316 0.10410619 0.084232405 -0.037703235 -0.03929133 0.13815182 -0.06483266
-0.0075004054 -0.051482998 0.0021577207 -0.034298297 0.047097765 0.005807354 -0.1314483 -0.0553628
0.033601243 -0.023637913 -0.0047751316 -0.05843074 -0.10079244 0.097823665 0.0844084 -0.030364355
-0.06383921 -0.03930249 0.03999271 0.019956734 0.027619366 -0.03260079 -0.04187212 0.071957804
0.085927695 0.03566148 0.030413326 0.058936946 -0.045572486 -0.051749308 -0.082801625 -0.06894805
-0.070489764 -0.06151478 -0.051485967 -0.084523395 0.042082816 -0.0040008486 0.056179382 0.049376212
-0.07273711 0.071951896 0.060449578 -0.099887975 0.041168746 0.023690807 0.034441844 0.040910546
0.06632846 -0.032200515 -0.09330402 0.0069949483 -0.018517815 -0.07517658 -0.05754064 0.06719305
00000000: c57d 833d aea1 113d 10b0 17bd e94b 543d
00000010: 0852 a4bc 9191 34bd 5245 10bd f11a 913d
00000020: ef4c 863d b579 80bd 53d9 5e3d 21c2 b63b
00000030: 8d24 69bd 05a1 e23c c60d 3cbc e6cd 1e3c
00000040: 8355 b2bd 1445 d7bc 66cd 46bd 7cda aabd
00000050: 0667 6dbd c3d1 21bd c0f9 503c fe8d d63c
00000060: 841a b2bd 0fae 93bd 0542 68bd 1aad f73c
00000070: 762e 73bd 20f3 8cbd e63d 72bb 25b6 60bd
00000080: e880 973c 3f73 82bd 943b 2abd 0978 603d
00000090: 1295 a23d cb9c 8a3a 8aec aebc 2004 90bb
000000a0: a8f1 143d aebb 41bd 723a a6bd f015 62bd
000000b0: 0c67 3fbc 5e33 a33c 681c 3739 9886 f83c
000000c0: 5e1a 4d3d cada 763d af5c 803d c39c 96bc
000000d0: e82b ba3b a40f c93b 8c4c 87bd c8e8 7e3c
000000e0: 7851 933b 786d 74bd fe22 343d 3a03 cc3c
000000f0: 7fda cbbc 5410 32bd 551c f03c 187f 45bd
00000100: 92d6 f2bc 86a6 333d 4ef0 033d 03f8 403d
00000110: ca07 4c3c a325 383d 9e64 eabb df73 10bc
00000120: 2c59 9ebd 843c a5bb 670f 2c3d cd84 333d
00000130: 9415 cabc adf0 48bd d960 0ebd 10a4 b23b
00000140: 0647 ea3c dcce f03c 9821 383d 7293 2fbc
00000150: 4c15 d83d 6263 b33c acec e53c 2b71 88bd
00000160: 2ff3 a1bd 862a 0c3d 032a 9b3d 388b 493d
00000170: f021 71bc 9ef1 053d 9c4e e339 5e1b 9dbd
00000180: 824c 3e3d cce0 033d dd8f bdbc 7206 83bd
00000190: ccb8 20bd 4438 ab3d 6ac2 73bc 0daa 73bb
000001a0: d04d 1a3d 307a bebd ac05 e7bc e854 96bd
000001b0: 50d5 61bb e402 cdbc b2a7 2a3d 0848 9bbd
000001c0: 5d2a bc3c 061c 9dbd cd0b f3bc d8a0 303d
000001d0: f691 9ebd fb44 f7bc f02b 88bd 2ed0 8c3d
000001e0: 3876 f53c 5e03 c73c 14ec 4c3c 94f3 42bb
000001f0: f32c 3c3d d5e3 68bd 3976 2d3d 6ca2 913c
00000200: 593a b2bd f9d5 7fbd 2cfb 1bbb 5695 2c3d
00000210: 452a 06bd e74a ffbc a54b 8c3d dcfc 303d
00000220: 841a 33bd 0c1b db3c 083a 363d 92e5 09bd
00000230: 6754 923c d17d abbb 5ad1 063d a0b3 5e3d
00000240: c465 6a3d 2a1f 093c a705 19bd 4445 a3bd
00000250: acc8 1fbd a0a8 a5bd e40f 913c 16af 71bd
00000260: e637 c9bc ba3a 5e3c c35e e93c 1e1b 5f3d
00000270: 5319 b0bd b12e a1bd 979e bdbc f8c7 d33c
00000280: 5460 e0bc 4b4b 9e3d 209a c5bc 8583 62bd
00000290: c997 283d 6e2a 4a3d 9e10 f03c ca59 1a3c
000002a0: ac1a 283d de03 a6bb bc43 7b3c 5f17 41bd
000002b0: 00ff 62bd 8918 143d 44e4 5e3d ed82 4b3d
000002c0: 315f 43bd 7f97 7dbc 0f9f babb eccd 603d
000002d0: 7c28 f9bd 5152 06bd ad84 113d 43bb 9ebd
000002e0: 44a8 013d 97a6 243d c28c 49bc 3c0b 403d
000002f0: b2f3 463d 07f5 a2bd 7325 bc3d 4f77 733d
00000300: 145d 4b3c fd21 9ebc a035 d53d 0a82 ac3d
00000310: b56e 1abd f2ef 20bd ac77 0d3e fcc6 84bd
00000320: f6c5 f5bb d6df 52bd 8c68 0d3b 5f7c 0cbd
00000330: 96e9 403d 9e4b be3b 629a 06be 1ac4 62bd
00000340: 75a1 093d 4ca4 c1bc b578 9cbb 1255 6fbd
00000350: 446c cebd c657 c83d 50de ac3d abbe f8bc
00000360: 22be 82bd a6fb 20bd 65cf 233d 4e7c a33c
00000370: 0242 e23c 6888 05bd 1a82 2bbd 9d5e 933d
00000380: dcfa af3d c611 123d 5e25 f93c de67 713d
00000390: 37aa 3abd 15f7 53bd e693 a9bd a334 8dbd
000003a0: f05c 90bd ecf6 7bbd f3e2 52bd 9a1a adbd
000003b0: 085f 2c3d 8d19 83bb 5a1c 663d b63e 4a3d
000003c0: 32f7 94bd 845b 933d fa99 773d 1192 ccbd
000003d0: 8fa0 283d 3913 c23c e412 0d3d d191 273d
000003e0: 37d7 873d b0e4 03bd 2e16 bfbd e135 e53b
000003f0: acb2 97bc 2ef6 99bd bcaf 6bbd 839c 893d

bias f4 [120]
-0.06762564 -0.025369706 0.085379496 0.071039446 -0.03375199 -0.034070533 0.09313721 0.00736859
0.007819519 -0.0019493751 0.030649964 -0.00958304 -0.04976592 0.021609256 0.111980334 0.07168957
-0.021467438 -0.047645077 0.006159285 0.01596567 0.057934225 0.038592495 0.064992845 0.015302826
0.045860242 0.066323236 -0.054089945 -0.007945438 0.013617228 -0.074373126 0.06889887 -0.022966888
0.050392106 0.1888338 0.037165936 -0.026798528 -0.028994553 0.05554803 -0.070602275 0.06089078
-0.07618368 0.007332991 0.014018932 0.023734502 -0.030484058 -0.05147264 0.023188883 -0.016859114
-0.00876789 -0.04052677 0.08427611 -0.010516629 0.07504703 -0.0026874887 -0.07248967 -0.03128083
-0.045429006 -0.035838835 0.06905957 -0.049930662 0.032628596 0.051788416 0.0066804406 0.10239205
-0.05294977 -0.034742724 0.048449047 -0.010417223 0.0039168387 0.038900863 -0.033334564 0.059087984
-0.028451242 0.03588051 -0.06711683 0.02761861 0.07196501 0.08704125 -0.061174154 -0.053344376
0.06301879 0.0015880781 0.049446777 0.0651908 -0.01743418 -0.09186514 -0.13126066 0.04167343
0.10528534 -0.056350023 -0.05557257 -0.07256634 0.06910622 -0.006790201 0.024315368 0.060366638
-0.044696636 -0.0374891 -0.046819024 0.002045196 -0.045130022 0.052343003 -0.021935472 0.0581906
-0.04770729 -0.0045224847 -0.019107403 -0.068672895 -0.07845439 -0.07458806 -0.049018055 -0.002262794
-0.065579936 -0.03359078 0.06559233 0.040109634 0.07728824 -0.0151758045 -0.027324144 0.02228884
00000000: 507f 8abd 21d4 cfbc 72db ae3d 217d 913d
00000010: 873f 0abd 8b8d 0bbd b9be be3d 3774 f13b
00000020: 711d 003c 2d82 ffba a215 fb3c 2f02 1dbc
00000030: 59d7 4bbd e505 b13c f255 e53d fbd1 923d
00000040: 7bdc afbc 7c27 43bd d4d3 c93b 70ca 823c
00000050: 704c 6d3d 2a13 1e3d f81a 853d b4b8 7a3c
00000060: f3d7 3b3d 7ad4 873d 6b8d 5dbd 952d 02bc
00000070: cb1a 5f3c f050 98bd da1a 8d3d 0e25 bcbc
00000080: f467 4e3d a65d 413e 4f3b 183d 9688 dbbc
00000090: fc85 edbc 5586 633d ed97 90bd 9c68 793d
000000a0: 3006 9cbd 9649 f03b aaaf 653c dc6e c23c
000000b0: b4b9 f9bc fad4 52bd 9df6 bd3c 201c 8abc
000000c0: 32a7 0fbc 66ff 25bd f498 ac3d f04d 2cbc
000000d0: 42b2 993d 9420 30bb 7775 94bd 5420 00bd
000000e0: c413 3abd becb 12bd 1b6f 8d3d 1884 4cbd
000000f0: 90a5 053d 1720 543d 99e7 da3b ecb2 d13d
00000100: dce1 58bd 634e 0ebd 8272 463d 00ad 2abc
00000110: d358 803b 8356 1f3d d389 08bd 3e06 723d
00000120: 9412 e9bc 71f7 123d 8c74 89bd 6c40 e23c
00000130: 6462 933d af42 b23d c091 7abd a27f 5abd
00000140: ff0f 813d 0f27 d03a b488 4a3d c182 853d
00000150: 20d2 8ebc ca23 bcbd 3269 06be c2b1 2a3d
00000160: d79f d73d 48cf 66bd 10a0 63bd a99d 94bd
00000170: 9087 8d3d 5680 debb 0631 c73c 0243 773d
00000180: d213 37bd 2c8e 19bd 4ec5 3fbd b208 063b
00000190: 42da 38bd 9e65 563d 05b2 b3bc 4459 6e3d
000001a0: b868 43bd 5a31 94bb 2187 9cbc 60a4 8cbd
000001b0: b2ac a0bd a0c1 98bd 28c7 48bd 624b 14bb
000001c0: c64e 86bd 7c96 09bd 4655 863d 004a 243d
000001d0: 4c49 9e3d f0a3 78bc e2d6 dfbc 1697 b63c

weight f4 [84, 120]
-0.0648846 0.05602183 0.027343556 -0.03645414 0.16649555 -0.03446341 0.029812854 -0.026898982
-0.119374335 -0.06924862 -0.015571099 -0.00980801 -0.058665395 0.01680779 -0.11149116 0.033177994
-0.07755901 -0.06512796 -0.056159705 -0.03769831 0.13768928 0.07747451 0.045969896 -0.056081627
0.003925638 0.06436859 -0.092621975 0.031211276 0.15182465 -0.0927009 -0.044625625 0.031220628
0.0381799 -0.030213766 -0.054165237 -0.08319332 0.040780034 -0.039286837 0.063079216 0.019846363
0.019549135 -0.011034968 0.11438657 -0.018687045 0.05292546 0.031544495 0.06820551 0.14660479
0.01702729 0.024882898 -0.09349495 0.16498947 -0.06808457 0.037852068 -0.06306285 0.13261418
0.09274848 0.06648578 0.030778974 0.12844108 -0.09226003 -0.04529591 -0.061200902 -0.14360292
0.061538596 0.0059299585 0.02494213 -0.08327184 0.09018774 -0.027875572 -0.10115674 -0.06269296
-0.09536424 -0.00517036 0.024140833 -0.05013749 -0.10899088 -0.04782859 -0.046034157 0.037770886
-0.031440683 -0.08120804 0.03644687 -0.015295133 0.037772883 0.08763415 -0.05021219 0.075189
0.0052661514 -0.09062988 -0.006205438 -0.010845615 -0.06858836 0.026132725 -0.04408217 -0.1078437
0.034332685 -0.06825529 -0.07911512 0.10838777 0.07755076 0.038672365 -0.010227243 -0.04468446
-0.10641703 -0.053904276 -0.08704205 -0.054281972 -0.008990345 0.023745777 0.10313221 -0.08253114
-0.033946063 -0.042712897 -0.114625 -0.018730612 0.05797916 -0.092819266 0.044871114 -0.052923545
-0.059100688 -0.07254898 0.018147174 0.023826148 0.07896544 -0.012019836 0.025586497 0.05665126
-0.033856943 -0.039843276 0.0618372 0.03651785 -0.051769704 0.036910832 -0.022703148 0.09760275
-0.02665522 0.010771133 0.085986815 0.015972186 0.09058195 -0.10064105 -0.08401547 0.057397794
0.05292099 -0.04938574 0.037710622 0.037203114 -0.03755209 0.04750628 0.0042866576 -0.088041
0.048332993 -0.059860066 0.027837135 -0.017599907 0.015861318 -0.026518144 -0.04468055 -0.027327819
0.0010934256 -0.018628027 -0.051781066 -0.08882822 0.08931127 0.04034839 -0.024397936 0.03855182
-0.05863431 -0.08632929 -0.020128854 -0.049381264 0.01862817 -0.054183554 0.06293441 0.10776294
-0.027220879 0.041752428 -0.047771808 -0.07683505 0.13634282 -0.08476654 -0.020040374 -0.1245645
-0.077051625 0.064138904 -0.080041006 -0.0047958884 -0.061638016 -0.06467764 -0.080820754 0.017649155
0.03514058 -0.06556417 0.06132727 -0.022662979 0.0036094813 0.06748048 0.02267258 0.020198887
0.011441512 0.03275374 0.016985508 -0.08195523 0.08714503 -0.0003119454 -0.06441835 0.044985823
-0.10644197 -0.011059233 0.014759537 -0.1093816 0.046564497 -0.018556464 0.07482834 -0.078100175
0.052623235 0.022428552 0.0026455503 0.083970055 -0.021878289 0.025856256 -0.042412385 0.009039496
0.08745672 0.119049996 -0.03635977 0.023966663 0.0017926587 -0.008877465 -0.077160865 -0.07498096
0.00068183814 0.09063245 -0.040529393 0.09111706 -0.012405028 -0.0006853191 0.076144494 -0.039160818
0.019871684 0.07782152 -0.09944524 -0.018156752 -0.17122045 0.015533195 0.07483042 0.018485196
0.021456147 -0.0018481642 -0.096861035 -0.027297948 0.063445 -0.04187087 0.11928528 -0.061886914
00000000: 38e2 84bd 2577 653d 98ff df3c f050 15bd
00000010: cf7d 2a3e 8129 0dbd 163a f43c 415b dcbc
00000020: 887a f4bd 38d2 8dbd ec1d 7fbc c7b1 20bc
00000030: 204b 70bd 7eb0 893c 7a55 e4bd a6e5 073d
00000040: 42d7 9ebd cf61 85bd b807 66bd 8b69 1abd
00000050: 6bfe 0c3e f5aa 9e3d ee4a 3c3d d9b5 65bd
00000060: a3a2 803b aed3 833d 97b0 bdbd caae ff3c
00000070: ec77 1b3e f8d9 bdbd 5cc9 36bd 67c2 ff3c
00000080: 8762 1c3d dc82 f7bc 5edc 5dbd 4261 aabd
00000090: f708 273d 3ceb 20bd ad2f 813d d794 a23c
000000a0: 8225 a03c 03cc 34bc 8243 ea3d 9315 99bc
000000b0: 5ec8 583d cd34 013d 55af 8b3d 911f 163e
000000c0: d17c 8b3c 38d7 cb3c 487a bfbd 00f3 283e
000000d0: ec6f 8bbd c50a 1b3d 1827 81bd 03cc 073e
000000e0: eaf2 bd3d b229 883d 3024 fc3c 0f86 033e
000000f0: d4f2 bcbd 3488 39bd ccad 7abd a50c 13be
00000100: e50f 7c3d 1950 c23b 7053 cc3c 6d8a aabd
00000110: 5ab4 b83d 505b e4bc 442b cfbd 2b65 80bd
00000120: 544e c3bd 206c a9bb ffc2 c53c f85c 4dbd
00000130: 9c36 dfbd e9e7 43bd 508e 3cbd a5b5 1a3d
00000140: f2c7 00bd 6750 a6bd 5049 153d 7098 7abc
00000150: bdb7 1a3d 8979 b33d 4cab 4dbd b1fc 993d
00000160: ae8f ac3b 299c b9bd fd56 cbbb ceb1 31bc
00000170: 0e78 8cbd 4c14 d63c 818f 34bd 28dd dcbd
00000180: 6ea0 0c3d 6ec9 8bbd 1c07 a2bd 68fa dd3d
00000190: efd2 9e3d ea66 1e3d 2b90 27bc 0d07 37bd
000001a0: 2cf1 d9bd bbca 5cbd 1a43 b2bd c656 5ebd
000001b0: 3d4c 13bc 8186 c23c fb36 d33d 1606 a9bd
000001c0: 070b 0bbd b8f3 2ebd 83c0 eabd f170 99bc
000001d0: 8e7b 6d3d 0718 bebd c6ca 373d 5cc6 58bd
000001e0: 9013 72bd 8f94 94bd 62a9 943c 0e2f c33c
000001f0: a2b8 a13d d9ee 44bc c69a d13c 270b 683d
00000200: 94ad 0abd b432 23bd 0149 7d3d be93 153d
00000210: 780c 54bd d02f 173d f4fb b9bc f3e3 c73d
00000220: 0c5c dabc 6879 303c db19 b03d 1ad8 823c
00000230: 0883 b93d e51c cebd 4e10 acbd f319 6b3d
00000240: aec3 583d b448 4abd 7476 1a3d 4b62 183d
00000250: 38d0 19bd f295 423d 1777 8c3b d74e b4bd
00000260: d1f8 453d d42f 75bd b40a e43c ae2d 90bc
00000270: 98ef 813c 943c d9bc f402 37bd 97de dfbc
00000280: 4651 8f3a ce99 98bc 6218 54bd 92eb b5bd
00000290: d4e8 b63d 5a44 253d 2ede c7bc 83e8 1d3d
000002a0: 882a 70bd 69cd b0bd 44e5 a4bc 0244 4abd
000002b0: 1b9a 983c 93ef 5dbd c2e3 803d d1b2 dc3d
000002c0: 52fe debc 9804 2b3d 5fac 43bd b25b 9dbd
000002d0: 749d 0b3e 149a adbd b62b a4bc ac1b ffbd
000002e0: 3ecd 9dbd 425b 833d 8aec a3bd d426 9dbb
000002f0: 2578 7cbd b675 84bd 5a85 a5bd f694 903c
00000300: 92ef 0f3d 8246 86bd 4e32 7b3d b6a7 b9bc
00000310: 0c8d 6c3b 3533 8a3d d9bb b93c 2378 a53c
00000320: 2e75 3b3c c928 063d 3125 8b3c 25d8 a7bd
00000330: 1879 b23d 9a8c a3b9 c5ed 83bd 0e43 383d
00000340: 3ffe d9bd c931 35bc fcd1 713c 7603 e0bd
00000350: 6aba 3e3d ba03 98bc 9a3f 993d fcf2 9fbd
00000360: 768b 573d 15bc b73c f860 2d3b 7ef8 ab3d
00000370: 193a b3bc 80d0 d33c 9cb8 2dbd 651a 143c
00000380: 821c b33d 7cd0 f33d fbed 14bd bc55 c43c
00000390: a5f7 ea3a c972 11bc 8406 9ebd 9e8f 99bd
000003a0: 62bd 323a 829d b93d 2602 26bd 959b ba3d
000003b0: 753e 4bbc fca6 33ba a5f1 9b3d 1867 20bd
000003c0: f1c9 a23c e460 9f3d f2a9 cbbd 78bd 94bc
000003d0: 6a54 2fbe f17e 7e3c b140 993d 446e 973c
000003e0: cdc4 af3c 1a3e f2ba 145f c6bd f29f dfbc
000003f0: 74ef 813d ca80 2bbd d74b f43d 227d 7dbd

bias f4 [84]
0.11154622 -0.01640923 0.06312554 -0.05212084 0.048986748 0.03998387 0.01962508 0.060022496
0.07863713 0.10019479 -0.0045006317 -0.037169818 0.11112241 0.03212595 0.018573524 0.14469431
0.1345743 -0.055591777 0.13907751 0.03144972 0.00275708 0.05795759 0.007874207 -0.0010824618
-0.032192905 -0.09601073 -0.061266806 -0.021916017 0.0840945 0.003347658 -0.059677787 0.04160223
-0.027071845 -0.087266564 0.06461004 0.008998262 -0.0857175 -0.00784912 0.044553168 0.094596304
-0.06962769 0.1073852 0.059304956 0.10423423 -0.075842604 0.097400695 -0.06827791 -0.034623466
0.02831073 -0.07412146 -0.00073692575 0.02968928 -0.036957294 0.0099897105 0.17670828 0.0135884695
-0.05470779 0.10352662 0.08815837 0.088320784 -0.054219835 0.09846035 0.09937124 0.015469551
0.066159286 0.10847454 -0.116217546 0.013722394 0.12587854 0.0810197 0.026752073 -0.079987906
0.13416941 -0.027899759 0.097142674 -0.08359206 -0.02611761 0.016551115 0.027646208 0.047917135
0.005071819 -0.0013349412 0.055932797 0.10935211
00000000: 5872 e43d a66c 86bc f747 813d a97c 55bd
00000010: 54a6 483d 20c6 233d c7c4 a03c 26da 753d
00000020: 810c a13d ed32 cd3d 097a 93bb 613f 18bd
00000030: 2594 e33d 8096 033d 8127 983c bf2a 143e
00000040: d8cd 093e 34b4 63bd 566a 0e3e 6cd1 003d
00000050: 20b0 343b f064 6d3d d102 013c 64e1 8dba
00000060: b5dc 03bd 46a1 c4bd e7f2 7abd 3889 b3bc
00000070: bd39 ac3d 6264 5b3b b270 74bd 1a67 2a3d
00000080: c6c5 ddbc d0b8 b2bd 4552 843d 726d 133c
00000090: a88c afbd 9899 00bc 627d 363d b5bb c13d
000000a0: f698 8ebd c6ec db3d c1e9 723d c278 d53d
000000b0: 5e53 9bbd 047a c73d 4ad5 8bbd 56d1 0dbd
000000c0: e7eb e73c fecc 97bd 402e 41ba ef36 f33c
000000d0: 8860 17bd e2ab 233c 04f3 343e 2ca2 5e3c
000000e0: 4715 60bd c405 d43d 608c b43d 87e1 b43d
000000f0: 9e15 5ebd 94a5 c93d 2683 cb3d 0074 7d3c
00000100: 857e 873d e627 de3d 7703 eebd e4d3 603c
00000110: 4ee6 003e a8ed a53d 2a27 db3c b3d0 a3bd
00000120: b563 093e 098e e4bc bdf2 c63d 5032 abbd
00000130: 99f4 d5bc 3496 873c 4d7a e23c c244 443d
00000140: 8031 a63b 32f9 aeba ca19 653d 00f4 df3d

weight f4 [10, 84]
-0.057393305 0.07509331 -0.15431565 0.055581536 -0.1307118 0.10932288 -0.28221142 0.0022267185
0.3202861 0.15335369 0.015050003 0.19918075 0.14265314 -0.14281212 0.43102437 -0.37336507
-0.09960399 0.24251425 -0.30102986 -0.09250748 -0.21218684 0.3773884 0.18234196 0.054770906
-0.1784535 0.0007675718 0.20935085 -0.108846664 -0.086765856 0.054352146 0.02954196 -0.008553955
-0.048195712 0.083781265 -0.19691035 -0.05634708 -0.01418724 0.045952838 0.11663376 -0.28304893
0.015580213 -0.15145351 -0.036134027 0.25491494 -0.032295275 0.12245223 0.037184913 -0.12994905
0.09852575 -0.10176543 -0.05170816 -0.16142744 0.16040722 -0.17591055 -0.31920373 -0.13089474
0.028459229 -0.025343055 0.047697224 0.032540176 -0.102731965 -0.0474019 0.28424188 -0.12822597
0.059599686 0.15223946 -0.06506898 0.27192828 -0.031927526 0.0880793 -0.032223467 -0.1093397
-0.11867383 -0.065348566 -0.09502062 0.05057953 -0.12617537 -0.1479565 -0.09007147 0.07151556
0.05898001 0.17286031 -0.18053398 -0.08985094 -0.11092304 -0.10547311 0.014434293 -0.0318439
0.13073745 -0.3314842 0.39242932 0.21977612 -0.25109357 0.014745337 -0.11992007 -0.06846338
0.06299104 -0.013149974 -0.1666446 0.49334762 0.3588809 -0.100266226 -0.30789232 -0.13544132
-0.1540466 -0.20328724 -0.072285786 -0.09796825 0.14302164 -0.04534433 -0.04563559 -0.17282036
0.043581925 0.106093034 0.07552081 -0.01787733 -0.13368922 -0.10140419 -0.106087506 0.32838017
-0.21836334 0.0680669 0.0935142 0.023525987 0.074557565 -0.019896917 -0.057663284 0.24459553
0.21615168 -0.31463796 -0.11604681 -0.026064478 -0.14765415 0.06336401 0.03064479 0.15545955
-0.024116796 -0.39973104 0.37593782 0.21433328 -0.17157924 0.16699576 -0.053836133 0.091928504
-0.13903695 0.2527589 -0.16965984 -0.035685673 -0.35085246 -0.1985752 -0.22529459 -0.0077166953
0.113470376 -0.040955648 0.076554656 -0.1376176 0.03969247 -0.07431269 0.09183064 0.085498564
0.20469199 -0.1738174 -0.07555864 -0.19995144 0.078970656 -0.26987153 -0.07847221 0.2125378
0.023305463 0.16756427 -0.1133235 -0.039358392 0.44849628 -0.24769223 -0.35757852 -0.10322455
-0.024445305 0.09830266 0.037502203 0.00915856 -0.10749687 0.36728993 0.3624649 0.28985763
0.1432479 -0.14671186 0.041342262 0.11108208 0.42345896 0.09499884 0.007789303 0.08609068
-0.1959845 -0.07024519 -0.13319251 0.1584892 0.1912235 -0.026889773 -0.098389864 -0.22889099
0.17071995 0.052237775 0.39149746 0.16123492 -0.11864295 0.037641406 0.016856857 0.13044094
0.13422751 -0.17663999 -0.015600357 0.018793743 0.013555571 -0.21140775 0.15284255 -0.0035738298
-0.06752052 -0.044851154 -0.11121603 -0.024420355 -0.052492864 -0.1745022 -0.1690343 -0.108468406
-0.01157283 -0.10385016 -0.04957113 -0.17506745 -0.054187007 -0.1867339 -0.12578672 -0.08039656
0.040593725 -0.1586724 -0.18955666 0.17305984 -0.20515959 -0.03402744 -0.057326853 0.010596431
-0.035499603 0.046070866 -0.01467715 0.00473119 0.019374007 -0.10724894 -0.023951966 0.06254643
-0.062618434 -0.0014980184 -0.19303966 -0.10549916 0.24702005 -0.017904572 -0.28826922 0.23499584
00000000: 3e15 6bbd 85ca 993d ec04 1ebe 77a9 633d
00000010: 50d9 05be ade4 df3d 047e 90be 23ee 113b
00000020: 8afc a33e c008 1d3e 4a94 763c 0af6 4b3e
00000030: aa13 123e 573d 12be 3aaf dc3e b529 bfbe
00000040: 2dfd cbbd a855 783e 9620 9abe 9074 bdbd
00000050: 8247 59be 0d39 c13e dab7 3a3e 7557 603d
00000060: 84bc 36be df36 493a 1260 563e 00eb debd
00000070: 4cb2 b1bd 5ba0 5e3d fb01 f23c e325 0cbc
00000080: de68 45bd 8395 ab3d dea2 49be 32cc 66bd
00000090: 9971 68bc 0b39 3c3d aedd ee3d caeb 90be
000000a0: 2644 7f3c a116 1bbe 4601 14bd 3684 823e
000000b0: 0d48 04bd 3cc8 fa3d 354f 183d 5d11 05be
000000c0: dec7 c93d 656a d0bd f0cb 53bd 3c4d 25be
000000d0: ca41 243e e521 34be ac6e a3be 4509 06be
000000e0: 5423 e93c 3d9c cfbc 2a5e 433d d948 053d
000000f0: 2365 d2bd 7f28 42bd 2788 913e ab4d 03be
00000100: cd1e 743d a9e4 1b3e e342 85bd 2f3a 8b3e
00000110: 70c6 02bd ec62 b43d c1fc 03bd 7eed dfbd
00000120: 440b f3bd 78d5 85bd 2c9a c2bd 7b2c 4f3d
00000130: 1e34 01be e981 17be 6477 b8bd c076 923d
00000140: 0695 713d 4b02 313e e6dd 38be c503 b8bd
00000150: 9e2b e3bd 4902 d8bd d07d 6c3c c06e 02bd
00000160: 0ae0 053e 4cb8 a9be 7fec c83e fe0c 613e
00000170: 568f 80be 6d96 713c a798 f5bd 8736 8cbd
00000180: 7201 813d fd72 57bc e2a4 2abe 0f98 fc3e
00000190: 3dbf b73e 6158 cdbd 10a4 9dbe 21b1 0abe
000001a0: 64be 1dbe 882a 50be 920a 94bd 94a3 c8bd
000001b0: 4474 123e faba 39bd 62ec 3abd d2f7 30be
000001c0: f682 323d 4e47 d93d a8aa 9a3d 7a73 92bc
000001d0: d4e5 08be 00ad cfbd 6844 d9bd 7221 a83e
000001e0: a49a 5fbe a966 8b3d 5f84 bf3d 92b9 c03c
000001f0: a3b1 983d dcfe a2bc 5630 6cbd 4077 7a3e
00000200: de56 5d3e 3a18 a1be f3a9 edbd 2c85 d5bc
00000210: a632 17be fdc4 813d c80a fb3c ca30 1f3e
00000220: 9690 c5bc 8ca9 ccbe ec7a c03e 2f7a 5b3e
00000230: 78b2 2fbe f000 2b3e 4783 5cbd 0345 bc3d
00000240: b45f 0ebe 9d69 813e 4fbb 2dbe 242b 12bd
00000250: efa2 b3be 4c57 4bbe a0b3 66be 55dc fcbb
00000260: 2863 e83d 1cc1 27bd b0c8 9c3d a1eb 0cbe
00000270: 9294 223d 4031 98bd b411 bc3d df19 af3d
00000280: c79a 513e 30fd 31be 7dbe 9abd 12c0 4cbe
00000290: 5ebb a13d 9a2c 8abe 0ab6 a0bd 82a3 593e
000002a0: 19eb be3c f895 2b3e 2716 e8bd 4436 21bd
000002b0: 4ea1 e53e 08a3 7dbe 8814 b7be 6567 d3bd
000002c0: 8541 c8bc e852 c93d e99b 193d c90d 163c
000002d0: 5227 dcbd 6d0d bc3e 0095 b93e 3868 943e
000002e0: 94af 123e a23b 16be 8156 293d 007f e33d
000002f0: 9dcf d83e c08e c23d 693d ff3b 4f50 b03d
00000300: 29b0 48be b6dc 8fbd 9e63 08be fe4a 223e
00000310: 18d0 433e f147 dcbc a080 c9bd 6662 6abe
00000320: 36d1 2e3e 47f7 553d 5b72 c83e c41a 253e
00000330: 13fb f2bd e02d 1a3d 6417 8a3c 4f92 053e
00000340: f072 093e 1de1 34be a498 7fbc 56f5 993c
00000350: 3018 5e3c 467b 58be c282 1c3e ea36 6abb
00000360: 3348 8abd d8b5 37bd 3bc5 e3bd 320d c8bc
00000370: c202 57bd b4b0 32be 5417 2dbe af24 debd
00000380: f89b 3dbc 65af d4bd 190b 4bbd e244 33be
00000390: 32f3 5dbd 2c37 3fbe 3cce 00be f4a6 a4bd
000003a0: 9b45 263d 057b 22be 241b 42be 9936 313e
000003b0: 5b15 52be 5b60 0bbd 90cf 6abd a79c 2d3c
000003c0: 0868 11bd ceb4 3c3d 6e78 70bc 1908 9b3b
000003d0: 3db6 9e3c 55a5 dbbd ea36 c4bc 5818 803d
000003e0: 183e 80bd 2859 c4ba 30ac 45be f20f d8bd
000003f0: d3f2 7c3e 9cac 92bc 0698 93be c0a2 703e

bias f4 [10]
-0.121542685 0.25475964 -0.18670246 0.026854783 -0.055945493 -0.036354415 -0.2416169 -0.010565709
0.31258383 0.11079155
00000000: 5feb f8bd db6f 823e ee2e 3fbe 90fe db3c
00000010: 1a27 65bd 5ee8 14bd 6c6a 77be cc1b 2dbc
00000020: fd0a a03e aee6 e23d
