mnist_sample_cnn_server.pt (torch_old, 35209 bytes, 2 tensors)

weight f4 [10, 784]
00000000: c122 fa3b 6426 86bc 6585 553c 00af ad3b
00000010: deea d6bc 4019 2fba e4ec 103d d0d8 1abb
00000020: e008 de3a a494 d2bc 8a68 08bc 2ae8 0abd
00000030: 8616 c93c cbe8 0abd 9bdf f3bc d5e8 acbc
00000040: e385 ea3c bc57 4b3c e61e c23c 6a39 10bc
00000050: 665d 89bc 26c7 963c 4d8e 0abd 5ce6 043c
00000060: 6404 aabb c0f9 613c 0fe0 f4bc 9280 0b3d
00000070: 9af4 e23c 8496 383c 0014 ad39 008a 4f3a
00000080: bf7f f93c c5bd f4bc 5d83 ff3c e44d 20bc
00000090: d637 f7bc 8ca0 713c f70a 61bc de99 c5bb
000000a0: 1f7c 023d 33ae 023c 35d3 e83c b6f1 ec3c
000000b0: 8d6a b0bc a816 a8bc 249e e8bc d042 fe3b
000000c0: 68b3 28bc 9a67 e23c cc9e aa3c 9d61 d9bc
000000d0: f80c d63c e3f3 a9bc 40ff 94bc 9c85 00bd
000000e0: 7a57 b7bc a8da 9e3c e1ca da3a 8c62 ec3c
000000f0: af24 a3bc e241 e53c 8c8e a0bc 3a33 33bd
00000100: 7b76 273c 78c8 a53c dd6d b9bc ff5d d0bc
00000110: 4fef 3b3c 4ccc ddbc 5049 a1bc 2dc5 013c
00000120: 4e02 9fbb d636 4cbd 4d8d 80bc d81b 2dbd
00000130: 1c83 71bb de7d 9d3c 4b42 6f3c 58b5 ee3b
00000140: b866 f33c 3ffc 253c 6ef9 c4bc 3cad a3bc
00000150: da9e 01bd 4846 0b3c 0baa 42bc f557 c43c
00000160: 3e46 f63c 464c 1abb 7234 9e3c b528 a33c
00000170: f4d4 83bc d8c4 143a ceb5 56bc 9238 a8bb
00000180: 4b38 02bd 58f5 91bd 5614 93bd c3e0 67bd
00000190: f77b 00bd 98b8 66bc d07c acbd d583 48bd
000001a0: 1d43 fbbc a81b 53bd 4469 60bd cf6c 46bd
000001b0: 3d17 98bc 8cd2 953b a84e a9bc 438e eebc
000001c0: 7a69 ecbc af8f e13c 19d6 8b3c 2853 0e3d
000001d0: b617 ccbc 5781 cabc 7a7a d1bc 6955 c83b
000001e0: 0cea 4bbd 6ed4 12bd 9835 88bd 8157 57bd
000001f0: 40ec 8fbd 0236 03bd 8c34 bf3c f34b cc3d
00000200: 21f7 c63c f751 8fbd c192 81bd e474 adbd
00000210: 9601 7bbd f9c6 a0bc 6afe 32bd 40cd 943a
00000220: 9ece 13bd 2676 a93c c730 e23a a8c5 9fbc
00000230: 6524 b8bc 3867 12bc 8eca 3bbc f5ef abba
00000240: bcd2 d9bc 647b 783b a2fc 3bbd f181 51bd
00000250: ff31 70bc b540 9ebd 4484 bbbd dc22 62bd
00000260: fc99 5ebc c651 af3d 3a7c ea3d 5ef7 e63d
00000270: 704b b63d 3456 203d 3ed5 5e3d 4a5b cc3d
00000280: 7709 453d 2911 0d3d 9ded 0dbc c4e2 79bd
00000290: 2b2d b2bc 5131 72bc 0ad9 c13c 1827 fabc
000002a0: 4ebf e6bc 9e07 9ebc 9de2 a53b 32f1 d13c
000002b0: 3437 5d3c 57d8 e1bb 4838 773c f489 c0bb
000002c0: 99cd 86bd c37a b2bd 5ce9 abbc fb99 093d
000002d0: cbf8 d33c b0f9 d93d e288 163e 2734 0b3e
000002e0: 9ca2 fd3d c736 2e3e 045e e93d 8a09 d53d
000002f0: d869 863d da47 073e 41f9 1e3d b94e ec3b
00000300: 4375 1dbd 0d6b 3cbd 2994 ebbc 5461 e7bb
00000310: 6575 653c a106 8e3c c933 1b3c cf23 4dbc
00000320: 6a31 6c3b 9bda 18bd 126c fc3c 76bf eabc
00000330: 105b 86bd b728 84bd 6a0b 24bd 31b7 bbbc
00000340: b690 a23d eea0 8f3d 2680 293d a46b 073e
00000350: a9e1 8b3e 423c 533e 907a 1a3e d274 f73d
00000360: a723 983d fb4d d63d 506a 183e aa21 c73c
00000370: 9aa7 533c c4f1 38bd 9614 3bbd a252 c0bc
00000380: e1cc 6d3b fe04 fdbc f639 86bc 9892 16bc
00000390: a6a1 553a 8e26 57bd c89d 9d3a 1b58 6bbd
000003a0: d6f6 15be f946 f6bc 9878 ab3c 8a1c 9d3b
000003b0: f0e2 6d3d 61db 10bc c963 c43d b2ea 4b3e
000003c0: 5e2f a03e 20a3 af3e 6b3a 803e 4b46 c83d
000003d0: 2756 4fbd 5680 543d 1382 ac3d def8 d43d
000003e0: 728f 913c aa39 92bc f56f 723b d6f5 b2bb
000003f0: 97c8 f63c c61a aabc 4b1a 913c 74e8 b7bc
0.0076335375 -0.016375728 0.013032292 0.0053004026 -0.02623504 -0.0006679483 0.035382167 -0.0023627765
0.0016939901 -0.025705643 -0.008325705 -0.033912815 0.024546873 -0.033913415 -0.02976971 -0.021107117
0.028628295 0.012411054 0.023696374 -0.008802751 -0.016768169 0.018405508 -0.033827115 0.008111563
-0.0051885117 0.013792455 -0.029891996 0.03405816 0.027704526 0.0112663545 0.00033012033 0.0007916987
0.030456422 -0.029875645 0.031190569 -0.009784196 -0.030177992 0.01474775 -0.013735524 -0.0060303053
0.031856652 0.007976103 0.028421024 0.02892385 -0.021535182 -0.020518616 -0.02839572 0.0077594295
-0.01029668 0.027637292 0.020827673 -0.026535803 0.02612923 -0.020746177 -0.018188119 -0.03137742
-0.02238058 0.019391373 0.0016692543 0.028855585 -0.019914953 0.027985517 -0.019599222 -0.043750025
0.010221119 0.020237193 -0.022635395 -0.025435446 0.01147063 -0.027074955 -0.019688278 0.0079205455
-0.0048525697 -0.049856983 -0.015692377 -0.042262882 -0.003685183 0.019225057 0.014603208 0.0072848015
0.029712066 0.010130941 -0.024044719 -0.019980066 -0.031645633 0.008500643 -0.011881362 0.023967722
0.030062791 -0.0023543998 0.019312117 0.019916872 -0.016092755 0.0005675084 -0.013104869 -0.005133697
-0.031791966 -0.07126874 -0.07181613 -0.056610834 -0.031368222 -0.0140820965 -0.084222436 -0.04895385
-0.03067165 -0.051540047 -0.05478789 -0.04844361 -0.018565768 0.0045722183 -0.020667389 -0.02912057
-0.028858889 0.027534334 0.017069863 0.034747273 -0.02491365 -0.024719877 -0.025571097 0.0061136973
-0.04978375 -0.03584712 -0.06650847 -0.052573685 -0.07027483 -0.032033928 0.023340486 0.09975424
0.024287762 -0.069980554 -0.06326819 -0.08469561 -0.06128081 -0.019626128 -0.04369966 0.0011352673
-0.036085717 0.02068622 0.0017256968 -0.01950343 -0.022478292 -0.008935742 -0.011461867 -0.0013117777
-0.026589744 0.0037915343 -0.045895226 -0.051149312 -0.0146603575 -0.07727186 -0.09156087 -0.055209026
-0.013586517 0.08560519 0.114494756 0.1127765 0.08901107 0.03914471 0.054402582 0.099783495
0.04810473 0.034440193 -0.008662608 -0.061007276 -0.021750053 -0.014782266 0.023663063 -0.03053622
-0.028167393 -0.019290742 0.005062415 0.025627706 0.013501931 -0.006892245 0.015089102 -0.0058758203
-0.065821834 -0.08714821 -0.020985298 0.033594113 0.02587547 0.10643327 0.14700654 0.13594113
0.12384531 0.17013083 0.11394885 0.1040221 0.06563157 0.13211003 0.038811926 0.007211533
-0.038441908 -0.04600053 -0.028757172 -0.007061163 0.01400504 0.017337145 0.009472796 -0.012520744
0.0036040195 -0.037317853 0.03081325 -0.028655749 -0.065603375 -0.06453078 -0.040049948 -0.0229145
0.07937758 0.07013117 0.041381977 0.13224655 0.27320603 0.20628455 0.15085816 0.120828286
0.07428675 0.10464092 0.14884305 0.024308044 0.012918377 -0.04515244 -0.04567393 -0.023476902
0.0036285447 -0.03088617 -0.01638506 -0.009190224 0.00081493927 -0.052527003 0.0012025172 -0.05745707
-0.14644942 -0.03006314 0.020931527 0.004794662 0.058077753 -0.0088413665 0.09589345 0.19913748
0.31286138 0.34304142 0.2504457 0.09779032 -0.05061927 0.051880203 0.08423247 0.1039903
0.017768595 -0.017849762 0.0036993 -0.005461435 0.030124946 -0.02076472 0.017712733 -0.02244971

bias f4 [10]
00000000: 5899 2bbe cf28 c43e ee0d aebc 6a7e 4ebe
00000010: 9021 d93d 7654 823f 74a7 04be f89b 063f
00000020: 8cce 8cbf 2f5d b6be
-0.16757715 0.38312384 -0.021246877 -0.2016541 0.10602105 1.0182025 -0.12954503 0.5258174
-1.1000533 -0.35617968
