mnist_sample_cnn_server.pt (torch_old, 141121 bytes, 10 tensors)

weight f4 [3, 1, 5, 5]
0	0xbe04d408	-0.12971509
1	0xbd9489a0	-0.072528124
2	0x3de9f012	0.11422743
3	0x3cda1d50	0.026625305
4	0xbe08a6f8	-0.13344944
5	0x3e1b57f3	0.15170269
6	0x3e033a61	0.12815239
7	0x3e4b7fab	0.1987292
8	0xbda6a4ba	-0.08136888
9	0xbde706ca	-0.11280592
10	0xbd9493a4	-0.07254723
11	0xbe1c4e68	-0.15264285
12	0xbc10e430	-0.008843467
13	0x3d3edde0	0.046598315
14	0x3d84e97a	0.064898446
15	0x3dd967e2	0.10615517
16	0x3deb8032	0.11499061
17	0x3bae1740	0.00531283
18	0xbaeb7700	-0.0017964542
19	0x3d88c69e	0.06678508
20	0x3e010fa5	0.12603624
21	0x3e0a8c11	0.13529994
22	0x3d9b8ca6	0.07595186
23	0x3e07c63f	0.13259219
24	0x3da28ace	0.07936631
25	0xbdc2a52a	-0.09504159
26	0xbe1a01db	-0.1503977
27	0x3d6cdb64	0.057826415
28	0xbe2f6a7b	-0.17130463
29	0x3ce576a8	0.028010681
30	0x3b22d980	0.0024848878
31	0xbd33e260	-0.04391706
32	0xbe259208	-0.16168988
33	0x3db952e6	0.09049015
34	0x3e1718a5	0.14755495
35	0xbe223c55	-0.15843327
36	0xbe45183f	-0.1924753
37	0x3db9f902	0.090806976
38	0xbc91ffc0	-0.017822146
39	0x3d007c54	0.03136857
40	0x3de7cb22	0.113180414
41	0xbdeed22a	-0.11661179
42	0x3e1b8673	0.15188007
43	0xbdd6452a	-0.10462411
44	0xbdce85a3	-0.10084083
45	0xbb55e140	-0.003263548
46	0x3ccceb40	0.02501452
47	0xbda94a6d	-0.08266149
48	0x3db06582	0.08613111
49	0xbd5740ac	-0.05255191
50	0xbc070020	-0.008239776
51	0xbd821b86	-0.06352906
52	0x3d079dd8	0.033109516
53	0x3d33cf68	0.04389897
54	0x3e4a3aeb	0.19749038
55	0xbd45f548	-0.04832962
56	0xbd5a6680	-0.053320408
57	0x3e4ae8d1	0.19815375
58	0x3e462fc9	0.19354166
59	0x3df59d6a	0.11992915
60	0x3e391ee9	0.18078198
61	0x3dfebcb2	0.124383345
62	0x3e283bab	0.16429012
63	0x3df303d2	0.11865963
64	0xbd909616	-0.070598766
65	0xbbb518c0	-0.005526632
66	0x3e1711b7	0.14752851
67	0x3e1e3355	0.15449269
68	0xbd9b8d8d	-0.07595358
69	0xbe2fb583	-0.17159085
70	0x3d990856	0.07472293
71	0x3e453565	0.1925865
72	0x3d9ee8c6	0.07759242
73	0x3dcc157e	0.09965037
74	0xbd9cb8fd	-0.07652471

bias f4 [3]
0	0xbb90e240	-0.0044215024
1	0x3e022fe9	0.12713589
2	0xbe3da31a	-0.1851925

weight f4 [10, 3, 5, 5]
0	0xbdcd2ad8	-0.100179374
1	0xbd498912	-0.049202986
2	0x3d63fb40	0.055659533
3	0xbd128e96	-0.03578051
4	0xbd82c29e	-0.063847765
5	0xbd8a61f4	-0.06756964
6	0x3d62e2d4	0.0553921
7	0xbcb0cfdc	-0.02158349
8	0xbd805bc4	-0.06267503
9	0x3d38bf8c	0.04510455
10	0x3dec3bb6	0.115348265
11	0xbdaacb48	-0.08339554
12	0x3dbccb76	0.092184946
13	0xbcfd03e4	-0.030885644
14	0xbda0a47e	-0.078438744
15	0xbd0a5346	-0.033770822
16	0x3dceff2a	0.101072624
17	0xbd89cb5c	-0.06728241
18	0x3d155ee0	0.036467433
19	0xbda65544	-0.08121732
20	0xbba46700	-0.0050171614
21	0xbd56138c	-0.052264735
22	0x3d649e54	0.055815056
23	0x3c92c028	0.017913893
24	0x3c795ca0	0.015219837
25	0x3bc459e0	0.0059921592
26	0xbdd69792	-0.104781285
27	0x3d515d10	0.051114142
28	0x3d608484	0.054813877
29	0x3d5cbaec	0.0538892
30	0x3d9042d2	0.07043995
31	0x3d199f54	0.037505463
32	0x3d84c110	0.06482136
33	0xbb721a80	-0.0036942065
34	0xbcd30540	-0.02575934
35	0xbdce5a70	-0.10075843
36	0x3d8bac7a	0.06820007
37	0x3cb466f8	0.022021756
38	0x3d09788c	0.033562228
39	0x3d7a7eb4	0.06115599
40	0xbd9b0b0e	-0.07570468
41	0x3d9fdbf2	0.07805623
42	0x3bda6750	0.006665148
43	0xbd611e35	-0.05496045
44	0x3dc3da72	0.095631495
45	0x3d95861e	0.073009714
46	0x3d1ae8b0	0.037819564
47	0x3d9438cc	0.07237396
48	0x3d8cde0c	0.068782896
49	0x3dd5b932	0.10435714
50	0x3dadc5da	0.08485003
51	0xbdbbb8dc	-0.091661185
52	0x3d6df420	0.058094144
53	0xbd84f076	-0.06491177
54	0xbdaca6ab	-0.08430227
55	0x3b718e20	0.0036858395
56	0xbd07d326	-0.03316035
57	0x3d36e61c	0.044653043
58	0xbca7e3a0	-0.020494282
59	0x3db94a3c	0.09047362
60	0xbd951912	-0.072801724
61	0xbdbe0b67	-0.092795186
62	0xbd993823	-0.0748141
63	0xbdc36c0d	-0.095420934
64	0x3d65d60c	0.056112334
65	0x3dd866ee	0.10566507
66	0xbda2433f	-0.079229824
67	0x3c9a0278	0.018800005
68	0x3dbbec1a	0.09175892
69	0xbb98cb40	-0.004662901
70	0x3d5cb12c	0.0538799
71	0x3ca4bac0	0.02010858
72	0xbdbe4c51	-0.092919
73	0xbce0abd4	-0.027425684
74	0x3c1c7970	0.009550437
75	0xbcc73fa0	-0.024322331
76	0xbd3b6d7c	-0.04575871
77	0x3dd62cee	0.104577884
78	0x3d85d1e0	0.06534171
79	0xbdbaa4cd	-0.091134645
80	0x3dec5dee	0.11541353
81	0xbd14f758	-0.036368698
82	0xbd738872	-0.059456296
83	0xbc028800	-0.007966995
84	0x3d02dcd8	0.031948894
85	0x3cfddf58	0.030990288
86	0xbd283294	-0.04106386
87	0xbd48da44	-0.04903628
88	0xba659d80	-0.0008759126
89	0xbd294ed2	-0.041334935
90	0xbd9c4284	-0.07629874
91	0x3dbde47e	0.09272097
92	0x3a518b00	0.000799343
93	0x3d961374	0.07327929
94	0x3c9cd060	0.01914233
95	0xbd6738fb	-0.056450825
96	0xbd84f843	-0.06492665
97	0xbddfdf2c	-0.109312385
98	0xbd7a6ecb	-0.061140817
99	0x3d735164	0.059403792
100	0xbdd1ff17	-0.10253733
101	0xbc510b30	-0.012759015
102	0x3da4c9cc	0.08046302
103	0x3c86c7a8	0.016452625
104	0x3d4b58f8	0.049645394
105	0x3da5a380	0.08087826
106	0xbd531c3e	-0.051540606
107	0x3d69f3c8	0.057117254
108	0x3d8e7060	0.069550276
109	0x3d3c4d74	0.045972303
110	0x3d9ddf18	0.077085674
111	0x3d8052cc	0.06265792
112	0xbde6c18c	-0.11267385
113	0xbda697b8	-0.08134407
114	0x3d314ff4	0.04328914
115	0x3ce66620	0.028124869
116	0x3ddb9836	0.10722391
117	0x3a382700	0.00070248544
118	0x3da17dc2	0.078853145
119	0x3be55c50	0.00699953
120	0x3d120844	0.035652414
121	0xbdd19875	-0.10234157
122	0x3d93e81e	0.07222007
123	0xbd061cfc	-0.032742485
124	0x3ce16fb8	0.027519092
125	0xbcb2acfc	-0.021811001
126	0x3cd0a158	0.02546756
127	0xbd955764	-0.07292059
128	0x3da73030	0.08163488
129	0x3d3fee88	0.04685834
130	0x3db993a6	0.09061365
131	0x3d710be4	0.05884923
132	0x3d6bf614	0.057607725
133	0xbc9f0084	-0.019409426
134	0xbdc2c127	-0.09509497
135	0xbdb81e9a	-0.08990212
136	0xbd1011ae	-0.03517311
137	0x3c4b7540	0.012418091
138	0xbc9915e0	-0.018687189
139	0xbcd9ce70	-0.026587695
140	0x3cd2d0f8	0.02573441
141	0x3dd561b6	0.104190275
142	0x3daad85c	0.083420485
143	0x3de5806e	0.11206137
144	0xbd839db8	-0.06426567
145	0x3db38bc0	0.087668896
146	0x3c824da0	0.015906155
147	0xbde25881	-0.11052037
148	0x3cf60718	0.03003268
149	0xbddab112	-0.10678305
150	0xbb8c4c20	-0.0042815357
151	0x3de601dc	0.112308234
152	0xbd7f627b	-0.062349778
153	0xbda1d453	-0.07901826
154	0x3d258bcc	0.040416524
155	0xbdbe2bb8	-0.092856824
156	0xbd9daddb	-0.07699176
157	0x3da6f226	0.08151655
158	0xbcea1304	-0.02857352
159	0x3ce210e0	0.027595937
160	0x3d688634	0.05676861
161	0x3d933f72	0.071898356
162	0xbd09edbe	-0.033673994
163	0x3cd208a8	0.025638893
164	0x3dd604cc	0.10450134
165	0xbde0958e	-0.10966025
166	0x3cb22ef8	0.021750912
167	0xbda04472	-0.07825555
168	0x3d82bf0e	0.06384097
169	0x3c790700	0.015199423
170	0x3dea63ee	0.11444841
171	0x3dd64120	0.1046164
172	0x3d7f9e10	0.0624066
173	0x3da087fe	0.078384385
174	0xbd204586	-0.039128803
175	0xbcf407a4	-0.0297888
176	0x3c85d510	0.016336948
177	0x3cde3850	0.027126461
178	0xbdb3bafa	-0.08775897
179	0xbca8f46c	-0.020624362
180	0x3dd8a6fe	0.10578726
181	0x3d1bb824	0.038017407
182	0x3da6a6a6	0.081372544
183	0x3ddab9de	0.106799826
184	0x3d3f8c4c	0.046764657
185	0x3cde8980	0.027165174
186	0x3de2bc1e	0.11071037
187	0x3db355ca	0.08756597
188	0x3db163bc	0.08661601
189	0x3d9444dc	0.072396964
190	0x3d8cb7e2	0.0687101
191	0xbd663859	-0.05620608
192	0xbc6e1b20	-0.014532834
193	0xbdacc6ce	-0.084363565
194	0xbda47f95	-0.08032147
195	0xbc86d078	-0.016456828
196	0x3cb784e8	0.022402242
197	0x3de59812	0.11210646
198	0xbdc9beeb	-0.09850868
199	0x3dd54dd6	0.10415237
200	0xbde89982	-0.11357404
201	0x3dc4b5d2	0.09604992
202	0x3ccd6450	0.025072247
203	0x3dd36802	0.10322572
204	0xbd1195e0	-0.035543323
205	0x3d858e8a	0.06521328
206	0xbd002350	-0.031283677
207	0xbdb86c20	-0.09004998
208	0xbdd92ff5	-0.1060485
209	0x3d813bc2	0.06310226
210	0x3dc701fa	0.09717174
211	0xbd4690b0	-0.04847783
212	0xbde82bfb	-0.113365136
213	0xbd201d32	-0.039090343
214	0x3db409d8	0.0879094
215	0xbdde5c7a	-0.10857482
216	0xbcd861b8	-0.026413783
217	0x3d99be9e	0.075070605
218	0x3d94d15c	0.07266495
219	0x3c206910	0.009790674
220	0x3c7ce710	0.015435949
221	0xbcc3d200	-0.023903847
222	0x3d76fe2c	0.06030099
223	0xbdc8798a	-0.09788807
224	0x3d4a32e4	0.04936494
225	0x3c91c758	0.01779525
226	0x3deac0dc	0.11462566
227	0xbd1e56f0	-0.03865713
228	0x3ba65800	0.0050764084
229	0x3c01f670	0.00793229
230	0x3dc7a572	0.09748353
231	0x3c603590	0.013684645
232	0x3d4cb264	0.049974814
233	0xbddb82c4	-0.10718301
234	0xbcc74b08	-0.02432777
235	0x3d7295e8	0.059224993
236	0xbdd6be2a	-0.1048549
237	0xbda4f647	-0.08054786
238	0xbd8534bd	-0.065042
239	0xbd796398	-0.060885996
240	0xbda9ed2e	-0.082971916
241	0x3ddb39b0	0.107043624
242	0x3cef8578	0.029238448
243	0x3dbd0e6a	0.09231265
244	0x3d94ceae	0.072659835
245	0xbd1e740e	-0.038684897
246	0x3d6c9acc	0.057764813
247	0x3d937cf4	0.07201567
248	0xbbafb730	-0.005362414
249	0x3dd75c06	0.10515599
250	0x3d469a80	0.048487186
251	0xbd296434	-0.041355327
252	0xbc76e8f0	-0.015070185
253	0x3d9ffee2	0.07812287
254	0xbdc25e46	-0.094906375
255	0x3de64c96	0.11245076

bias f4 [10]
0	0x3d1956b0	0.037436187
1	0xbc7a3c78	-0.015273206
2	0x3dc7631c	0.097357005
3	0x3cb28830	0.021793455
4	0xbdb9bc01	-0.09069062
5	0xbdaabe8c	-0.08337125
6	0x3d297888	0.041374713
7	0xbd8e46d6	-0.06947105
8	0xbdbdf1e6	-0.09274654
9	0x3dcf99a4	0.101367265

weight f4 [120, 160]
0	0xbc9541d8	-0.018219873
1	0x3d2ce148	0.042207032
2	0x3d927aab	0.07152303
3	0x3d35bbde	0.044368617
4	0x3c9248b8	0.01785694
5	0xbd924b16	-0.07143228
6	0xb9217c00	-0.0001540035
7	0x3d3756d8	0.044760555
8	0x3d85637f	0.06513118
9	0xbd711064	-0.058853522
10	0x3c417e90	0.01180996
11	0x3ca7d620	0.020487845
12	0xbc1487a8	-0.009065546
13	0x3d390496	0.04517039
14	0x3d36ca60	0.044626594
15	0xbc578b58	-0.013155781
16	0xbd8d3eed	-0.06896768
17	0x3d2918c4	0.041283384
18	0xbd22fcf5	-0.03979202
19	0xbd9fdf2d	-0.07806239
20	0x3c85bf5c	0.016326599
21	0x3da1c0df	0.07898115
22	0xbc59efa0	-0.01330176
23	0xbcc7ca76	-0.024388533
24	0xbd417ee0	-0.047240138
25	0xbc52bec0	-0.012862861
26	0x3c7d7058	0.015468679
27	0x3d93d099	0.07217521
28	0x3d1e67be	0.038673155
29	0x3d6d0e5a	0.057875015
30	0x3d4a75aa	0.04942862
31	0x3d6ee386	0.058322452
32	0xbd65b8d4	-0.05608447
33	0x3af27f40	0.0018501058
34	0x3d218a6c	0.03943865
35	0x3d9372d3	0.07199635
36	0xbcd6b7b8	-0.02621065
37	0xbd80d005	-0.062896766
38	0xbd719f1a	-0.05898962
39	0xbbe2aa00	-0.0069172382
40	0x3ce1022c	0.027466856
41	0x3d52c646	0.05145862
42	0xbd8fc5d0	-0.070201516
43	0x3b722f20	0.0036954358
44	0xbd97205d	-0.0737922
45	0x3b1181c0	0.0022202581
46	0xbc0a2d00	-0.00843358
47	0x3d9a32f1	0.075292476
48	0xbcf0d234	-0.029397108
49	0xbd8c3606	-0.06846242
50	0xbcbe48da	-0.023228098
51	0xbd6a673c	-0.05722736
52	0x3d7c6562	0.061620124
53	0x3d1c37b4	0.03813906
54	0x3d332d20	0.043744206
55	0x3d0d806c	0.0345463
56	0xbb437480	-0.0029824078
57	0x3d2a68e0	0.041603923
58	0x3c53bfa8	0.012924112
59	0x3b844ea0	0.004037693
60	0x3d0506fe	0.03247737
61	0x3c32eb58	0.010920368
62	0x3c26e998	0.010187529
63	0x3b355f40	0.0027675182
64	0x3d84090f	0.0644704
65	0xbd57986b	-0.05263559
66	0xbca232d2	-0.019799624
67	0x3cf11678	0.02942966
68	0xbd9f8d8e	-0.07790671
69	0xbd5ee370	-0.05441612
70	0x3b8e8e30	0.004350446
71	0xbd783dd0	-0.060605824
72	0xbd380584	-0.044927135
73	0x3d90d5db	0.0707204
74	0x3c98cb58	0.01865165
75	0xbd7c682a	-0.061622776
76	0x3d2697b6	0.040672027
77	0x3da15ba5	0.07878808
78	0x3ceb99c8	0.028759852
79	0x3cc02068	0.023452953
80	0x3d9e011b	0.077150546
81	0x3d5c5922	0.05379594
82	0xbd9f5807	-0.07780462
83	0xbd86c3ae	-0.06580292
84	0x3b948030	0.0045318827
85	0x3d862cef	0.06551539
86	0xbc35c070	-0.011093244
87	0xbba64ca0	-0.0050750524
88	0x3d737f46	0.05944755
89	0x3cf1b76c	0.029506408
90	0xbceb1a2a	-0.028699
91	0xbca3bfe8	-0.019988969
92	0xbd3275f3	-0.043569516
93	0x3d9b5857	0.07585209
94	0x3c89624c	0.016770504
95	0xbc04f2a8	-0.008114494
96	0x3cbd2d8c	0.023093008
97	0xbcb1b9dc	-0.02169507
98	0x3d219efe	0.039458267
99	0x3c7ca140	0.015419304
100	0xbcd2583c	-0.025676839
101	0x3b8d0a20	0.0043041855
102	0xbd09b651	-0.033621136
103	0xbd66cdb2	-0.05634851
104	0xbd28cc65	-0.04121055
105	0x3cd49488	0.025949731
106	0xbd6a77d0	-0.05724317
107	0x3c45ccc0	0.012072742
108	0x3d9fd4cb	0.07804259
109	0xbcc674d6	-0.024225634
110	0xbd97cb08	-0.07411772
111	0x3d76dc3e	0.060268633
112	0x3d8cc571	0.068735965
113	0xbaf7ae80	-0.001889661
114	0xbc9c45fe	-0.019076344
115	0x3b0c2da0	0.00213895
116	0xbaf7d780	-0.0018908828
117	0x3d8c6f8b	0.06857213
118	0xbd6676c3	-0.056265604
119	0x3c8c7528	0.017145708
120	0xbb806b30	-0.0039190277
121	0x3d7d307e	0.061813824
122	0x3d88e8af	0.06685006
123	0xbd2289d3	-0.03968222
124	0x3c4ee718	0.012628339
125	0xbc2bcea0	-0.010486275
126	0xbd63384f	-0.055473622
127	0xbd191bb3	-0.03737993
128	0xbb4fe0c0	-0.0031719655
129	0xbd997116	-0.074922726
130	0x3d46453e	0.04840588
131	0xbd2dc2da	-0.042422153
132	0x3d2f1bb4	0.04275103
133	0xbca40af2	-0.02002475
134	0x3c881b0c	0.01661446
135	0x3c9c1f84	0.019057997
136	0x3d27e414	0.040988997
137	0x3d85abdd	0.06526921
138	0xbca3822e	-0.019959535
139	0xb9a3c200	-0.00031234324
140	0x3d62b836	0.05535146
141	0x3b904500	0.0044027567
142	0x3d9314c9	0.07181699
143	0xbc399578	-0.01132714
144	0x3d0b4f6a	0.034011282
145	0x3cb3fd40	0.021971345
146	0xbd1744de	-0.03693091
147	0x3b2dd100	0.0026522279
148	0xbb6bae60	-0.003596209
149	0xbd0bedf4	-0.034162477
150	0x3d616532	0.055028148
151	0x3ca2af80	0.019859076
152	0xbbd23890	-0.006415434
153	0xbcc86082	-0.024460081
154	0x3cce3520	0.025171816
155	0x3c10a6e0	0.008828849
156	0x3d6e624a	0.058199205
157	0xbd4d0b4c	-0.0500596
158	0x3d6385de	0.055547588
159	0x3cca7404	0.024713524
160	0x3d3ef6b6	0.046622
161	0x3c1edee0	0.009696692
162	0x3d9dd54b	0.07706698
163	0x3cc90d38	0.024542436
164	0x3cbb5178	0.022865996
165	0xbb907530	-0.004408501
166	0x3d9630cd	0.07333527
167	0x3d3ee416	0.04660424
168	0xbc9563e4	-0.018236108
169	0x3c8ca388	0.017167822
170	0xbbf1b7f0	-0.0073766634
171	0xbc95e7f6	-0.018299084
172	0x3d4b7abe	0.049677603
173	0xbd9699b4	-0.07353535
174	0xbba4b3a0	-0.005026296
175	0x3d64ef06	0.055892013
176	0x3d300504	0.042973533
177	0x3ca91a88	0.020642534
178	0x3bb1a440	0.0054211915
179	0xbd1277c2	-0.03575874
180	0xbc1ff4a8	-0.00976292
181	0xbd1d323c	-0.038377985
182	0x3b8d4380	0.004311025
183	0xbb415be0	-0.0029504225
184	0x3d8cb6c1	0.06870795
185	0x3d502832	0.050819583
186	0xbd362bfa	-0.044475533
187	0x3d2ff5e2	0.0429591
188	0x3d57d6fa	0.052695252
189	0xb9cb6200	-0.00038792193
190	0x3cfabcec	0.030607663
191	0x3d84e819	0.064895816
192	0x3d25b942	0.04045988
193	0xbd2f3f57	-0.042785015
194	0x3d4dd91a	0.050255872
195	0xbd7771f7	-0.06041142
196	0xbd8fa093	-0.07013049
197	0xbb8781e0	-0.0041353554
198	0xbd4ff832	-0.050773807
199	0x3d832535	0.06403581
200	0x3d9ec1f3	0.07751837
201	0xbd33d644	-0.04390551
202	0x3d4a5e76	0.04940649
203	0x3d0cea7c	0.03440331
204	0x3d043d14	0.03228481
205	0x3c1e8ca8	0.00967709
206	0x3d53915e	0.051652305
207	0x3d90d3f9	0.070716806
208	0xbd486f68	-0.04893437
209	0x3d208620	0.03919041
210	0x3d958181	0.073000915
211	0xbd1aec96	-0.037823282
212	0xbc936248	-0.0179912
213	0xbd9a3e98	-0.0753147
214	0x3cf77670	0.030207843
215	0xba260a80	-0.0006333962
216	0xbd856055	-0.065125145
217	0x3d920a2d	0.07130847
218	0x3d2d3f2c	0.042296574
219	0xbd078369	-0.033084307
220	0x3c8129c8	0.015766993
221	0x3d15099e	0.036386125
222	0x3bd597a0	0.0065183192
223	0xbd1b1b5e	-0.037867896
224	0xbcfa8ed0	-0.030585676
225	0x3ce65d28	0.028120592
226	0xbd83e54b	-0.064402185
227	0xbd2a67e1	-0.041602973
228	0xbd86e346	-0.06586318
229	0xbd895f5d	-0.06707642
230	0xbd6c1700	-0.057639122
231	0xbd8756e1	-0.06608368
232	0x3cf43158	0.029808685
233	0xbb43e3c0	-0.0029890388
234	0xbbc0d430	-0.0058846697
235	0xbd5f78b7	-0.054558482
236	0x3d79ca5e	0.060984008
237	0x3ae08a80	0.001713112
238	0xbc3f2608	-0.011666782
239	0x3d78d2f6	0.060748063
240	0x3d8c7a91	0.06859315
241	0xbd6707e2	-0.056404002
242	0xbd1da3f3	-0.038486432
243	0xbd12f610	-0.035879195
244	0xbd55c045	-0.052185316
245	0x3d814ce9	0.063134976
246	0x3c874448	0.016512051
247	0xbd718f9a	-0.05897484
248	0xbd3cff6c	-0.046142027
249	0xbd3aa4e3	-0.045567404
250	0xbcf2605a	-0.02958696
251	0x3d82a0b5	0.06378309
252	0xbbb2fa80	-0.005461991
253	0x3d6b81b2	0.057496734
254	0x3c8936c8	0.016749755
255	0xbcab31c0	-0.020897746

bias f4 [120]
0	0xbcf81a16	-0.030285876
1	0x3d88d837	0.06681865
2	0xbd8058cd	-0.062669374
3	0xbd3147d3	-0.043281388
4	0x3d66dc36	0.056362353
5	0xbd8f8279	-0.070073076
6	0x3d5b5aaa	0.05355326
7	0x3d4304ae	0.047611885
8	0xbd217ca5	-0.03942551
9	0x3bce8b50	0.0063032284
10	0x3cc1f1f4	0.023674943
11	0x3b9724a0	0.0046125203
12	0xbd581ae9	-0.05276004
13	0xbcb05c6a	-0.021528441
14	0x3d6c43fa	0.057682015
15	0x3bfcf050	0.007719077
16	0x3d4546a2	0.048163064
17	0xbd177b59	-0.036982868
18	0x3d2c9dfc	0.042142853
19	0xbd8742bf	-0.06604528
20	0x3d3592d2	0.044329472
21	0x3d1384c8	0.036015302
22	0x3d530962	0.05152262
23	0x3d4689e2	0.04847134
24	0xbd3f1c1a	-0.04665766
25	0x3cfb8f18	0.03070788
26	0x3c44a2b8	0.012001686
27	0xbcc67d5a	-0.024229694
28	0xbd95f981	-0.0732298
29	0x3c8bea20	0.017079413
30	0xbc0d4ec0	-0.0086247325
31	0x3cb62944	0.022236474
32	0xbc0b1940	-0.008489907
33	0x3d9244f1	0.07142056
34	0x3d194afe	0.037425034
35	0xbd32e7af	-0.043677982
36	0x3d263190	0.04057461
37	0x3cdadef4	0.02671764
38	0xbb88d2f0	-0.0041755363
39	0xbd2e4090	-0.04254204
40	0xbd838740	-0.06422281
41	0xbd5afb26	-0.05346217
42	0x3d567da2	0.052365907
43	0xbd0f31b5	-0.034959514
44	0xbd4138ac	-0.047173187
45	0x3d31319c	0.0432602
46	0x3d1c6f40	0.038192034
47	0xbd8855f6	-0.06657021
48	0xbd94cc5f	-0.07265543
49	0xbd5bfcdd	-0.053707946
50	0xbd20ba78	-0.03924033
51	0xbc501c30	-0.012702033
52	0x3cc48f8c	0.02399423
53	0xbd90f465	-0.070778646
54	0x3d5647ea	0.052314676
55	0x3d8896f1	0.06669415
56	0x3c0ff158	0.008785568
57	0xbc03c200	-0.008041859
58	0x3c3ee0e8	0.0116503015
59	0x3d16bba0	0.036800027
60	0x3d7bc5b6	0.06146785
61	0xbca305a0	-0.019900143
62	0xbd9eda17	-0.07756441
63	0xbd99a91c	-0.07502958
64	0xbc667a38	-0.014067225
65	0xbd33e8fe	-0.04392337
66	0x3cf39f00	0.029738903
67	0x3d05bf8a	0.03265337
68	0xbc08b7d0	-0.008344606
69	0xbc15dac0	-0.009146392
70	0x3cc24b70	0.023717612
71	0xbd68a5f6	-0.056798898
72	0xbd639ae0	-0.055567622
73	0xbd86dc4f	-0.06584989
74	0xbcad15c6	-0.021128546
75	0x3d713c0e	0.058895163
76	0xbd6ea318	-0.058261007
77	0x3ca71fc4	0.02040089
78	0x3d375a9c	0.044764146
79	0x3c9915b0	0.0186871
80	0xbaf37680	-0.0018574744
81	0xbd07f57b	-0.033193093
82	0x3d9dcc1f	0.07704949
83	0xbb9e8b20	-0.0048383623
84	0xbc90a988	-0.017658964
85	0x3d28deae	0.04122799
86	0x3ce6d178	0.028176054
87	0x3ce3a784	0.027789839
88	0xbca27896	-0.01983289
89	0x3d524d12	0.05134303
90	0x3cd8c4a8	0.02646096
91	0x3d1f0e70	0.038832128
92	0xbd58b163	-0.052903544
93	0xbd3e5aa4	-0.04647316
94	0xbd83fd0f	-0.064447515
95	0x3c9d0cfc	0.01917123
96	0xbd5dce66	-0.054151915
97	0xbd9fadef	-0.07796847
98	0x3d89e9f3	0.067340754
99	0x3cbb2f28	0.022849634
100	0x3d26030c	0.04053025
101	0xbd5cd950	-0.053918183
102	0xbcd5d2a2	-0.026101414
103	0xbd12c567	-0.03583279
104	0xbd2d8245	-0.042360563
105	0x3d7752aa	0.06038157
106	0x3c8ca670	0.017169207
107	0xbc646aa8	-0.013941444
108	0x3ca54bd8	0.020177767
109	0xbd0febed	-0.035137106
110	0xb9c05c00	-0.0003668964
111	0xbc668258	-0.014069162
112	0xbcb52880	-0.022114038
113	0x3d91e1b3	0.07123127
114	0xbc8be984	-0.017079122
115	0xbd8776e5	-0.06614474
116	0xbd724180	-0.059144497
117	0xbcea730a	-0.028619308
118	0x3d3bb4d8	0.045826763
119	0x3d0ba576	0.034093343

weight f4 [84, 120]
0	0x3cbbae68	0.022910312
1	0x3d2ebacc	0.042658612
2	0xbd5fa3e9	-0.054599676
3	0xbda6cb22	-0.08144213
4	0x3d9f9326	0.07791738
5	0x3d6e9648	0.058248788
6	0xbd9c2dbb	-0.0762591
7	0xbd369f56	-0.04458555
8	0x3d9ffa2c	0.078113884
9	0x3d2ee954	0.042702988
10	0x3d99c3d8	0.07508057
11	0x3c8d1ce8	0.017225698
12	0xbd87488e	-0.066056356
13	0x3cdb0398	0.026735112
14	0x3da20f94	0.079131275
15	0xbd1055c9	-0.03523806
16	0x3d3c7a70	0.046015203
17	0xbd4ba817	-0.04972085
18	0xbdb45f6a	-0.08807261
19	0x3d8ce55e	0.06879686
20	0xbd0bf508	-0.034169227
21	0xbc39cfe0	-0.011341065
22	0x3c93a198	0.01802139
23	0xbd9f5441	-0.07779742
24	0xbda6cd27	-0.081445985
25	0xbd28b565	-0.041188616
26	0x3d179f10	0.03701693
27	0x3d080350	0.033206284
28	0x3da89fa8	0.08233577
29	0xbdb81103	-0.0898762
30	0xbd7f3574	-0.062306836
31	0xbc563ec8	-0.013076492
32	0x3d40b9d4	0.04705222
33	0x3d540430	0.051761806
34	0xbd9ed48c	-0.07755384
35	0x3c30ba20	0.010786563
36	0x3da8f272	0.08249368
37	0x3c89ead0	0.0168356
38	0xbd6e3ac6	-0.05816152
39	0x3b24ebc0	0.0025164932
40	0x3bfb5c60	0.007670924
41	0xbdb9915e	-0.0906093
42	0xbd3a3177	-0.04545733
43	0x3ca46478	0.020067438
44	0xbd760d48	-0.06007126
45	0x3c97ac4c	0.018514775
46	0xbdb950b0	-0.09048593
47	0xbd37b234	-0.044847682
48	0xba945f00	-0.0011319816
49	0xbd9b9613	-0.07596984
50	0x3da4ab3c	0.08040473
51	0xbd9eabb6	-0.07747595
52	0x3d1f2ae0	0.03885925
53	0xbba98a10	-0.005173929
54	0xbbad33e0	-0.005285725
55	0xbc371bd8	-0.011176072
56	0xbd8639f8	-0.065540254
57	0x3da791ce	0.08182107
58	0x3da9787c	0.08274934
59	0x3dae7dea	0.0852011
60	0x3d64ad68	0.055829436
61	0x3c40e0b8	0.011772327
62	0xbccf147c	-0.025278322
63	0x3ccb7d3c	0.02483999
64	0x3d6166d4	0.055029705
65	0x3d1f575c	0.03890167
66	0x3d8a885c	0.0676429
67	0xbdaf90ce	-0.08572541
68	0x3cb65c80	0.022260904
69	0x3d626358	0.055270523
70	0xbd342ba6	-0.04398694
71	0xbd7ac60f	-0.06122404
72	0xbd22fbb6	-0.03979083
73	0xbd8057d8	-0.06266755
74	0x3cad4fc4	0.0211562
75	0xbd996487	-0.07489877
76	0xbd6b6e42	-0.057478197
77	0xbbe787e0	-0.007065758
78	0xbd62eee0	-0.05540359
79	0xbcab0870	-0.020878047
80	0x3c0feb10	0.008784071
81	0xbd256d8b	-0.04038767
82	0x3d966730	0.073439
83	0xbd97eb68	-0.07417947
84	0x3bd69dc0	0.006549567
85	0x3d0b1ca4	0.03396286
86	0xbc9dd370	-0.01926586
87	0x3c3ae148	0.01140625
88	0x3d1faf94	0.038985804
89	0x3d68348c	0.056690738
90	0x3c8305d4	0.01599399
91	0x3d2b7b28	0.041865498
92	0xbda01025	-0.07815579
93	0xbda414df	-0.08011793
94	0x3d66cce4	0.056347743
95	0x3cc9392c	0.024563394
96	0x3da912ec	0.08255562
97	0x3d774138	0.06036493
98	0x3cc44508	0.023958698
99	0x3d646604	0.055761352
100	0x3d96a7ce	0.07356225
101	0x3d0d3e4c	0.03448324
102	0xbd5bcdaf	-0.053662952
103	0x3b2b4c40	0.0026137978
104	0xbd4c5bf8	-0.049892396
105	0x3b8112f0	0.003939025
106	0x3da9dc46	0.08293967
107	0x3dac80b4	0.08422986
108	0x3d31becc	0.04339485
109	0x3d75d8f4	0.060021356
110	0x3d7cbd34	0.061703876
111	0x3d7a0628	0.061041027
112	0x3d722244	0.05911471
113	0x3d5ccd88	0.053906947
114	0xbda172c9	-0.07883222
115	0x3da027ca	0.07820089
116	0xbd9c5a8e	-0.076344594
117	0xbd550ee8	-0.05201617
118	0xbd6bdb9f	-0.057582494
119	0x3d3ff8b0	0.046868026
120	0x3b989fa0	0.0046577007
121	0xbd591653	-0.052999806
122	0xbda7e422	-0.0819781
123	0xbd9ac68c	-0.07557401
124	0xbdb2703a	-0.08712812
125	0x3d0d4210	0.03448683
126	0xbdb7658d	-0.08954916
127	0x3bbcab30	0.005757712
128	0x3c22bdc8	0.009932943
129	0xbc699ef8	-0.0142590925
130	0x3d83ab94	0.0642921
131	0x3d39f8fc	0.045403466
132	0xbca07048	-0.01958479
133	0x3d9ac45e	0.07556985
134	0xbda8a450	-0.08234465
135	0xbd6bba65	-0.057550807
136	0x3d41f138	0.047349185
137	0x3d886fdc	0.066619605
138	0x3d2f6194	0.042817667
139	0xbc5670e8	-0.013088442
140	0xbc8a65d4	-0.016894259
141	0xbc4f8440	-0.012665808
142	0xbd05913c	-0.03260921
143	0x3d9ee7f2	0.07759084
144	0x3c7ab7e0	0.015302628
145	0xbdad1430	-0.08451116
146	0x3cbcb4f4	0.023035504
147	0x3d51f658	0.051260322
148	0x3c53c278	0.012924783
149	0xbd8dfa65	-0.069325246
150	0x3d33b6c0	0.043875456
151	0x3d7fff5c	0.06249939
152	0x3d990832	0.07472266
153	0xbc6d6c30	-0.014491126
154	0x3daa5bc4	0.08318284
155	0x3db49148	0.08816773
156	0x3d96a1b8	0.07355064
157	0xbd880e97	-0.06643408
158	0xbcee1bdc	-0.029066019
159	0xbdace537	-0.08442157
160	0xba10ab00	-0.0005518645
161	0xbd9985cb	-0.07496222
162	0xbd57d7f9	-0.052696202
163	0x3dae8676	0.0852174
164	0xbd934bed	-0.07192216
165	0xbd3dc8eb	-0.04633419
166	0x3c87c178	0.016571745
167	0xbd9ef9c4	-0.07762483
168	0xbbd12020	-0.0063820034
169	0x3da67fc8	0.08129841
170	0xbd0402b3	-0.032229137
171	0xbd15b09c	-0.03654538
172	0x3d7b3340	0.061328173
173	0xbd86e689	-0.0658694
174	0x3d873d88	0.06603533
175	0xbce52698	-0.027972504
176	0x3d804eea	0.06265052
177	0xbda9f340	-0.082983494
178	0x3d2efa78	0.042719334
179	0x3d951724	0.07279804
180	0xbd0fb475	-0.035084207
181	0x3cf62bac	0.030050121
182	0x3d76fc5c	0.060299262
183	0xbc48f508	-0.012265451
184	0xbdb364cd	-0.087594606
185	0x3d3910d8	0.04518208
186	0x3dad75d4	0.084697396
187	0x3db5c25a	0.0887496
188	0xbc8597c4	-0.016307719
189	0x3d38cce4	0.045117274
190	0x3d5e0e2c	0.054212734
191	0xbc80af4c	-0.015708588
192	0xbbe52500	-0.006992936
193	0xbc655bf0	-0.01399897
194	0xbd96122b	-0.07327684
195	0xbda6fff4	-0.08154288
196	0x3d9c08e2	0.07618882
197	0x3c7f8828	0.015596427
198	0xbd541f27	-0.05178752
199	0x3c7d8fb0	0.015476152
200	0x3d357144	0.04429747
201	0xbd1665ee	-0.0367183
202	0xbd3a4fcb	-0.045486253
203	0x3ade92c0	0.0016980991
204	0xbdaa60f0	-0.083192706
205	0x3d61e0a0	0.05514586
206	0xbca18f78	-0.019721732
207	0x3d7b5380	0.06135893
208	0xbc6e2f40	-0.014537632
209	0x3d90aec8	0.07064587
210	0x3c96a9fc	0.018391602
211	0xbd226768	-0.039649397
212	0xbac49500	-0.0014998019
213	0xbcc10538	-0.023562059
214	0x3a97e040	0.0011587217
215	0x3d905ea4	0.07049301
216	0x3cb62898	0.022236153
217	0x3d5298b4	0.05141516
218	0x39b7c600	0.00035052001
219	0xbd75baa7	-0.05999246
220	0x3d1f4d68	0.03889218
221	0x3d9e0a90	0.077168584
222	0xbce85fc8	-0.028365985
223	0xbd8b8eb7	-0.0681433
224	0xbc96aa80	-0.018391848
225	0x3d6af21c	0.0573598
226	0x3dabaeec	0.08382973
227	0x3da47770	0.080305934
228	0x3cc15168	0.023598388
229	0x3cdad5ac	0.026713215
230	0xbcfbc944	-0.03073562
231	0x3da3afb0	0.07992494
232	0xbc248f88	-0.010043986
233	0xbd737adc	-0.05944334
234	0xbdaf9241	-0.085728176
235	0x3d4a4b10	0.04938799
236	0xbd9b3316	-0.07578103
237	0x3d76c9b4	0.060250953
238	0xb87ee000	-6.0766935e-05
239	0x3d6bb558	0.05754599
240	0x3da4de72	0.080502406
241	0xbcf96e4c	-0.030448101
242	0xbdba8b88	-0.09108645
243	0x3db76986	0.08955674
244	0xbbb0e810	-0.0053987578
245	0x3da98b28	0.08278495
246	0xbbc23d60	-0.0059277266
247	0xbc6218e8	-0.013799883
248	0x3d531558	0.051534027
249	0x3cb364a0	0.021898568
250	0xbd524851	-0.051338498
251	0x3b383660	0.0028108582
252	0x3c968bc0	0.018377185
253	0xbd0976b8	-0.033560485
254	0xbd76a396	-0.0602146
255	0x3d7fa1e8	0.062410265

bias f4 [84]
0	0xbd8e7c49	-0.06957299
1	0xbc1549e0	-0.009111851
2	0xbcd7d748	-0.026347771
3	0x3d1ed3dc	0.038776264
4	0xbcda3d80	-0.026640654
5	0xbda1d983	-0.07902815
6	0x3d3269b0	0.043557823
7	0x3d4db294	0.050219133
8	0xbd8dd4dd	-0.06925366
9	0xbd08b386	-0.033374332
10	0xbd1c6630	-0.03818339
11	0xbd88cd8c	-0.0667983
12	0x3d08f88e	0.033440165
13	0xbc900cd0	-0.017584234
14	0xbbce6ff0	-0.006299965
15	0x3c3b3930	0.011427209
16	0xbc2ff068	-0.01073847
17	0xbd90339c	-0.07041094
18	0xbd1e621c	-0.038667783
19	0xbd55d2b2	-0.052202888
20	0x3cec215c	0.0288245
21	0xbd58d8a1	-0.05294097
22	0xbd2b3f2a	-0.041808285
23	0xbd83e668	-0.06440431
24	0xbdbad381	-0.091223724
25	0x3d209450	0.03920394
26	0xbc7054e8	-0.014668681
27	0x3c5827e8	0.013193108
28	0xbd76662e	-0.06015604
29	0x3d29a4ac	0.04141681
30	0x38def400	0.000106312335
31	0x3cbdc1bc	0.023163669
32	0x3d1ef970	0.0388121
33	0xbda806d3	-0.082044266
34	0x3c608bf8	0.013705246
35	0x3d701388	0.058612376
36	0xbd81cb0f	-0.063375585
37	0xbd1af88f	-0.0378347
38	0xbda4269c	-0.08015177
39	0x3d70bf2c	0.058776066
40	0xbd210216	-0.03930863
41	0xbd06bcce	-0.032894902
42	0xbc68eea8	-0.014217056
43	0x3d8c02ae	0.068364486
44	0x3d5748a8	0.052559525
45	0x3db00e44	0.08596471
46	0x3db4d9d0	0.08830607
47	0xbd314ef4	-0.043288186
48	0x3d07d30c	0.033160254
49	0x3cdcbc20	0.026945174
50	0x3d3af100	0.04563999
51	0x3d922694	0.071362644
52	0xbcded004	-0.027198799
53	0x3d8bb0a6	0.068208024
54	0x3cbf02f0	0.02331683
55	0x3d5b1b58	0.053492874
56	0xbd2d1e81	-0.04226542
57	0x3d430f24	0.04762186
58	0x3d291024	0.04127516
59	0xbd55ee84	-0.05222942
60	0x3d9acde0	0.07558799
61	0x3b737a20	0.003715165
62	0x3d26db68	0.040736586
63	0x3ca7f0f4	0.020500638
64	0xbd1c8be9	-0.038219366
65	0x3d9bae54	0.0760161
66	0x3db3d6ea	0.08781226
67	0xbc225e38	-0.009910159
68	0x3d4f8e20	0.05067265
69	0xbda05ff5	-0.07830802
70	0x3d2ff624	0.042959347
71	0x3d9e3ca8	0.07726413
72	0x3cccf588	0.025019422
73	0x3c922dd0	0.01784411
74	0x3c991ec4	0.018691428
75	0x3d007ff2	0.03137202
76	0x3daf70e0	0.08566451
77	0xbdb7db37	-0.08977359
78	0xbc88eec4	-0.016715415
79	0xbcac4fb0	-0.021034092
80	0xbb0f5160	-0.0021868572
81	0x3c3d23f0	0.011544213
82	0xbcd4f26c	-0.025994502
83	0x3c4a2e60	0.012340158

weight f4 [10, 84]
0	0xbcf4bc74	-0.029875018
1	0xbd9a5ae9	-0.07536871
2	0x3db8d4f9	0.09024996
3	0xbdc46519	-0.09589595
4	0x3c64bb80	0.013960719
5	0x3c83dc74	0.016096331
6	0x3c838c94	0.016058244
7	0x3d908155	0.07055918
8	0x3add1480	0.0016867071
9	0x3c4c1a18	0.012457393
10	0x3ba57680	0.0050495267
11	0x3dba81b5	0.09106771
12	0xbbe4c1a0	-0.0069810897
13	0x3ce8b224	0.028405257
14	0x3d91ba19	0.071155734
15	0x3db2224b	0.08697947
16	0x3dd1581d	0.102218844
17	0xbdc70d8a	-0.09719379
18	0x3d62d3e6	0.055377863
19	0x3cebc954	0.028782524
20	0xbd2a43d2	-0.041568585
21	0x3c0b5320	0.008503705
22	0xbcc4d308	-0.024026409
23	0x3d5ff37e	0.05467557
24	0xbcc60ce8	-0.024176076
25	0xbd82a227	-0.06378584
26	0xbdb7546c	-0.08951649
27	0x3c6fa300	0.014626265
28	0xbdbbeec0	-0.09176397
29	0xbddd147f	-0.10794925
30	0x3cea354c	0.028589867
31	0xbd060c66	-0.032726668
32	0x3cfc03d4	0.030763544
33	0xbd65ac08	-0.056072265
34	0x3da4a2d9	0.08038873
35	0x3d9c6341	0.07636119
36	0xbda00618	-0.07813662
37	0x3ddbef23	0.10738971
38	0xbd722d54	-0.05912526
39	0xbd035c98	-0.032070726
40	0xbd59da4d	-0.053186703
41	0xbd0faa36	-0.035074435
42	0x3c94ed5c	0.018179588
43	0x3d1e3dde	0.03863322
44	0x3c9ad42c	0.0189
45	0x3dd7b49b	0.10532495
46	0xbd9d3dc8	-0.076777995
47	0x3d4f46a2	0.05060447
48	0x3c7fd0e0	0.0156137645
49	0x3d9b2039	0.07574505
50	0xbce94dcc	-0.02847948
51	0xbdd29d5c	-0.1028392
52	0x3d437e5e	0.047727935
53	0xbc9e3b98	-0.019315526
54	0x3da47b07	0.08031278
55	0xbd34325c	-0.04399334
56	0xbc0ba9f8	-0.00852441
57	0x3ca62a84	0.020283945
58	0xbc396a28	-0.0113168135
59	0x3d92c855	0.071671166
60	0x3d87103d	0.06594894
61	0xbdafc583	-0.08582594
62	0x3ddf5175	0.109042086
63	0xbc33e808	-0.0109806135
64	0xbddd71d5	-0.10812727
65	0xbdbe89c8	-0.093036234
66	0x3db0c677	0.08631604
67	0x3d6c22a6	0.05765023
68	0xbdded0a5	-0.108796395
69	0x3c9b7384	0.01897598
70	0x3c902274	0.017594554
71	0xbd557f63	-0.05212344
72	0x3daeabe7	0.085288815
73	0x3cd35fac	0.025802456
74	0xbcce54a0	-0.025186837
75	0xba9ce300	-0.0011969507
76	0xbda7ab7e	-0.081870064
77	0x3d716f4e	0.05894404
78	0xbd8cee3b	-0.06881376
79	0xbae88d40	-0.0017742291
80	0x3dbbaa5f	0.09163355
81	0x3ddbdb65	0.107352056
82	0xbc580340	-0.013184369
83	0xbd962246	-0.07330756
84	0x3dc2ba11	0.095081456
85	0x3ddc06a5	0.10743455
86	0x3cb00a24	0.02148921
87	0xbc92c41c	-0.017915778
88	0xbdd42426	-0.10358457
89	0xbd8067a8	-0.06269771
90	0x3d8efaaf	0.06981408
91	0xbdcfe8f9	-0.10151858
92	0x3d8519d9	0.06499071
93	0xbd9ac5b0	-0.07557237
94	0xbd05ea40	-0.0326941
95	0xbd432949	-0.047646794
96	0xba14e680	-0.0005680099
97	0xbd207640	-0.039175272
98	0xbdd09273	-0.10184183
99	0x3dc76d9d	0.09737704
100	0x3d394092	0.045227595
101	0xbdd92fb4	-0.10604802
102	0xbd2144b6	-0.03937217
103	0x3d50d8d6	0.05098804
104	0xbc13d958	-0.009023987
105	0xbcba0da0	-0.022711575
106	0xbd811ac9	-0.06303937
107	0x3d9be60b	0.076122366
108	0x3d70668e	0.058691554
109	0x3cda8ed4	0.026679434
110	0x3cfd6cbc	0.030935638
111	0xbdb00624	-0.08594921
112	0x3b94eab0	0.0045445785
113	0x3d30ce0a	0.043165244
114	0x3d8dfc81	0.06932927
115	0x3dda2c5d	0.10652993
116	0xbdd0f21f	-0.10202431
117	0xbd1ca7b8	-0.038245887
118	0xbd8d31f4	-0.068942934
119	0xbd645f27	-0.055754807
120	0x3ccc98ac	0.024975143
121	0x3d4906f6	0.049078904
122	0x3d787b1e	0.06066429
123	0x3dcf75cd	0.101298906
124	0x3dd1afff	0.10238647
125	0x3dde51b5	0.10855428
126	0x3d569d3a	0.052396037
127	0xbd42dc49	-0.04757336
128	0xbda49b6b	-0.08037456
129	0xbc5e0a48	-0.013552256
130	0x3d203352	0.039111443
131	0x3da9a50f	0.082834356
132	0xbd6b40ec	-0.05743496
133	0xbd1d1612	-0.038351126
134	0xbd8798ec	-0.066209644
135	0xbc60bc58	-0.01371678
136	0xbce21c04	-0.02760125
137	0x3a692e00	0.0008895099
138	0xbd03ff0e	-0.03222566
139	0x3da7a453	0.08185639
140	0x3c6cf0f0	0.014461741
141	0x3d5e0d26	0.054211758
142	0xbcb79804	-0.022411354
143	0xbd8a2c56	-0.06746738
144	0xbda2512c	-0.079256386
145	0x3db3ba69	0.08775789
146	0x3c2485a0	0.010041624
147	0xbd348d08	-0.04407981
148	0xbd83d63a	-0.06437345
149	0xbd257c6a	-0.040401854
150	0xbdc1b73e	-0.09458779
151	0x3cd4d3ec	0.025979958
152	0xbd1350a2	-0.03596557
153	0x3c871a74	0.016492106
154	0xbcac87fc	-0.021060936
155	0xba4d5280	-0.0007832423
156	0x3a8f86c0	0.0010950193
157	0xbdd5dee6	-0.10442905
158	0xbc901a38	-0.017590627
159	0x3cb74c64	0.022375293
160	0x3d5c25ba	0.053746916
161	0x3d9481c1	0.07251311
162	0xbd621a6b	-0.055200975
163	0x3d7eb95a	0.062188484
164	0x3b65e1e0	0.003507726
165	0xbdb82b16	-0.08992593
166	0x3d147166	0.036240958
167	0x3d6bc6ca	0.057562627
168	0xba08be80	-0.0005216375
169	0x3d29704a	0.041366853
170	0xbcc23ab0	-0.023709625
171	0x3db60c51	0.08889068
172	0x3d00ac22	0.03141416
173	0xbcca2358	-0.024675056
174	0xbd9e82d5	-0.07739798
175	0x3d602d76	0.054730855
176	0xbc7bd910	-0.015371576
177	0x3d6922ce	0.056917958
178	0x3d6fdc4a	0.058559693
179	0x3ca586dc	0.020205908
180	0x3d83298f	0.06404411
181	0x3dd4f3fb	0.10398098
182	0xbd8b37fe	-0.06797789
183	0x3dad8539	0.08472676
184	0x3d393362	0.045215018
185	0x3d1db02e	0.038498096
186	0xbdcd1d30	-0.10015333
187	0x3ab12900	0.0013516247
188	0x3ca8fe8c	0.02062919
189	0x3c1bf310	0.0095184
190	0x3bd31220	0.0064413697
191	0x3dac0ea5	0.08401231
192	0xbd1e1890	-0.038597643
193	0xbda205fc	-0.07911298
194	0xbd47dba4	-0.04879345
195	0xbdda5079	-0.1065988
196	0x3d046d72	0.032330938
197	0xbd9c4028	-0.07629424
198	0x3db87701	0.09007073
199	0x3da4077d	0.08009241
200	0xbcf1fab8	-0.029538497
201	0xbd881a0e	-0.066455945
202	0x3a8098c0	0.0009811148
203	0x3ca88214	0.020569839
204	0x3d0609e6	0.032724284
205	0xbd492dac	-0.04911582
206	0x3c91aeac	0.017783485
207	0xbc4a8ca8	-0.012362637
208	0xbddc273b	-0.1074967
209	0x3d06c646	0.032903932
210	0x3dc72379	0.09723563
211	0xbd545ca7	-0.051846173
212	0xbdb8d5d2	-0.09025158
213	0x3cbe3204	0.023217209
214	0xbd855f50	-0.0651232
215	0x3dd5b56d	0.10434995
216	0x3c2f0170	0.010681495
217	0xbdac22fc	-0.0840511
218	0x3d59e716	0.053198896
219	0x3db5f823	0.08885219
220	0xba352180	-0.0006909594
221	0xbc226830	-0.009912536
222	0xbdb4c6ab	-0.088269554
223	0x3dc113a3	0.094275735
224	0xbc7f4180	-0.015579581
225	0xbd96aa9b	-0.07356759
226	0x3dcf49f3	0.101215266
227	0xbd54b0f7	-0.05192658
228	0x3cac560c	0.021037124
229	0x3cf590cc	0.029976271
230	0xbd3ad50a	-0.045613326
231	0xbdd618cb	-0.10453948
232	0x3c3b4ca0	0.011431843
233	0x3d4e3b2e	0.050349407
234	0xbd065c26	-0.032802723
235	0x3dd77933	0.10521164
236	0xbc452cc0	-0.012034595
237	0xbd6f0d62	-0.058362372
238	0x3d8c4703	0.06849482
239	0xbd5873eb	-0.052844923
240	0x3b04eca0	0.002028264
241	0xbdb1d5cc	-0.08683357
242	0xbcc1447c	-0.023592226
243	0xbca88ef4	-0.020575978
244	0x3d980927	0.07423621
245	0xbdb181cc	-0.08667335
246	0xbdd8bb5f	-0.10582613
247	0xbbefbe50	-0.007316388
248	0xbdd936d4	-0.10606161
249	0x3cf6780c	0.03008654
250	0x3be4e140	0.0069848597
251	0xbd932bb0	-0.07186067
252	0xbd216830	-0.039406
253	0xbdd463e5	-0.10370616
254	0x3dc933eb	0.09824356
255	0x3cc28a94	0.02374772

bias f4 [10]
0	0xbd04b548	-0.032399446
1	0x3a619880	0.0008605793
2	0xbd988e15	-0.07448975
3	0xbd364bce	-0.044505887
4	0xbd6e7149	-0.058213506
5	0x3d32673e	0.04355549
6	0x3dbadad9	0.09123773
7	0x3dcdbd55	0.10045878
8	0xbcedf750	-0.029048592
9	0x3d75084e	0.059822373
